models/10s30s_direction_mlp_fold2.pth (torch, 449874 bytes, 20 tensors)

network.0.weight f4 [256, 262]
00000000: aacd f73c 2784 1dbd 5ec9 163d be22 2f3b
00000010: 5bf3 1bbd b55d 9b3c 995e c13a e6ce 043d
00000020: 3c9b a63c 7084 613d 8f1c c33c 335e ca3c
00000030: 28f9 5b3d 54f2 dabc 1834 833c 04eb 263c
00000040: 3e18 3d3d f6c3 11bc f6f3 21bc 6964 f9bc
00000050: 3c24 17bb 0215 613d 6267 d23c bd82 ff3c
00000060: b55d 753d 3cfc d73c d7d3 c73c 06ca 623d
00000070: 9e1c efba 1ed9 bd3c be0f 593d 4f1b 9fbc
00000080: 1d06 a9bc 0a95 d1bc 8498 603d 388a 123d
00000090: 2fb0 3fbd db5a 8c3c 9d7d ba3c 94c3 8abc
000000a0: 5639 3bbd ff94 dc3b 2686 99bc a3f0 e0bc
000000b0: 7dbf 3b3d 4467 983c 557e 043d 608e 8b3d
000000c0: 6fc7 8b3d d028 aabc 2580 a43c 42bd e7bc
000000d0: aac1 603d 3c0f 47bc b8c5 833d a0ab 63bd
000000e0: 1f37 193d bb0e 2dbd 5236 e0bc 7160 06bd
000000f0: 5b25 133d 73a3 413c a37d 0cbc 62d7 e838
00000100: 0e3d 1f3d 83dd 40bd bdc5 223d 34c6 3ebd
00000110: 1e69 62bd 7947 29bc 9055 653c 48ea fdbc
00000120: dfd3 2b3c f8f2 2cbd fc7f c0bb 9a69 9dbc
00000130: 78a5 35bd 806c 5dbd 3219 cd3c fbd6 493d
00000140: c42a 4a3c fda6 713d 2bd4 0abd c34d 0bbd
00000150: 8e28 cc3c 798e 1a3d 0eb3 5d3d fb4f dcbc
00000160: 8a3a 683d 0f76 2fbd dc9f 563d 41d9 473c
00000170: c86f 01bd f302 523d bb29 29bd b71a 32bd
00000180: 7790 25bd 63c0 92bc e54d 3d3d 5643 06bc
00000190: cee5 793d c537 31bd cbd4 623b 6aba 643d
000001a0: 80ee 2a3d c59a 413d 6a62 49bd 8bb7 713d
000001b0: 4acd 3cbd 2993 25bd 4a35 5e3d 8e35 133c
000001c0: aff5 db3c 67b0 3bbc c090 6fbc f2b9 303b
000001d0: afd6 1cbb 3fa3 e7bb 3da1 0fbd f5d1 01bc
000001e0: 4ed8 f43c 1da4 1dbd 85a3 8c3c 2d07 53bd
000001f0: d20f 63bd a92e a4bc a972 633d 11a8 cdbb
00000200: fa86 0dbb c9e9 433d c868 733d 792d ff39
00000210: 98fb 89bc 0964 8f3c 9034 f33c fc4f 9abc
00000220: 2f97 783d b1db 66bd ae3d ef3c 3997 07bd
00000230: b091 813d 36fa 86bc 81a2 54bd abb0 7cbb
00000240: 592d 2a3d 8187 d2bc 3db3 063d e9e5 e9bc
00000250: f8a4 313d 446e d93c 8053 52bb 6f3b 59bd
00000260: 2f01 12bd 4e61 503c 6e19 64bc 3367 e5bc
00000270: 42ea bc3b bc9d bfbc 9ffe e63c f531 233d
00000280: 9687 3fbd 47dc 2a3d 5bbc 3abd 4c47 81bc
00000290: 65f6 3f3d 8150 923c dc2b 6b3c 5e6c 633d
000002a0: 409a 0abd bbb6 e5bb 6200 d33c fd50 1aba
000002b0: 5a9e 16bd ca3f c03a 940a 28bd ccc3 753d
000002c0: eb52 0c3d 33e3 78bc 2c1a d23b 7ac0 a53b
000002d0: ed1f a1bb d820 543d 0c6d f03b 85c9 363d
000002e0: 83a2 47bc aa59 f63c 2ce0 123d 4cfc cd3c
000002f0: 7ada 793a 4fa8 713d d01e a2bc 4620 513d
00000300: c3a1 c2b9 1374 68bd 7996 383d 07ba 803c
00000310: da34 02bd 7e52 e13b d3a8 eebb d646 2e3c
00000320: b1be bbbb 24fe 073d eccd 6fbc 72c2 0b3d
00000330: 7b19 4d3d b8d8 42bd 01ad ec3c 32b8 4dbd
00000340: 5349 5a3d 1376 463d 43ac 3a3d 7c10 843d
00000350: 97a2 3ebd 08ed 9e3c 64d2 d13c 573e 2b3c
00000360: 77f3 2c3d c683 87bc 7afb 4f3d 99f6 d5bc
00000370: 7e0e 21bc 6746 333d 5f28 1cbd ab98 023d
00000380: b46d 3a3d 231a ab3c 1cb5 673d 69a2 c2bc
00000390: 2019 063d 859f 323d 4970 143b c2d2 4cbd
000003a0: a7ff 35bd a2bd 05bd df7f 163d d423 293d
000003b0: f7f7 863d 6631 b6bc f19e fdbc 2a96 17bc
000003c0: 5995 78bd b269 683c c5a4 f93b 6f1b 7a3d
000003d0: 4015 153d 667d 793d 2564 64bd fcee 51bd
000003e0: 5508 b03c 65e7 57bd ad0b 5d3d 1f75 f63c
000003f0: 71fc 68bd c072 41bc 8b1d 2a3c de94 d3bc
0.030249435 -0.03845611 0.036813132 0.0026723589 -0.03807388 0.018965581 0.0014752924 0.032423876
0.020337693 0.055057943 0.023817329 0.02470312 0.05370441 -0.02672688 0.016016051 0.010187868
0.046165697 -0.008896818 -0.009884825 -0.030443387 -0.002306237 0.054951675 0.025684062 0.03119027
0.05990382 0.026365392 0.024393005 0.055368446 -0.0018242782 0.023174819 0.05299353 -0.019422201
-0.020632798 -0.025583763 0.05483295 0.035776347 -0.04679888 0.017133167 0.022764975 -0.016938962
-0.045708977 0.006731629 -0.018740725 -0.027458495 0.045836914 0.018603928 0.032347042 0.06814265
0.06825148 -0.020771414 0.020080635 -0.028288487 0.054872192 -0.012149628 0.06434196 -0.055583596
0.037406083 -0.042250376 -0.027369652 -0.032806817 0.035924297 0.0118187545 -0.008574876 0.0001110274
0.038876586 -0.04708625 0.03973936 -0.04657574 -0.05527603 -0.010331982 0.0139974505 -0.030995503
0.010487526 -0.0422239 -0.005874632 -0.019215394 -0.044347256 -0.05405855 0.025036428 0.049277287
0.012339298 0.058997143 -0.033893745 -0.034009706 0.024921682 0.03773353 0.054125838 -0.026893606
0.056696452 -0.0428372 0.052398548 0.012197793 -0.031600744 0.051272344 -0.041299563 -0.04348251
-0.040420976 -0.017914003 0.046216864 -0.008194765 0.061010174 -0.043266077 0.0034611698 0.05584184
0.041731358 0.04726674 -0.04916612 0.05901293 -0.046094216 -0.040423546 0.05425004 0.008984936
0.02685055 -0.011455632 -0.014621913 0.00269663 -0.0023931672 -0.007069021 -0.03506588 -0.007923593
0.029888298 -0.03848659 0.017167816 -0.051520515 -0.05543501 -0.02004178 0.05552927 -0.0062761386
-0.0021595345 0.047830377 0.0594261 0.0004867127 -0.016843602 0.017503755 0.02968815 -0.018836968
0.060691055 -0.056361858 0.029204216 -0.0331032 0.06326616 -0.016476732 -0.05191279 -0.003855745
0.041547153 -0.025699379 0.03288578 -0.028552013 0.043370217 0.026541837 -0.0032093227 -0.053035196
-0.03564566 0.012718512 -0.013922079 -0.02800331 0.0057652304 -0.023390643 0.028197585 0.039842565
-0.046760164 0.04171398 -0.045589786 -0.015781067 0.04686584 0.017860653 0.014353719 0.05552327
-0.03383851 -0.0070103086 0.025757018 -0.0005886702 -0.03677211 0.0014667448 -0.041025713 0.06000118
0.034258764 -0.015190887 0.0064118113 0.0050583454 -0.004917136 0.051789135 0.007337218 0.044625778
-0.012184742 0.030072052 0.03585832 0.025144719 0.0009531152 0.058998402 -0.019790083 0.05105617
-0.00037123085 -0.056751322 0.045065377 0.015713705 -0.031788684 0.006876289 -0.007283309 0.010637006
-0.0057295193 0.03320135 -0.014636498 0.034120984 0.05007313 -0.04756996 0.028891088 -0.05022449
0.053292584 0.048452448 0.045574438 0.06448457 -0.046541777 0.019400135 0.025613017 0.010451875
0.042224374 -0.016542327 0.050776936 -0.026118563 -0.009830115 0.043768313 -0.03812444 0.031883877
0.045514777 0.020886486 0.056569204 -0.023759084 0.032738805 0.04360916 0.0022649935 -0.05000568
-0.044433262 -0.03265155 0.03674304 0.041293934 0.06590264 -0.022240352 -0.030959578 -0.0092521105
-0.060689304 0.014185356 0.007618519 0.06106132 0.03639722 0.060910605 -0.055759568 -0.051253304
0.021488348 -0.05271091 0.053966213 0.030085145 -0.056881372 -0.011807144 0.01038302 -0.025827821

network.0.bias f4 [256]
00000000: fd9b 023c 088e 81bd d3ba 75bb d020 513d
00000010: c37c 7a3d 2e09 313d 6c30 e9bc 5b62 02bd
00000020: 62ac bd3c 57a4 7e3c 6122 27bd 5d64 3dbc
00000030: de6c 77bd d4ba 313c f512 d03c 53f7 643b
00000040: d12a 44bd 97e8 8ebb 288b 033d 9353 303d
00000050: 5efe 873d 543b c6bc ea45 313b 491b 5fbd
00000060: f0d2 5c3d 8e0c 8dbd 9761 0abd 67be a6bb
00000070: 7d90 33bc 7ed9 58bd e6c5 1d3d b38b e7bc
00000080: 9d2d 1abc 9220 673d 35a0 99bc fa26 a13c
00000090: e611 9bbc 8a2f d9bc 91fe 933c fcf0 293d
000000a0: 4e49 4ebd 7276 263d 06f9 8bbb 13c0 d13c
000000b0: a95b 4a3d 64cb cfbc a423 52bd f697 173d
000000c0: 6f3d 83bd 6a44 223d 71fd 5a3c a30b 18bd
000000d0: 2570 13bd fe05 633d 7417 1cbc 2a6e 22bd
000000e0: 6524 efbc d96b 0cbd 0e37 b83c c5f9 b03c
000000f0: 24af 713d 6db2 66b9 b1ce 93bc 4bda 173d
00000100: e532 53bd 47ef de3c 50ce 343c 8f20 933d
00000110: be78 febb f954 263d 48a2 303d 2514 cc3c
00000120: 8ab8 2a3c ebc3 d8bc c847 483d ef13 af3c
00000130: fb3d 2ebd a57d a0bb 3f36 ba3c 3947 19bd
00000140: 028b 133d 5540 493c 9d9d 2cbc 771b 053d
00000150: 666d 4ebd 003b b13c 024c 113d fe22 a03a
00000160: 6e5e 1dbd 6982 9a38 b75f 373d 578b 13bc
00000170: 932c 283d e6ea 76b8 1996 633d 58ff 3c3d
00000180: 29fe 47bd d119 033d d876 663d 1d30 5e3d
00000190: 4c0a 81bb ba47 61bd 8572 41bb ebec 833c
000001a0: 3dec 553c f937 863d e2a5 2b3c d09e d53c
000001b0: 01a6 4cbd 0323 6f3d ddfe 10bc f2bd b0bc
000001c0: fd81 793c 02dd 033c c649 ff3c 7139 87bd
000001d0: d027 883d cabb 03bb d7cb 413d 8680 083b
000001e0: c78c f2bb 5397 0cbc a472 bb3b 6dff 8fbc
000001f0: 6ddf 06bc 845d 4abd b9e8 d7bc 0e4f 7bbd
00000200: f075 913c e9db 793b faa8 603d 03fc d03c
00000210: 7cb8 2bbd 71c0 a7bc 60ad fe3c c9af 483d
00000220: 15e6 273d b745 e6bc dea3 67bb 3bff 0f3d
00000230: 6bd7 3ebd f9b9 2b3d 8a63 0dbd c531 453d
00000240: f7ed c739 21cb 59bd 0469 23bc a74c 793b
00000250: f530 12bc 2608 d93b c38f f93c 2d2a 44bd
00000260: ac24 6ebd 2f02 2cbd 70ae 193d ab68 2f3d
00000270: 380b 083d 0af0 ba3c 06f5 713c 23fd b03c
00000280: dd25 3fbd 2811 653d 7590 1e3d 77f1 20bd
00000290: 5b19 0d3d 0760 713c d32c c4bb 9982 603c
000002a0: 8b97 2a3d 0b0b debc 8cd4 683d 46fc 433c
000002b0: 298d 943c 6f56 0d3d 1591 f2bc f9df 2b3d
000002c0: cb9d 2bbd 4f85 5abd 5576 f6bc 941b 823d
000002d0: 2a30 cebc 1305 4bbd 0a55 c73c 22f2 a13c
000002e0: 9a66 1c39 db20 153c 4b72 1dbc ec0c 77bd
000002f0: 5faf 2b3d fa26 60bd 0ada 693d 895d 2bbb
00000300: 4de0 febc b071 73bc 7820 513d 7a83 f23a
00000310: 11da cc3c eefd 77ba 0e55 6d3c 1552 98bc
00000320: 157e 583d 8021 7b3b dfec 48bd 46d0 78bd
00000330: 9f18 593d 279c 0dbd ff7a c8bb 8ac2 09bd
00000340: c144 58bd 32d1 92bc c75e 07bd fa6c f63c
00000350: 6bb9 843d 191f 803b 638e 2a3d 80c7 1d3d
00000360: ec8a d53c 6716 a0bb 0f10 5e3d 0da9 593d
00000370: bace ee3a 3147 9f3a a9ce 74bd 1b4c f03c
00000380: ad11 a3bc d022 5aba 8bd8 34bc 911e 083d
00000390: fe27 013d a76b 97bc 7adf c03a e353 af3c
000003a0: c1d1 b13b 8095 01bd 2576 303d cc31 b4bc
000003b0: 23eb ef3c 1b15 013d 9445 293d 1dab 8e3c
000003c0: 88e8 2e3d 2004 c0bc cd3b a03b b37d c23c
000003d0: bec3 2f3d 57f7 8bbc 9dce e1bc fbed 5e3c
000003e0: d4af d7bb efa7 df3c 9cbb 55bd 3092 28bd
000003f0: 3c40 943c 2b04 dabb b34a 87ba 6c9b 493d
0.007971761 -0.063259184 -0.003749539 0.051056683 0.06115414 0.043221645 -0.028465472 -0.03183208
0.023153488 0.015542111 -0.04080427 -0.011559573 -0.06040656 0.010847766 0.025399664 0.0034937456
-0.047892395 -0.004361223 0.03211513 0.043048453 0.066403136 -0.024198212 0.0027049729 -0.05446938
0.053912103 -0.0688716 -0.033784475 -0.0050886157 -0.010959742 -0.05294179 0.03851881 -0.028264856
-0.009410289 0.056427546 -0.01875315 0.019671906 -0.018929433 -0.026511926 0.018065723 0.041489586
-0.050362878 0.040640302 -0.0042716293 0.025604283 0.04940382 -0.025365539 -0.05130352 0.037010156
-0.06408202 0.039616026 0.013366089 -0.037120473 -0.03599562 0.055425636 -0.009527076 -0.039655842
-0.029192159 -0.03428254 0.02248719 0.021603474 0.059004918 -0.00022000978 -0.018042894 0.037073415
-0.05156221 0.027213706 0.011035517 0.071839444 -0.0077658584 0.04060838 0.043123513 0.02491195
0.010419974 -0.026460608 0.04889658 0.02137181 -0.042539578 -0.0048977905 0.022730945 -0.03742144
0.03602124 0.012283404 -0.010535625 0.032496896 -0.0503973 0.021634579 0.035472877 0.001221746
-0.038420133 7.367583e-05 0.044769015 -0.009005389 0.041058134 -5.8869737e-05 0.055563066 0.046141952
-0.04882637 0.032007042 0.056265682 0.054245103 -0.003937995 -0.055000044 -0.0029517722 0.016104182
0.013056812 0.06553645 0.010476561 0.026076704 -0.049963 0.058383 -0.008849827 -0.021574948
0.0152287455 0.008048298 0.031163108 -0.06602753 0.06648219 -0.0020100945 0.047313537 0.002082856
-0.007402036 -0.008581 0.0057204533 -0.017577851 -0.00823198 -0.04940559 -0.026356088 -0.06135469
0.017756432 0.0038125461 0.05484865 0.025510794 -0.041923985 -0.020477505 0.031088531 0.048995767
0.040990908 -0.028109415 -0.0035345475 0.035155516 -0.046592157 0.041925404 -0.034518756 0.048143167
0.00038133535 -0.053172234 -0.009973768 0.0038040073 -0.008922805 0.006623286 0.030464059 -0.047891784
-0.05814044 -0.04199427 0.037519872 0.04282443 0.033213824 0.022819538 0.014767891 0.02160508
-0.04666697 0.055924565 0.038711984 -0.03929278 0.03444801 0.014732367 -0.005986789 0.013703012
0.04164843 -0.027104875 0.056843325 0.011962002 0.018133717 0.034506258 -0.029610196 0.041961644
-0.04189853 -0.05334979 -0.030085722 0.06352916 -0.02516945 -0.049565386 0.024332542 0.019768778
0.00014915541 0.009102072 -0.009609769 -0.060315058 0.041915294 -0.05472467 0.057092704 -0.002614828
-0.031112814 -0.014858648 0.051056355 0.0018502318 0.025006326 -0.0009460141 0.014485611 -0.018593827
0.052854616 0.0038319528 -0.049054023 -0.0607455 0.053001996 -0.034572747 -0.006118178 -0.033632793
-0.052799944 -0.017922018 -0.03304937 0.030081261 0.06480678 0.003909957 0.041639697 0.038520336
0.02606722 -0.004885483 0.054214533 0.053139735 0.0018219568 0.0012151954 -0.0597674 0.029333165
-0.01990589 -0.00083212275 -0.011037956 0.033232275 0.03153228 -0.01848395 0.0014715039 0.021402305
0.005426616 -0.031636715 0.04308142 -0.021996401 0.029286927 0.03151427 0.04132612 0.017415578
0.042702228 -0.023439467 0.0048899413 0.023741579 0.042911284 -0.017085714 -0.027564341 0.013606544
-0.0065822396 0.027301757 -0.05218087 -0.04115504 0.018097036 -0.006653329 -0.0010321945 0.049220487

network.2.weight f4 [256]
00000000: f173 803f e66c 803f 71ab 7f3f df8d 803f
00000010: f168 7e3f 3604 7e3f e00b 813f bd2d 7f3f
00000020: 65f1 7c3f 2463 7d3f bea5 803f 4c1a 7e3f
00000030: 054a 803f 0b9d 803f 5ade 7e3f a7b2 7f3f
00000040: 6587 803f 31dc 7f3f 05f0 7f3f 5c4b 803f
00000050: 0034 813f 27df 7f3f fd53 803f 16fa 803f
00000060: ce5a 7f3f 4491 803f 3998 7f3f 1041 803f
00000070: 5c0c 7f3f 09d2 803f 1078 7e3f bb52 803f
00000080: 5783 803f 267e 7f3f 2149 803f 6bbd 7f3f
00000090: 3120 7e3f 579c 7f3f c3ef 7c3f 9643 803f
000000a0: f1f6 7f3f 6f6b 803f 960e 7f3f 6d60 813f
000000b0: 8208 803f 6a35 813f 7693 7f3f d254 7e3f
000000c0: 1ad6 7f3f 9df2 7c3f 525b 803f 1331 803f
000000d0: 61f3 803f 9fa5 803f 0523 803f 132c 803f
000000e0: 773e 803f bdbb 803f c437 7f3f e1b3 803f
000000f0: c0c7 803f c6fb 803f 6b47 813f fbb9 7e3f
00000100: 80b7 803f daab 7e3f ba70 803f 3b67 7e3f
00000110: 72df 7d3f b926 803f db4c 7f3f ee78 7f3f
00000120: 9e99 7f3f 7905 7f3f 0c98 803f 688d 7f3f
00000130: 4790 803f 6e30 803f 00d5 7e3f ee95 7f3f
00000140: 7640 803f a091 7e3f 12af 7d3f a875 803f
00000150: df8c 803f c68d 7e3f 05f1 803f 8e67 7f3f
00000160: d17a 803f 8e8f 7f3f 1bf4 7e3f 96de 7f3f
00000170: 1afe 7e3f 43c6 7f3f 79f9 7f3f ca34 7f3f
00000180: 88e9 7c3f b708 813f e583 7f3f b8fd 7f3f
00000190: 83a0 7f3f 0160 7e3f 60ad 803f 8df0 803f
000001a0: d1c7 803f 8a28 803f b363 803f 9822 7f3f
000001b0: c460 803f b0c5 803f c1de 7e3f 229a 7e3f
000001c0: 8cf0 7f3f cc70 803f 6b26 7f3f d2aa 803f
000001d0: f1b3 803f c15a 803f 7f3d 803f f66b 7d3f
000001e0: eae4 803f a146 803f 981c 7f3f 9c7e 803f
000001f0: 5841 813f 4372 813f bc9a 7f3f 9c8e 813f
00000200: 175b 803f d761 803f aa46 7e3f 8885 7e3f
00000210: ac32 803f ffe7 7d3f af83 7e3f 48c4 7f3f
00000220: 820f 7f3f ee7e 813f 2ee7 7e3f 9261 803f
00000230: 514d 803f 4b0c 803f cd05 7f3f 00b1 7e3f
00000240: 5664 803f 4dcf 7e3f bdac 803f 1f49 803f
00000250: d7cd 7f3f 92a7 803f b9d5 803f cfd3 7f3f
00000260: 2dad 7d3f 9700 813f 3515 803f af86 7f3f
00000270: 1e44 803f 1b23 803f 0ba5 7f3f 91fe 7e3f
00000280: 6d03 7e3f 5dde 7f3f 135d 7f3f 5b8e 7f3f
00000290: 3af5 7d3f 2e42 803f 417e 7f3f 7e46 7f3f
000002a0: 751e 7e3f 4f13 803f b72d 803f 24a8 803f
000002b0: e4a2 7d3f 6259 7f3f 7a3b 7f3f fb59 7e3f
000002c0: 2a92 7e3f ff18 803f f52f 803f 48c5 803f
000002d0: 0850 803f 5c0e 803f 942e 7e3f 1adc 7f3f
000002e0: 7b7c 7f3f 65c9 7d3f 6cbc 803f 312b 803f
000002f0: cd27 803f 081b 803f f8d8 7f3f 3711 803f
00000300: 063b 7e3f eb07 803f b13c 7f3f bf28 7e3f
00000310: 8d66 7e3f 5b42 803f 8813 813f cd2a 803f
00000320: 6eec 803f b954 813f 216f 803f 2ecd 7e3f
00000330: 4429 803f da62 7e3f 121d 7f3f 776d 803f
00000340: c697 803f cde6 7c3f 19c8 7f3f 251c 803f
00000350: 738e 7e3f 5512 7e3f a41d 813f 768c 7e3f
00000360: 0c74 7f3f 75ee 7e3f 5f73 7f3f 74a1 803f
00000370: 4a3b 803f f4fd 803f 0c84 7f3f c019 803f
00000380: 255d 7e3f fea8 803f e5d7 803f 7167 803f
00000390: 3ea8 803f 388b 7f3f d61e 803f 5cc9 7e3f
000003a0: 24fd 7c3f 02e9 7e3f edb5 813f 3260 813f
000003b0: 7efc 7e3f 2776 813f 16b4 7e3f 426d 803f
000003c0: 1d6a 7f3f e8dd 7e3f 5060 803f 2247 803f
000003d0: fb7a 803f a27f 803f 9abf 803f a322 803f
000003e0: c89b 803f 0259 803f b71e 803f 0b8e 7f3f
000003f0: 6056 7f3f dc0c 7e3f 1582 7e3f 919f 803f
1.0035383 1.0033233 0.99870974 1.0043296 0.9937888 0.99225175 1.0081749 0.99679166
0.9880584 0.989794 1.005058 0.99258876 1.0022589 1.0047926 0.9955803 0.99881977
1.0041319 0.9994536 0.99975616 1.0022998 1.0093994 0.9994988 1.0025631 1.007632
0.9974793 1.0044332 0.9984165 1.0019855 0.99628234 1.0064098 0.9940195 1.0025247
1.0040082 0.9980186 1.0022317 0.99898404 0.9926787 0.9984793 0.9880335 1.0020626
0.9998618 1.0032786 0.9963163 1.0107552 1.0002596 1.0094426 0.9983438 0.99348176
0.9993607 0.988077 1.0027869 1.0014976 1.0074273 1.0050544 1.0010687 1.001345
1.0019063 1.0057293 0.99694467 1.0054895 1.0060959 1.0076835 1.009992 0.99502534
1.0056 0.99480975 1.0034401 0.9937627 0.99169075 1.0011817 0.9972665 0.997939
0.99843776 0.99617726 1.0046401 0.99825144 1.004403 1.001478 0.9954376 0.9983815
1.0019672 0.99440956 0.9909526 1.0035906 1.004299 0.9943508 1.0073553 0.99767387
1.003748 0.9982842 0.99591225 0.99949014 0.9960648 0.999119 0.9999004 0.99689925
0.9879384 1.0080785 0.9981063 0.9999652 0.99854296 0.9936524 1.005291 1.007341
1.0060979 1.0012372 1.0030426 0.9966216 1.002953 1.006033 0.99558645 0.9945394
0.9997642 1.0034423 0.99667996 1.005213 1.0054914 1.0027696 1.0018767 0.9899286
1.0069859 1.0021554 0.99653006 1.0038638 1.0098066 1.0112995 0.9984548 1.0121646
1.0027798 1.0029858 0.99326575 0.994225 1.0015464 0.9918212 0.99419683 0.99908876
0.9963304 1.0116861 0.995715 1.0029776 1.0023595 1.0003752 0.99618226 0.9948883
1.003062 0.99535066 1.0052716 1.0022315 0.9992346 1.0051138 1.0065223 0.9993257
0.9909237 1.0078305 1.0006472 0.99814886 1.0020788 1.0010713 0.9986121 0.9960719
0.9922398 0.99948674 0.99751395 0.9982659 0.9920231 1.0020196 0.99802023 0.9971694
0.99265224 1.0005893 1.0013951 1.0051312 0.99076676 0.9974576 0.9970013 0.9935605
0.9944178 1.0007628 1.0014635 1.0060205 1.0024424 1.0004382 0.9928982 0.99945223
0.9979932 0.9913543 1.0057502 1.0013181 1.0012146 1.0008249 0.99940443 1.0005254
0.9930881 1.0002416 0.9970198 0.99280924 0.9937523 1.002025 1.0084085 1.0013062
1.0072153 1.010398 1.0033914 0.9953183 1.0012593 0.99369586 0.9965373 1.0033406
1.0046318 0.98789674 0.999147 1.0008589 0.9943611 0.9924672 1.0087171 0.99433076
0.9978645 0.99582607 0.9978542 1.0049272 1.0018094 1.00775 0.9981086 1.0007858
0.9936088 1.0051572 1.0065886 1.0031568 1.0051343 0.99821806 1.000941 0.99526
0.9882376 0.9957429 1.0133644 1.0107481 0.9960402 1.0114182 0.9949354 1.0033343
0.9977129 0.9955735 1.0029392 1.0021708 1.0037531 1.003895 1.0058472 1.001057
1.0047541 1.0027163 1.0009373 0.99826115 0.9974117 0.9923837 0.9941724 1.0048696

network.2.bias f4 [256]
00000000: e862 67bb 61b3 593a 1ca8 643b 0acf 7439
00000010: 5275 13bc fa41 8b3a 9d03 c8bb 7e4f e23b
00000020: 2028 d739 8566 17bc 797b 2b3c 96b9 47bc
00000030: 53d5 dd3a 692f 243c 7a6e dbbb 6884 a3bb
00000040: 6e5f 38bc c8e2 b73b 6ab6 a0bb 67b4 363c
00000050: 7b75 cc3b 61f1 913b d303 963b 5af6 55bc
00000060: 84a7 a439 5e27 883b dd5f 41bb c5ee b83b
00000070: 2119 813a b979 24bb e087 11b9 e808 e6b9
00000080: 7d98 2fbb d382 fe3b be16 b6bb c43e 5dbb
00000090: b432 ddbb ca8e c9bb 9a0f ae3b 339b bfbb
000000a0: 5a29 a7bb ef3a babb 73e0 adbb ee8a abbb
000000b0: 6beb 433b c9c2 7dbb b719 ebbb a82a 65bc
000000c0: 5736 b43b c06d 66ba 2a3c 74bb 3ba3 6ebb
000000d0: 9932 1abc 459d 043c 818c c8ba 4190 443b
000000e0: b559 373b db0c 8b3b b200 643b 044b 813a
000000f0: a47c 073b db14 ca39 5500 b43b 942c ae3b
00000100: 2b3c 63ba 5781 78bb 9009 113b 1678 263c
00000110: 267e ccba d4a8 3abb 3947 803b 6f5a aa3b
00000120: c459 333c 0699 2fbc 481c 8b3a 9754 d03b
00000130: b1e6 5f3c 756d 0dbb 6b78 0dbc be07 343b
00000140: f49a 0b3c 2c49 253c d4ba b53b b774 aabb
00000150: 6b5d 19bc 2ebf 71ba fdcf 2539 b04d aa3b
00000160: dabe 4bbb 86bf ff3b daa7 2cba a323 1a3b
00000170: 56ee f0bb 0ea3 773b cb53 d7bb a249 843b
00000180: e20f 94ba 746c 10bc b280 ff39 9495 193c
00000190: 238a e6bb 0f82 a73b 5768 153c ba3b 7fba
000001a0: dadc 12bc 4fa1 abba b44a 893b 0a34 63ba
000001b0: 9ca9 173a f578 83b8 d42e 71bb 71b9 0ebb
000001c0: 62fb 12bc 8cfb 8e3a 4dab 003c c07f 863b
000001d0: 3f67 133c e25c 133c 889e f7bb 9711 f8bb
000001e0: 16ef 91bb d0d0 a53b 96ad 183c 1627 83bb
000001f0: 427f df3b d9b6 04bb 9715 92bb 1b22 9f37
00000200: 59a5 36bc 35eb ed3b 94f0 803a 2277 363b
00000210: 2fc6 f4bb 192f bb3b 0975 6dba e0ad 2abb
00000220: a6b7 253b 35af 383b 9472 ebb9 41ed aabb
00000230: 7767 27bc 64d3 3bbc 5199 ebba acc0 08bc
00000240: 2b85 8b3b 6ea0 013c 442f abbb 87bb cbba
00000250: f843 4a3b 0b00 edba 0358 b23b 3d1e eabb
00000260: a886 6ebb 6308 0f3c 8cc7 cc3b ba44 abba
00000270: 2bd3 03bc 356e 72bb db28 4c3b 6d3d 983b
00000280: fd37 3dbc 9338 173c 1475 bb3b 6c5e 313c
00000290: bb5b afbb 4910 f0bb 37e3 013c 02b1 043c
000002a0: cb10 2bbc ce83 dbbb f018 8e3a d417 b1ba
000002b0: 7ed9 b23b 1019 18bc 554d 8ebb 015f 013b
000002c0: 8fbd 32bc 5fdb 0e3c 3314 9f3b 6a80 45bc
000002d0: e5e6 f63b c84e 25bc 51c2 91bb 735a b13b
000002e0: e047 aabb 3bc1 60bc cf76 60bb 6d96 e0bb
000002f0: eeb2 7c3b 8f55 ba3b 0943 a73b 1007 cd3b
00000300: 7283 493b ef62 033b bf29 843b 7b94 843b
00000310: 4dd4 2b3b b225 10bb dae2 ac3b 3c21 5abb
00000320: ee9c b3bb bc50 1abb 9950 cbbb e70a 34bc
00000330: e05d c8ba b19c 94ba 6eb6 9d3b 6258 ce3b
00000340: a2bd 57bb 5089 d03b a2e5 423b f7f3 383b
00000350: 353d e63b 74a0 81bb 05bb 99bb facc 743b
00000360: 37ea fc3b 042e 813b e753 febb 4cfc 45bb
00000370: a6df ba39 489b 6fb8 f004 ab3a 2376 073c
00000380: 8696 09bb dd09 cebb 03e5 eb3a 8eab ee3a
00000390: 5370 a2bb 6ef3 1e3c 3620 8eba 14a6 25bb
000003a0: 93f8 aebb e07d 863b 5633 05bc b16b be3b
000003b0: b65e 6d3a cc84 813b 1df3 283a 2114 1e3c
000003c0: bcc0 38bc 3bd8 0abc a933 493b 9042 87bb
000003d0: 32e7 93ba a5b8 55ba a30f c03b 07b3 9839
000003e0: 1e4e 0e3b c984 643b 32da 56bc 4e9f 1f3b
000003f0: 2456 a2ba 748c 753b 5e24 9fbb d438 3a3b
-0.0035306755 0.00083046226 0.003489024 0.00023346781 -0.009000139 0.0010624521 -0.0061039464 0.006906449
0.0004103789 -0.009240751 0.01046645 -0.012190243 0.0016924537 0.010021069 -0.0066965194 -0.0049901493
-0.011253221 0.005611751 -0.004904558 0.01115141 0.0062395907 0.0044538234 0.0045780926 -0.013059223
0.00031405326 0.0041550836 -0.0029506602 0.005643698 0.0009849408 -0.0025096966 -0.00013878895 -0.00043875654
-0.002679377 0.0077670603 -0.0055569103 -0.0033759335 -0.006750429 -0.006151055 0.0053119184 -0.0058473586
-0.005101365 -0.005683295 -0.0053062974 -0.0052350676 0.0029894959 -0.0038720837 -0.0071746963 -0.013987221
0.005499642 -0.0008790158 -0.0037267306 -0.003641321 -0.0094114775 0.008094137 -0.0015300662 0.0029993209
0.0027977054 0.004243476 0.0034790454 0.0009864275 0.0020673657 0.0003854398 0.0054932036 0.0053153727
-0.00086683285 -0.003791889 0.0022130944 0.010160467 -0.001560156 -0.0028481977 0.0039147404 0.005198769
0.010946695 -0.010717636 0.0010613287 0.00635774 0.013665841 -0.0021580134 -0.008634667 0.0027470435
0.00852083 0.010088246 0.0055459533 -0.005201902 -0.0093606515 -0.00092219084 0.00015813108 0.0051972494
-0.0031089098 0.007804814 -0.0006586291 0.0023519776 -0.0073526306 0.0037786397 -0.006571268 0.004037098
-0.0011296237 -0.00881492 0.00048733276 0.009374041 -0.00703551 0.0051119397 0.009119115 -0.0009736378
-0.008963788 -0.0013094338 0.0041898135 -0.0008667117 0.00057854666 -6.269097e-05 -0.0036801593 -0.0021778012
-0.008971067 0.0010908707 0.007853341 0.0041045845 0.008996784 0.008994313 -0.00755674 -0.0075704562
-0.00445355 0.005060293 0.00931873 -0.004002462 0.0068205902 -0.0020250587 -0.00445814 1.8970159e-05
-0.01114782 0.007260705 0.0009837323 0.0027842005 -0.0074699144 0.0057124016 -0.0009058272 -0.002604358
0.0025286465 0.0028180603 -0.0004490806 -0.005216271 -0.010217539 -0.011463974 -0.0017974769 -0.008346718
0.004257818 0.007911785 -0.0052241404 -0.0015543558 0.0030863266 -0.0018081678 0.0054426207 -0.007144718
-0.003639618 0.008730027 0.006249374 -0.0013066747 -0.008045952 -0.0036991958 0.0031152281 0.0046459944
-0.011548993 0.009229797 0.005720744 0.010825735 -0.0053515113 -0.00732616 0.007927707 0.008098843
-0.0104410155 -0.006699062 0.0010841172 -0.001351113 0.005458056 -0.009283319 -0.004342715 0.0019740465
-0.010909452 0.008719294 0.004854703 -0.012054542 0.007534849 -0.010089584 -0.004448213 0.0054123937
-0.0051965564 -0.013717945 -0.0034250503 -0.0068538697 0.00385588 0.005686469 0.0051044268 0.0062569454
0.0030748514 0.0020047983 0.004033297 0.0040460206 0.002621907 -0.0021995124 0.0052760663 -0.003328397
-0.005481354 -0.0023546657 -0.0062046763 -0.010988927 -0.0015286766 -0.0011338202 0.004813007 0.006297157
-0.0032919426 0.006364025 0.0029738923 0.0028221586 0.0070263394 -0.003955895 -0.004691484 0.003735362
0.0077183503 0.003942253 -0.007761467 -0.0030210195 0.00035643316 -5.7126657e-05 0.0013047736 0.008267912
-0.002099426 -0.006287797 0.0017997328 0.0018209086 -0.0049572377 0.009701593 -0.001084334 -0.0025275992
-0.005339691 0.004104361 -0.008129915 0.0058111777 0.00090549455 0.003952598 0.0006444918 0.009648354
-0.01127642 -0.008474405 0.0030700958 -0.004127808 -0.0011284112 -0.00081528194 0.005861239 0.00029125085
0.0021714042 0.0034869185 -0.013113545 0.0024356428 -0.0012385291 0.003746775 -0.00485663 0.002841522

network.2.running_mean f4 [256]
00000000: bbf3 883e 652d 3f3e 1541 4c3e b200 7a3e
00000010: 53aa 813e 8339 7c3e fea1 8c3e f02d 363e
00000020: ee64 ac3e 88da 363e 2ba6 453e 5d0c 423e
00000030: c897 5a3e d5a6 3a3e 8234 4a3e b15e 753e
00000040: c941 353e cdff 5b3e 1d7d 5c3e 9372 343e
00000050: b2b7 8b3e 428a 293e 88ca 6b3e 0134 203e
00000060: ea1d 503e 81d5 4e3e af0c 573e 0bbe 8d3e
00000070: f153 383e d1ff 653e f4e1 983e b384 6d3e
00000080: 2423 833e f939 613e fbb5 5e3e 39a5 2b3e
00000090: 9370 473e 2f00 543e 85f1 bc3e c9c3 663e
000000a0: 3d92 033e 53da 5a3e 0074 573e 84c3 6a3e
000000b0: e773 853e 48cb 4a3e 37c7 4c3e ff96 8a3e
000000c0: 7c76 393e 4cea 663e 8c3b 733e 113f 523e
000000d0: cc67 603e 2d92 533e 4d7c 6f3e 42ab 373e
000000e0: 94a8 603e 4014 403e 314c 6b3e bbca 5e3e
000000f0: a8ec 7a3e 4550 883e 8330 2c3e b950 543e
00000100: 5374 373e 1dcb 5b3e 8080 503e 05ab 583e
00000110: d4b0 903e 8d36 923e d1d6 4b3e 4741 573e
00000120: cdc7 843e bd69 1f3e 1fd2 753e c658 773e
00000130: fb7f 303e dbba 273e 9d01 443e c5a2 503e
00000140: 1fa5 703e 16c7 543e 6233 4f3e 5ec3 8a3e
00000150: 1168 553e c31c 6d3e c5d0 5c3e 807c 273e
00000160: bf67 5c3e 7904 373e 7ab8 6f3e e78a 8b3e
00000170: bc45 723e ec3c 7b3e d6a8 663e b96f 7e3e
00000180: 198f 3b3e 3079 733e db6b 5a3e ad7c b33e
00000190: 8a05 513e 18e7 7d3e aff0 413e 42eb 713e
000001a0: 5882 203e 89b3 7c3e b638 a13e b6a6 4d3e
000001b0: 3ae3 833e fdd8 a63e 6a8c 9f3e 3cc9 293e
000001c0: ccfb 8b3e 7c05 a23e 5a9d 383e b3eb 503e
000001d0: 8240 8d3e 3d46 253e e5a4 453e e712 823e
000001e0: d1cc 763e b437 633e c8e9 1e3e 7974 9c3e
000001f0: 1583 8b3e 0068 633e 909d 933e 4de4 343e
00000200: 1467 8d3e bf7d 483e d800 8b3e 0544 923e
00000210: 0f0a 5e3e 5c5c 5e3e 9e61 873e 121f 753e
00000220: c2af 563e 510d 703e df5e 883e c13b 9b3e
00000230: 61a6 993e 9145 273e 0e59 683e 2253 753e
00000240: 29a5 4d3e 62cb 6b3e 9d78 783e 0683 3b3e
00000250: 014f 703e 4f55 423e 3017 8b3e 9022 2c3e
00000260: 4d7d 7a3e 4ad1 163e 04f5 653e 2401 753e
00000270: 130f 513e 10bb 243e 2e27 463e 035f 453e
00000280: 19c9 633e b0d2 813e 6ba5 7c3e 0a51 4b3e
00000290: ae44 bb3e b416 5b3e 7fa3 563e 52a2 2a3e
000002a0: e9d3 433e 4e8c 763e c61d a03e 3207 493e
000002b0: a8a2 853e 3335 c33e 2508 0b3e 9afe 8a3e
000002c0: f377 463e 60a7 523e 600a 553e e01d 0a3f
000002d0: 8eda 863e de41 593e 68f8 a53e 98c5 353e
000002e0: 8e4e 313e 9a53 7a3e 9467 9f3e 6cce 8a3e
000002f0: a4f1 913e fe47 3c3e a39a 9f3e 13c5 7f3e
00000300: 38c0 fa3d d364 703e abcb 8c3e fc2a 923e
00000310: 76d1 4a3e 3df3 c93e 8ab4 243e dc73 423e
00000320: a054 a93e 5fca 863e c19a 363e 0638 973e
00000330: 6505 8b3e 9ded 2a3e e1d7 5c3e cffc 583e
00000340: 3289 203e 80ca 383e b3a5 3c3e f4ba 3a3e
00000350: b0e3 9b3e da78 903e fe28 743e 9724 863e
00000360: 0481 963e 4454 463e 0c46 713e f6f0 583e
00000370: b4a2 903e 8f0a 3c3e a52a 4c3e 6219 393e
00000380: d96a 903e 1bc8 593e ac31 623e 17e3 8e3e
00000390: 3ebf 833e f743 5e3e e270 833e 8b31 4e3e
000003a0: b051 8f3e e34d 593e 7272 3d3e 080b 8c3e
000003b0: 9e16 3c3e 4123 983e 8784 a93e 85bc 833e
000003c0: 2702 673e 71f2 8f3e 6c23 3a3e 8a97 6d3e
000003d0: 1dae 8d3e cd2d 343e ed83 563e 1182 563e
000003e0: e4a9 343e ac64 563e 3a05 2c3e 7a6f 473e
000003f0: fb0c 4d3e 2d29 943e e302 3b3e 906b 603e
0.26748452 0.1866966 0.19946702 0.24414328 0.2532526 0.24631314 0.2746734 0.17790961
0.33670753 0.178568 0.1930167 0.18950029 0.21346962 0.18227704 0.19746593 0.23961903
0.17700876 0.21484299 0.21532102 0.17621832 0.27288586 0.16556647 0.23026478 0.15644838
0.20323911 0.20198633 0.21000932 0.27684054 0.18000771 0.22460867 0.2985989 0.23195152
0.25612748 0.21994771 0.21749108 0.16762246 0.19476537 0.20703195 0.36903015 0.22535624
0.12848754 0.21372347 0.21040344 0.22926146 0.2606499 0.19804108 0.1999787 0.27068326
0.18111604 0.22550315 0.23753184 0.2053187 0.21914595 0.2066123 0.2338726 0.17936423
0.21939307 0.18757725 0.22978283 0.21757023 0.2450434 0.2662374 0.16815381 0.20733918
0.17915468 0.214642 0.20361519 0.21158989 0.2825991 0.28557244 0.19906165 0.21020995
0.25933686 0.1556768 0.24005936 0.24154958 0.1723632 0.16379873 0.1914124 0.20374592
0.23500489 0.2077907 0.20234445 0.27102178 0.2084048 0.23155503 0.21564014 0.16356087
0.21523951 0.178728 0.23410216 0.27254412 0.23659414 0.24534959 0.22525343 0.24847306
0.18316306 0.23776698 0.21330206 0.35056058 0.20412269 0.24795187 0.1893947 0.236249
0.15674722 0.24677862 0.3148858 0.20083126 0.25759298 0.32587424 0.31161815 0.16580671
0.27340543 0.3164481 0.18028775 0.20402412 0.27588278 0.16140075 0.19301184 0.25405046
0.24101569 0.22189218 0.15518868 0.30557612 0.27248445 0.22207642 0.28831148 0.17665215
0.27617705 0.19579218 0.2714908 0.2856752 0.21683525 0.2171492 0.26441664 0.23937634
0.20965484 0.2344258 0.2663488 0.30319026 0.3000975 0.16335131 0.22690222 0.23957494
0.20082535 0.23026803 0.2426476 0.183117 0.23467638 0.18977855 0.27166128 0.1681006
0.24461861 0.14728275 0.22456747 0.23926216 0.20415907 0.16086984 0.19350883 0.19274525
0.22244681 0.25356054 0.24672477 0.19855133 0.36575836 0.2139538 0.20960806 0.16663483
0.19123806 0.2407696 0.31272715 0.19631651 0.2610066 0.38126525 0.13577326 0.2714737
0.19381694 0.20571661 0.20804739 0.53951836 0.2633862 0.21216533 0.3241608 0.17751157
0.17315122 0.24445954 0.3113371 0.27110612 0.2850467 0.18386838 0.31172666 0.24977522
0.12243694 0.23475961 0.27499136 0.2854842 0.19806466 0.3944339 0.16084495 0.1898951
0.33072376 0.26326272 0.17832471 0.2953493 0.27152553 0.16692205 0.21566726 0.21190189
0.15677336 0.18045998 0.18422584 0.1823538 0.3044715 0.28217202 0.23843762 0.2619979
0.29395306 0.19368082 0.23561877 0.2118567 0.28249133 0.18363403 0.19938143 0.18076089
0.28206518 0.2126774 0.22089261 0.2790763 0.25731844 0.21705614 0.2567206 0.20136087
0.2799201 0.21221118 0.18500689 0.27352166 0.18368003 0.29714397 0.33108923 0.25729766
0.22559415 0.28114656 0.18177575 0.23202339 0.276719 0.17595597 0.20948763 0.20948054
0.17642933 0.20936841 0.16798869 0.19476119 0.20024483 0.28937665 0.1826282 0.21916032

network.2.running_var f4 [256]
00000000: 6114 a23e df37 593e 2d1e 783e 4440 6e3e
00000010: 221b 8a3e 3162 8e3e e3c7 a33e 4f76 5e3e
00000020: 93c1 c73e b275 423e 3d78 503e 5a40 503e
00000030: eb25 5e3e 3e2b 523e 47ce 4a3e 34b7 893e
00000040: 853f 5e3e b12f 7d3e 08af 6c3e 595c 313e
00000050: aacd 8f3e eb9c 5e3e c7cd 803e 8b0a 3d3e
00000060: 810c 4a3e 52bb 543e 600d 873e 348b 883e
00000070: feda 433e df2d 7d3e 2f46 b43e e484 833e
00000080: d5db 963e 3c6c 5d3e a6b5 8d3e 4dff 2c3e
00000090: 0794 423e d01b 4e3e 5c34 093f 15c2 5d3e
000000a0: b926 273e 83de 4f3e d2fd 623e db2d 7a3e
000000b0: 5fc5 6d3e 3aa6 7c3e c5cf 633e 9c8e 9a3e
000000c0: 5e37 4d3e 4d8a 843e f154 883e baa4 5a3e
000000d0: c7ef 5f3e 0315 4a3e a8dd 6f3e 7407 393e
000000e0: b3a5 723e 4d01 483e 622a 693e 810e 733e
000000f0: 1bd6 803e be56 b13e c087 373e bfe2 4c3e
00000100: 2c78 5d3e 15e0 813e 8499 623e 66c4 413e
00000110: 2879 aa3e 213d a33e c3b8 583e 3df8 673e
00000120: aa4a 9d3e 9a0b 4c3e 4623 5d3e a423 693e
00000130: c150 613e 1e04 323e 580f 693e 0af5 553e
00000140: 9415 803e eb8e 503e 755a 5c3e a7ff 9f3e
00000150: 70aa 833e 5922 5d3e 3a0c 543e c49e 373e
00000160: d6d8 823e fbcb 333e 0d73 523e 67ad 963e
00000170: 88a7 623e 51e2 723e b163 863e acb4 8d3e
00000180: b512 5a3e fc95 5c3e 23bf 463e 82ab de3e
00000190: d5b4 523e c5c5 923e 09da 503e c73a 823e
000001a0: 8d2c 223e 58ff 8d3e 6a8f b73e d729 3e3e
000001b0: 43e0 713e 7247 a43e eb08 cb3e 1e88 423e
000001c0: 57cd 983e 57d3 cd3e 76d9 3d3e 6736 843e
000001d0: 41cf 793e f58a 3b3e c45b 443e 492f 813e
000001e0: dd6c 673e 4b71 7e3e 4129 433e b149 a83e
000001f0: 865a ad3e 6603 843e 9a7e be3e 3cee 533e
00000200: c8ee 8d3e 714a 5a3e 705b 733e 10c0 913e
00000210: 5f08 723e 9448 873e 76d4 b33e d10a 593e
00000220: 29eb 4b3e 0fae 8f3e 31c5 8e3e 210f 9d3e
00000230: efa2 d83e d780 203e 872e 7f3e e940 703e
00000240: 66c6 593e 35f8 763e 1478 a83e a018 3d3e
00000250: 82b7 763e 40f6 333e 1664 8c3e 5aae 443e
00000260: d8bb 8f3e 66da 3a3e f289 6e3e ca04 773e
00000270: fab0 543e 23b2 363e cafb 503e 7404 443e
00000280: bd90 663e 85bf 7a3e ed2d 6f3e 9c48 5f3e
00000290: aed5 bf3e 61e2 6f3e b904 563e 8f71 303e
000002a0: b6e8 6a3e 518b 833e 861d 973e 7420 5e3e
000002b0: 1680 863e 8ba5 0f3f 01bd 213e 2f0b 8e3e
000002c0: ef48 603e 5a1d 733e eadf 4e3e 2a21 6e3f
000002d0: a561 913e 5158 763e dab9 c23e 9761 2f3e
000002e0: 4cf4 363e 25f2 8e3e 90b9 ba3e bb45 c83e
000002f0: 898b 943e 722b 483e 7ab3 9a3e fe41 913e
00000300: 33b5 1a3e 859e 813e 59f3 953e 9423 923e
00000310: 405f 5a3e 4234 143f e103 3f3e f427 4f3e
00000320: f07e be3e 820a 803e 81bc 423e a03b bc3e
00000330: e494 8c3e a929 433e 3232 583e cdb4 6e3e
00000340: a600 323e 456f 373e 3406 483e 034f 3f3e
00000350: ff0d ab3e 92d2 a53e 0577 833e 69fe 7b3e
00000360: 91f3 8b3e 3b10 4f3e a97b 833e f8c4 6c3e
00000370: 40e8 a83e 1ae5 593e 1b52 5a3e a087 3d3e
00000380: cc40 8c3e 9bdc 6c3e a18b 773e ff16 973e
00000390: e855 8b3e d217 7f3e 55c1 7b3e c98a 5c3e
000003a0: 06f2 883e c1b6 6e3e f039 413e 4ba9 b33e
000003b0: 95f2 3e3e 71d3 883e 15b9 b33e affe 8c3e
000003c0: 0f59 5e3e f03a 8c3e df0e 493e 6bad 833e
000003d0: 336c 883e a603 433e ec45 503e 96d9 523e
000003e0: 0db8 3a3e 6fce 623e 3139 603e da64 643e
000003f0: 9c39 4c3e 4772 b13e 1d91 433e 957f 623e
0.31656173 0.2121272 0.24230261 0.23266703 0.26973826 0.2780929 0.3198844 0.21724819
0.39014873 0.1899021 0.20358367 0.20337048 0.21694152 0.20524308 0.19805251 0.26897585
0.21703918 0.24725224 0.23113644 0.17320384 0.28086597 0.21739547 0.25156996 0.18461053
0.19731332 0.20774582 0.26377392 0.26668704 0.19126508 0.2472453 0.35209796 0.25687325
0.29464594 0.2162332 0.2767765 0.16894265 0.1900178 0.20127797 0.5359552 0.21656068
0.16323365 0.20299725 0.22167137 0.24431555 0.23219822 0.24672785 0.22247227 0.30186927
0.20040652 0.25886765 0.26627305 0.213519 0.21868812 0.19734578 0.23424399 0.1806925
0.23696022 0.19531746 0.22770074 0.23736002 0.2516335 0.34636492 0.17922878 0.20008372
0.21627873 0.25366274 0.22128874 0.18922576 0.3329556 0.31882575 0.21164231 0.22653289
0.30721027 0.199263 0.21595487 0.22767502 0.22003461 0.17384383 0.2275976 0.20894256
0.25016463 0.20367019 0.21518882 0.31249735 0.2571597 0.21595134 0.20707789 0.17931658
0.25556058 0.17558281 0.20551701 0.2942917 0.2213422 0.23719145 0.26247934 0.27676904
0.21296199 0.2154159 0.1940885 0.43490225 0.20576794 0.2866651 0.20395674 0.2543547
0.15837307 0.27733874 0.35851604 0.18570648 0.23620705 0.32085758 0.3965524 0.18997237
0.29844162 0.40200302 0.18539986 0.25822756 0.24395467 0.18314727 0.19175631 0.25231388
0.22600122 0.24847905 0.19058706 0.32868722 0.33858126 0.25783843 0.37205964 0.20696348
0.27721238 0.2131746 0.2376535 0.28466845 0.23636006 0.2642256 0.35123032 0.21195532
0.19913925 0.28062484 0.2788482 0.30675605 0.42311808 0.15674148 0.24920093 0.23462261
0.21267089 0.24118121 0.32904112 0.18466425 0.2409344 0.17574406 0.2742011 0.19207135
0.28073 0.18247375 0.2329481 0.2412292 0.20770636 0.17841391 0.2040855 0.19142324
0.22516151 0.24487121 0.23357363 0.21805042 0.37467712 0.234262 0.20900239 0.17230819
0.22940335 0.25692227 0.29514712 0.21692067 0.26269597 0.56111974 0.15794756 0.27742907
0.21902822 0.23741665 0.20202604 0.93019354 0.2839481 0.24057128 0.38032418 0.17127071
0.1786663 0.27919117 0.36469698 0.391157 0.29012707 0.19547823 0.30215055 0.2837066
0.15108185 0.25316253 0.29287222 0.2854277 0.21325397 0.5789224 0.18653823 0.20230085
0.3720622 0.25008017 0.19017221 0.3676424 0.27457345 0.19058861 0.21112898 0.23311158
0.1738306 0.1791354 0.19533616 0.18682484 0.33409116 0.32387215 0.25676742 0.24608769
0.27334264 0.20221035 0.25680283 0.23122013 0.32989693 0.21278802 0.21320383 0.18508768
0.27393186 0.2313103 0.24174358 0.29509732 0.2721398 0.2491143 0.24585469 0.21537317
0.2674715 0.23311903 0.18869758 0.35090098 0.18647225 0.26723817 0.35102144 0.27538058
0.2171366 0.27388716 0.19634579 0.25718245 0.2664505 0.1904436 0.20339173 0.20590815
0.18234272 0.2214906 0.21896817 0.22304097 0.19943851 0.346575 0.19098325 0.22118981

network.4.weight f4 [128, 256]
00000000: 2932 333d 502c 053d ef6a 583b bc4e 44bd
00000010: da66 f43a fcdf 1dbd a2f2 193d 8153 e13c
00000020: a10f 173d 86b5 a83a 154f c9bb 75bb 9f3b
00000030: 7ba3 613d 7d83 3cbd e47a 9d3c 22b2 35bd
00000040: c34b a93c 5334 0ebd 75bb dd3c ae27 3fbd
00000050: 889e 68bd 05ce fb3b c07b 533d ead9 b23c
00000060: b70b 263d e704 6cbd dcd7 74bd 57f4 46bd
00000070: b31a 00bd 61c5 6fba 57b9 cabc ac87 e2bb
00000080: 2c1a 363c 78bf 003d 8eed 33bd 30b2 1ebd
00000090: 10e0 3b3d 45ff e7bb e7ea d43c 5bba f33c
000000a0: 6660 2abd fb6b 0ebd 8c27 413d 89fe 78ba
000000b0: 55dc 4ebd edce a73c b7cf e6bc 504a 1abd
000000c0: 5b06 9a3c 2000 3f3d 57c3 3abd 6d93 d03c
000000d0: c715 32bb 8c37 4c3d 7e36 76bb b3e5 813c
000000e0: 8763 0a3d dfcf 80bc 47db 12bd a114 8b3b
000000f0: a0ee 5b3c eeed 96bc 2263 8dbd 8178 37bd
00000100: 3c21 ccbc b7ee 09bd 7dec 27bd 6f15 b83c
00000110: 8ec9 233c 137c 233d b3e3 c73a a4ce 0ebd
00000120: 05d8 123c 5ebe 23bc 1a43 2fbd 52f2 843d
00000130: a5cb a13c 30d9 babc 6fb1 853d 3588 2d3d
00000140: 34ac 983c 2bca 33bd 8e31 a9bc f4db 253b
00000150: 4e5e 1ebd f70b 253d c266 893c 789d 533d
00000160: e6cf 343d bcd8 7b3c d79b 4cbc c239 403d
00000170: a2d0 1a3d 94ca 103d 2de0 9ebb d71d 41bd
00000180: 155d 4e3d 82bf c2bc 2859 373d badb 383d
00000190: 3b57 6c3b cecc 343d 9942 223d 528f 553d
000001a0: 0796 30bd 3b0d e2b9 73c4 2e3c 7a45 663d
000001b0: 8570 453d 945a f83b bd31 db3c 4e74 0abd
000001c0: c5de 83bb 5039 5f3c 1ea6 213d f509 0abd
000001d0: a69f 44bd 9280 4e3d 8abe 25bd 46f3 c1bc
000001e0: 4d4d ef3c 9915 19bc 158a 6fbd fcc4 e93c
000001f0: 1690 6c3c 01e1 a63c db08 3dbd 8a91 62bc
00000200: a7e3 393d c068 3c3d c6e6 b0bc bc24 ad3b
00000210: da28 82bd a77e 2ebc f274 4f3d b563 573d
00000220: c4a9 a5bc f48c 03bd 9f2a 5dbd dc3d 963c
00000230: 0f9e 3fbc 3d0e 903c 8e56 d1bb 3e4e 873d
00000240: 7240 16bd e55f 1ebd 30af 2cbd 4c45 1d3d
00000250: fb8b 8ebd 9093 29bd 481f 0c3d bd97 523c
00000260: ee41 233d 203a 193d 5b88 0cbc 675f 08bd
00000270: 47c5 84bc 9006 febc 33a9 02bc b513 04bd
00000280: f42c 7d3b 0fbf 15bd d1f2 7b3d 2477 23bb
00000290: 832e 003d 3eb1 223c 9eeb 2e3c 8dc0 a1bc
000002a0: ba71 20bc e479 16bc 18ad 3dbd 8305 77bd
000002b0: d5e8 b23c 8c54 65bd 054b 02bd b05c 483d
000002c0: 2333 56bd a12c ce3c 1ccc 91bc 8a65 8fbb
000002d0: dcec 673d 8b40 16bd 228b 533b a524 89bc
000002e0: 3461 193d d03e 053d 202c 833d 0aa2 423d
000002f0: d0fb 6f3d a39b 00b7 b1f1 c3bc 6a90 53bd
00000300: 9bed 313c 84d3 7fbc 75da b1bb 5c72 89bd
00000310: afe1 02bd 9796 22bd 237f 083d 9b99 51bd
00000320: 1899 203c 5e76 afba e159 2cb9 cd8b fcbc
00000330: d619 0a3d 9995 4e3d 4c59 803c 0545 4abc
00000340: 2eb8 22bd 375e 3d3d d3e4 30bd 7565 4c3d
00000350: a3c2 26bd 6089 df3c acf4 a53b 4a7e 133d
00000360: 20a2 62bd ffb6 233d 55ec 673c 31ce 2abd
00000370: 8b85 1dbd c0dd bdbc 13f1 c6bb 9267 993c
00000380: a430 20bd e403 493c 823d acbc 0690 38bd
00000390: 8e33 00bd f904 3abc a629 acbb 990d 02bd
000003a0: f893 b63c bea2 0abd 97a9 b2bc 6061 49bd
000003b0: 0e2e f8bc 0d9c c9bc 8a57 1d3d 12dd 613d
000003c0: 55c7 59bd 83e8 09bd c2e2 6f3a 659a 75bb
000003d0: 1b52 51bc b960 5eba cff2 813d 816f 383d
000003e0: 4542 0dbc c04a 053d 255f 2abd 016e 0bbd
000003f0: d9c4 0c3d f25e de3c 1d0b e83c 8678 623d
0.04374901 0.032512963 0.0033022722 -0.04792665 0.0018646375 -0.038543686 0.03758491 0.027505638
0.03688014 0.0012871481 -0.0061434605 0.0048746415 0.055087548 -0.046023834 0.019223638 -0.044359334
0.020666009 -0.03471787 0.027066926 -0.0466687 -0.056791812 0.0076844716 0.05163169 0.021832425
0.040538516 -0.057621863 -0.059776172 -0.048572864 -0.031275462 -0.0009146538 -0.02474658 -0.006913146
0.011114638 0.0314326 -0.04392772 -0.03874415 0.04586798 -0.007079991 0.025990916 0.029751947
-0.04159584 -0.034770947 0.047156855 -0.0009498378 -0.050503094 0.020484412 -0.028175218 -0.037668526
0.018801859 0.04663098 -0.045596447 0.025460923 -0.0027173625 0.04985766 -0.00375691 0.0158566
0.033786323 -0.01572412 -0.03585365 0.0042444025 0.013423592 -0.018424 -0.06903674 -0.044792656
-0.024918191 -0.03367492 -0.040997017 0.022471158 0.009996785 0.03991325 0.0015250355 -0.034865037
0.008962636 -0.009994118 -0.042788602 0.064915314 0.019750426 -0.022808641 0.065279834 0.042366225
0.0186368 -0.043893974 -0.020653512 0.0025308104 -0.038664155 0.040294614 0.016772632 0.051663846
0.04414358 0.015371498 -0.012488327 0.046930082 0.037796624 0.035349444 -0.004848501 -0.047147598
0.05038174 -0.023772959 0.04476276 0.045131423 0.0036062736 0.04414063 0.039614294 0.052138634
-0.043111827 -0.00043115937 0.010666954 0.0562186 0.04820301 0.007579157 0.026757115 -0.033802323
-0.004024359 0.013624504 0.039465062 -0.033700902 -0.048003815 0.050415583 -0.040464915 -0.023675572
0.029211665 -0.009343528 -0.058481295 0.028536312 0.01443865 0.020370962 -0.046151023 -0.0138286445
0.04538312 0.045998335 -0.021594416 0.00528392 -0.06355448 -0.010650313 0.050648637 0.052585322
-0.020222552 -0.032116845 -0.053995725 0.018340044 -0.011695399 0.017584914 -0.006388492 0.066067204
-0.036682554 -0.03866567 -0.04215926 0.038396165 -0.06960293 -0.041400492 0.03420952 0.01285356
0.039857797 0.037408948 -0.008577432 -0.033294108 -0.01620735 -0.031008989 -0.007974911 -0.032245357
0.003863153 -0.03655916 0.061510865 -0.002494284 0.031294357 0.009929953 0.010676293 -0.019745136
-0.0097927395 -0.009184334 -0.046307653 -0.06030799 0.021839539 -0.055988833 -0.031809825 0.04891652
-0.05229486 0.025167765 -0.017797522 -0.004376118 0.05662237 -0.036682647 0.0032278975 -0.016741106
0.037446216 0.032530606 0.064049006 0.047517814 0.058589756 -7.6656315e-06 -0.023918958 -0.051651396
0.010859872 -0.015614394 -0.0054276534 -0.067112654 -0.03195351 -0.039694395 0.033324372 -0.05117188
0.009802125 -0.0013386717 -0.00016436681 -0.030828381 0.033716045 0.050435636 0.01566758 -0.012345557
-0.03972643 0.04623243 -0.043186974 0.049901444 -0.040712964 0.027287185 0.0050645676 0.03600911
-0.055330396 0.03996944 0.014155467 -0.041700546 -0.038457435 -0.023177028 -0.0060712188 0.018726144
-0.039108887 0.012268994 -0.021025423 -0.045059226 -0.031299166 -0.011353725 -0.0052539883 -0.03175125
0.022287354 -0.03384661 -0.021809382 -0.04916513 -0.030295398 -0.024610544 0.038413562 0.05514247
-0.053168613 -0.033669006 0.0009150916 -0.003747606 -0.012775923 -0.0008483041 0.0634514 0.045028213
-0.008621757 0.03254199 -0.041594643 -0.034040455 0.034367416 0.027144883 0.028325612 0.05529072

network.4.bias f4 [128]
00000000: 0327 103d edec 1bbd 98ff 79bc cd48 643d
00000010: 6a41 cc3c 4df9 6ebc db89 363d c5b2 de3c
00000020: 3973 eabc 1516 1b3d 3b41 3a3c cff0 63bd
00000030: 46cc eabc de7d 523d 01db c4bc f516 5cbd
00000040: f366 053d ecef 803d ad99 c0bc bf3c 37bb
00000050: 51db 08bd ed75 0c3d 9dfc d5bc a4c9 3cbd
00000060: e11a b23c 82f6 3cbd 5728 2e3c d6dd 203d
00000070: cc10 69bd 9f30 013d e814 713d 3578 f4bc
00000080: 1568 26bc 0c56 01bd 7a6b 05bd 11a2 99bc
00000090: 5e2b ecbc b5c4 0dbd 5ceb 8dbd 7732 43bd
000000a0: 3cce 683d 90f2 133d d73c 343d 5f64 babc
000000b0: f81e 25bb 5e1c a7bb ee77 c33c 82d4 60bd
000000c0: c7b3 f2bc 0df1 a9b9 5998 9fbc aa7f 853d
000000d0: 9539 15bd bd64 273d 5b77 ceba 9973 36bc
000000e0: 8af4 533c 2b86 27bd 56b2 8e3c 245f bdbc
000000f0: 69f6 78bb c099 86bd 1b33 4dbd faa4 1abd
00000100: 8fc3 c1bc 1737 4fbd 5df0 9cbb fca6 9c3c
00000110: e1b8 523d ce95 5abd 994f b83c 6536 07bd
00000120: 53e7 763d 7f99 fdbc 6bf9 59bc 2897 513d
00000130: 3115 d8bb 2870 23bc 1aa3 c93c 897d 4cbd
00000140: 873a e4bc 6e5f 2cbd 64d6 9b3c 7773 55bd
00000150: c779 6a3c 11ae b03c f0bd 963c 8fd7 21bd
00000160: 04fc 663d 8987 0abc eb15 f2bb 05ef 123c
00000170: 62f8 253d 1cd5 85bd 956c 99ba 98b7 503d
00000180: 3810 4a3d f1ae f83c f858 073d 4565 c83c
00000190: 2135 b3bc ddb2 05bd e9e9 06bd 52de 2f3d
000001a0: 3fe7 b83c 88fb 09bd 8924 56bd b615 df3c
000001b0: 749e 173d 5ff4 08bd 01f4 083d 312a 48bd
000001c0: 4e5d fdbc c88a b93c 3fb8 bf3c 6b55 123d
000001d0: d10e 55bd 9eed d93c c255 44bd 2228 22bd
000001e0: f9e4 36bd 70ed 7b3c e1cd babc 74d4 86bc
000001f0: db85 fcbc d635 263d a054 513d e057 f83c
0.035193454 -0.038067747 -0.015258692 0.05573349 0.024933536 -0.014585805 0.044565063 0.027184853
-0.028619396 0.037862856 0.011368091 -0.055649575 -0.028661858 0.051389568 -0.02403021 -0.05373283
0.032568883 0.062957615 -0.023510778 -0.0027959791 -0.03341228 0.03429215 -0.026121432 -0.046090737
0.021741332 -0.046133526 0.010629735 0.03927406 -0.056900784 0.03154051 0.05885783 -0.029842475
-0.010156651 -0.0315762 -0.0325732 -0.018754037 -0.028829273 -0.034611423 -0.06929657 -0.04765555
0.056837305 0.036119998 0.044003334 -0.022752939 -0.002519546 -0.005099817 0.023860898 -0.054890163
-0.02962674 -0.0003241379 -0.019481825 0.065184906 -0.036431868 0.040867556 -0.0015752123 -0.011135959
0.012936721 -0.040899437 0.017419022 -0.023116656 -0.0037988669 -0.06572294 -0.050097566 -0.03775499
-0.02365282 -0.050589647 -0.0047893957 0.019122593 0.051445846 -0.05336552 0.022498893 -0.03301086
0.0602792 -0.030956982 -0.013304095 0.051169544 -0.006594323 -0.009975471 0.024613906 -0.049924407
-0.02785994 -0.042083196 0.019023128 -0.05211207 0.014311261 0.021567376 0.018401116 -0.039512213
0.056392685 -0.008455166 -0.0073878667 0.0089681195 0.04052008 -0.06534788 -0.0011705334 0.05095634
0.049331874 0.030356856 0.03304383 0.024462352 -0.02187592 -0.03264128 -0.032937918 0.04293663
0.022571204 -0.033687145 -0.052280936 0.027232032 0.037016347 -0.033436175 0.033435825 -0.04886836
-0.03092828 0.022649184 0.023403285 0.035725992 -0.052016083 0.026602563 -0.047933348 -0.039589055
-0.04465196 0.015376434 -0.022803249 -0.016458727 -0.030825546 0.040578686 0.051106095 0.03031534

network.6.weight f4 [128]
00000000: 13d9 7e3f d642 7e3f c64a 813f 5574 803f
00000010: 21c8 803f e35a 803f 3de0 7f3f c90a 7e3f
00000020: 87c4 7f3f c73f 813f e8da 7d3f 0aab 803f
00000030: 520d 803f b03c 813f 2ac0 803f 0314 803f
00000040: ce35 7e3f 9800 803f 09a7 7f3f 4a28 813f
00000050: 150b 813f 75f3 7f3f 8c07 803f 32cc 7f3f
00000060: d425 7f3f da30 813f dfbb 7f3f 13ac 813f
00000070: 09d7 803f a9d1 803f 126f 803f 70cb 803f
00000080: 8447 803f abb2 7f3f d4b1 803f 1c0a 813f
00000090: 9b16 7e3f 4fec 7e3f 0409 7f3f e16d 813f
000000a0: 959c 7e3f 73fd 803f d93c 7e3f 4970 7d3f
000000b0: d5cd 803f e434 7f3f ff49 803f 9869 803f
000000c0: 3e20 7f3f 3e80 7f3f 928e 803f 0370 7e3f
000000d0: 8f8d 7f3f 4cf0 7d3f 1719 803f 405d 7f3f
000000e0: 9ede 7f3f 5e17 803f 0e29 7e3f 0dbf 7e3f
000000f0: 22a6 7f3f 019d 803f aa0e 803f a020 803f
00000100: 64fb 7e3f 3228 7e3f 4ab4 7e3f 1636 803f
00000110: b428 803f 4c71 7d3f e937 803f 4c5a 7f3f
00000120: b18a 803f 3855 803f 6127 7e3f 2ecd 7d3f
00000130: c07f 7f3f c58e 803f 0939 813f 3a46 7f3f
00000140: 6966 803f 4079 803f bc12 7f3f 385e 803f
00000150: f222 7e3f 4fd9 7e3f a898 7d3f b679 7e3f
00000160: 4886 7f3f 4a58 803f 7060 803f 259b 7e3f
00000170: c73d 803f a829 813f ebd4 803f 5765 803f
00000180: 18c2 7e3f 2c46 7f3f dafe 803f 9a54 813f
00000190: d93b 803f ee01 803f dd6b 803f 9e5d 803f
000001a0: 320b 803f 04fb 803f 2490 7e3f d535 803f
000001b0: af57 813f 1071 803f 9852 803f a4ee 7e3f
000001c0: c28d 7f3f 0b4f 7e3f bf3c 7e3f 2bef 7d3f
000001d0: cf08 813f 0b19 813f 3178 803f 4913 803f
000001e0: 7ede 803f aa80 803f 26f9 803f 2710 7f3f
000001f0: 98a9 7e3f 9470 803f d185 7e3f c011 7f3f
0.9954998 0.99320734 1.0100944 1.0035502 1.0061074 1.0027736 0.99951535 0.99235207
0.9990925 1.0097588 0.9916215 1.0052197 1.0004065 1.0096645 1.0058644 1.0006107
0.9930085 1.0000181 0.9986425 1.009042 1.0081507 0.9998086 1.0002303 0.9992095
0.99667096 1.0093033 0.99896044 1.0130638 1.0065624 1.0063983 1.0033896 1.0062084
1.0021825 0.99882 1.0054269 1.008121 0.99253243 0.9957933 0.9962313 1.0111657
0.99457675 1.0077347 0.99311596 0.9899946 1.0062815 0.9969008 1.0022582 1.0032225
0.9965857 0.9980506 1.0043509 0.99389666 0.99825376 0.9919479 1.0007657 0.99751663
0.9994906 1.0007131 0.99281394 0.9951027 0.99862874 1.0047914 1.0004475 1.0009956
0.9960234 0.99280083 0.9949385 1.0016506 1.0012422 0.99001 1.0017062 0.9974716
1.0042325 1.0026007 0.9927884 0.99141204 0.99804306 1.004357 1.0095531 0.9971653
1.0031253 1.0037003 0.9963796 1.0028753 0.9927207 0.99550337 0.9906106 0.99404466
0.9981427 1.0026944 1.002943 0.9945548 1.0018853 1.0090837 1.0064977 1.0030926
0.99514914 0.9971645 1.0077775 1.0103943 1.0018264 1.0000589 1.0032917 1.002857
1.0003417 1.0076604 0.9943869 1.0016428 1.0104884 1.0034504 1.0025206 0.99582887
0.9982568 0.9933936 0.9931144 0.99193066 1.0080813 1.0085768 1.003668 1.0005885
1.0067899 1.0039265 1.0076034 0.9963402 0.9947753 1.0034356 0.9942294 0.9963646
