models/10s30s_direction_mlp_fold1.pth (torch, 449874 bytes, 20 tensors)

network.0.weight f4 [256, 262]
-0.0047066016 -0.037496973 -0.004250435 -0.040039994 -0.056403223 0.04276888 0.044791926 -0.048722804
-0.02805154 -0.027539527 -0.03263858 -0.04458089 0.010255863 -0.021586625 -0.06465141 -0.014838738
-0.021180578 -0.01325029 -0.058215473 0.009723986 -0.010084526 0.05439091 0.05687221 -0.024165956
-0.050084773 0.024250366 -0.058841333 0.02226886 -0.04047137 -0.0062897815 0.059721183 0.019803971
0.059553187 0.0021877417 -0.03679168 -0.021734182 0.01217769 -0.054059163 -0.0057320665 -0.0065173116
-0.061492026 -0.010922164 0.038520243 0.009276762 0.044363506 -0.023723472 -0.043982536 -0.040341504
-0.030142521 0.009434668 0.03495886 -0.04408639 -0.025402974 0.029456412 -0.0012266109 -0.06124204
0.017334184 0.010976618 0.021209504 -0.05625059 0.0085358685 -0.051328715 -0.0031135958 -0.0020312734
-0.05052455 -0.04021081 0.026957132 -0.02890888 -0.013446639 -0.05523691 0.046427518 -0.04347175
-0.032305337 0.043616656 0.06065193 -0.06723818 0.05052481 -0.06699726 0.026608195 0.0098722465
0.03267741 0.048552632 0.05504136 -0.061086982 -0.025721245 0.04046673 -0.04493313 -0.023456823
0.011886384 0.028421912 -0.024590554 0.04085482 0.050828435 -0.04128067 0.011553664 -0.022613373
0.04258772 -0.05323754 -0.025958432 -0.002623635 -0.05386583 -0.047211725 0.048024785 -0.028809473
0.05202968 0.023499839 0.007697956 -0.009421365 0.01990781 0.015124101 0.047866873 -0.027666062
0.019599723 -0.04903813 -0.04246004 0.03086722 0.03898256 -0.035976246 0.044636745 0.026427086
-0.029671686 -0.004374409 0.0096713845 0.039864253 -0.057892505 -0.031160656 -0.05873416 -0.017733315
-0.019733202 -0.0015501983 0.026849192 0.0023901106 0.059839305 0.0553061 0.03472621 0.0073751593
-0.015215882 -0.046557885 0.065927096 0.035863295 -0.051168393 -0.019755606 0.05117667 0.04718354
-0.033959195 0.018403308 -0.052617222 0.015775751 -0.04996486 -0.039149977 -0.018593937 0.027513096
0.031173334 0.00976042 -0.05158594 -0.03502961 0.018063534 -0.029260963 0.038945165 -0.05041296
0.04680493 0.017695772 -0.053603362 -0.05615613 -0.00042934078 0.019200327 -0.027103817 -0.05943633
0.05463868 0.045929115 0.04155647 -0.002525516 -0.03202777 0.03203963 -0.04582159 -0.045707423
-0.043062903 0.009220488 0.03588746 -0.045434546 -0.0001503146 -0.007146365 0.027817853 -0.064235166
-0.041389298 -0.009489459 0.008950317 0.051413067 0.03334303 -0.0067977286 -0.05772762 0.0034963733
0.0328699 -0.03728861 0.054512165 -0.040859155 -0.037966985 0.054216277 -0.025730882 -0.040551107
0.014635332 0.0022150078 -0.035578445 0.012259579 0.03576313 -0.05988331 0.04126882 0.03840738
-0.0025317485 0.0041248174 0.029262995 0.010417128 0.036761977 -0.029205509 -0.028583497 -0.054314937
0.039943002 -0.060981013 -0.0003439896 -0.05263859 0.0003039213 -0.05995886 -0.013816723 0.048763774
0.046342812 -0.06378123 0.014630729 -0.053633533 0.015869802 0.061390314 -0.024127012 -0.043843687
0.011979156 -0.0004734508 -0.042308066 0.0070976987 -0.03453008 0.0412365 0.01998979 0.027493611
-0.04426427 -0.019191878 -0.04599482 0.016432712 0.029261742 0.0027018427 0.029669276 -0.012626059
-0.01314603 -0.044011306 -0.043246616 -0.04421122 -0.04964064 -0.023828672 0.0017046136 0.045220274
00000000: d639 9abb 6d96 19bd 3c47 8bbb fa00 24bd
00000010: 1107 67bd 6c2e 2f3d bd77 373d 9091 47bd
00000020: 58cc e5bc 939a e1bc 08b0 05bd 749a 36bd
00000030: 3508 283c 6fd6 b0bc f567 84bd 2e1e 73bc
00000040: e482 adbc bf17 59bc 5973 6ebd 5a51 1f3c
00000050: 9139 25bc 01c9 5e3d d6f2 683d aff7 c5bc
00000060: b125 4dbd b4a8 c63c 9c03 71bd 2f6d b63c
00000070: 4fc5 25bd 831a cebb 339e 743d f03b a23c
00000080: 0bee 733d 3760 0f3b dfb2 16bd e20b b2bc
00000090: ef84 473c 246d 5dbd 0fd4 bbbb 2c8f d5bb
000000a0: 10df 7bbd e0f2 32bc 67c7 1d3d 8ffd 173c
000000b0: 82b6 353d ba57 c2bc 0827 34bd 223d 25bd
000000c0: 73ed f6bc de93 1a3c 0631 0f3d ee93 34bd
000000d0: e619 d0bc 934e f13c 3bc6 a0ba efd8 7abd
000000e0: 6b00 8e3c 46d7 333c 8ebf ad3c 0567 66bd
000000f0: 07da 0b3c 0f3e 52bd 780d 4cbb 1d1f 05bb
00000100: d5f2 4ebd 17b4 24bd 34d5 dc3c 51d2 ecbc
00000110: 4b4f 5cbc 1940 62bd c82a 3e3d 6f0f 32bd
00000120: 9a52 04bd 61a7 323d 286e 783d 2cb4 89bd
00000130: 1af3 4e3d dc35 89bd 6ef9 d93c 34bf 213c
00000140: bfd8 053d 20df 463d 0d73 613d 5836 7abd
00000150: 5cb5 d2bc 71c0 253d cd0b 38bd 8628 c0bc
00000160: 1cbf 423c 12d5 e83c 2172 c9bc 6257 273d
00000170: 7a31 503d eb15 29bd 944b 3d3c ae3f b9bc
00000180: 7670 2e3d 9b0f 5abd c7a6 d4bc 4bf1 2bbb
00000190: 6ba2 5cbd 1561 41bd a3b5 443d d801 ecbc
000001a0: 131d 553d bc82 c03c 233f fc3b 125c 1abc
000001b0: b415 a33c 14cb 773c 0e10 443d f0a3 e2bc
000001c0: 998f a03c 35dc 48bd 94ea 2dbd 41dd fc3c
000001d0: 2dac 1f3d d45b 13bd 05d5 363d 9e7d d83c
000001e0: 0912 f3bc 3457 8fbb ba74 1e3c b348 233d
000001f0: b120 6dbd a244 ffbc 3b93 70bd 7545 91bc
00000200: 86a7 a1bc 0630 cbba d6f2 db3c 67a3 1c3b
00000210: 0f1a 753d a688 623d 123d 0e3d 52ab f13b
00000220: 094c 79bc 7bb3 3ebd c904 873d 64e5 123d
00000230: f395 51bd 82d6 a1bc a19e 513d 8743 413d
00000240: cc18 0bbd 89c2 963c 2885 57bd 263c 813c
00000250: f4a7 4cbd ba5b 20bd 5052 98bc 2563 e13c
00000260: 385f ff3c 2bea 1f3c c74b 53bd 357b 0fbd
00000270: faf9 933c b0b4 efbc f784 1f3d d27d 4ebd
00000280: 87b6 3f3d b9f6 903c 338f 5bbd f803 66bd
00000290: 2519 e1b9 014a 9d3c d308 debc 8273 73bd
000002a0: cfcc 5f3d 2b20 3c3d 1e37 2a3d 2183 25bb
000002b0: 8d2f 03bd fd3b 033d 6baf 3bbd b537 3bbd
000002c0: ba62 30bd 8811 173c bbfe 123d 9319 3abd
000002d0: c59d 1db9 0e2c eabb 44e2 e33c ba8d 83bd
000002e0: d387 29bd ad79 1bbc 5aa4 123c 8296 523d
000002f0: b392 083d 7bbf debb cc73 6cbd 6923 653b
00000300: 97a2 063d f1bb 18bd 2648 5f3d ee5b 27bd
00000310: 4583 1bbd e311 5e3d 92c9 d2bc eb18 26bd
00000320: 08c9 6f3c aa29 113b b4ba 11bd 67dc 483c
00000330: 5c7c 123d 3448 75bd 7f09 293d 0f51 1d3d
00000340: b1eb 25bb 7a29 873b f3b8 ef3c 9aac 2a3c
00000350: ba93 163d 6440 efbc f027 eabc 5779 5ebd
00000360: 469b 233d 3ac7 79bd 8159 b4b9 909b 57bd
00000370: a057 9f39 6c97 75bd 895f 62bc 86bc 473d
00000380: f6d1 3d3d bc9f 82bd bab5 6f3c d6ae 5bbd
00000390: 6301 823c 6974 7b3d 03a6 c5bc 7095 33bd
000003a0: 3944 443c 7e39 f8b9 394b 2dbd d093 e83b
000003b0: 6a6f 0dbd 9be7 283d a1c1 a33c 483a e13c
000003c0: 744e 35bd 4938 9dbc 1065 3cbd e59d 863c
000003d0: 52b6 ef3c 6611 313b fb0c f33c 88dd 4ebc
000003e0: 7262 57bc 3345 34bd 5d23 31bd d316 35bd
000003f0: fc53 4bbd 5934 c3bc 576d df3a e538 393d

network.0.bias f4 [256]
0.045264464 -0.049099974 -0.04967779 -0.035000034 -0.015011494 -0.038609765 0.051207405 -0.049056016
-0.00819841 0.00990584 0.040584635 0.0076022334 -0.05240973 -0.0155417705 -0.017258853 -0.015315994
0.0056193187 0.004499583 0.02130103 -0.04899884 -0.012410869 -0.04823982 -0.024063177 -0.0026224041
0.03792803 0.027323907 0.006734244 -0.05565832 0.021104092 0.0537684 -0.016647127 -0.05634746
-0.053800747 0.015327944 0.03266666 -0.006784939 0.0038233898 -0.06676871 -0.05194498 -0.059133463
0.047787037 -0.03698243 0.045357767 0.06185945 0.05192544 0.014379857 0.0141976625 -0.049977895
-0.05808529 0.055532023 -0.054113556 -0.059678342 0.045430176 0.041929025 0.007747657 0.058668613
0.020381164 0.062471904 -0.043461625 -0.020572979 -0.04644318 -0.04022571 0.026874883 0.0037162802
-0.039460644 -0.032263573 0.045041483 -0.031170283 -0.0015762247 -0.05371848 -0.059891958 0.0014042498
-0.06460214 0.0074677938 0.019618863 0.0023286552 -0.042986333 -0.016067538 0.04917911 -0.045259982
0.0027686125 0.04377998 -0.0036741593 0.052508138 0.009819139 0.008619783 -0.015354597 -0.036054675
0.064734526 -0.06125307 -0.013765719 0.0036916577 0.024323 0.0006617587 0.0076982467 -0.004639821
-0.035360515 0.006629097 -0.06582091 -0.06312319 0.011777307 -0.015277024 -0.06360674 0.038223077
-0.040703416 -0.04866144 0.0360052 -0.009276908 0.050650787 0.0031263405 0.038680892 0.015247896
-0.0093519585 -0.059603047 -0.008142453 -0.016019309 -0.042379905 0.0039639724 -0.020005472 0.03608797
0.04564706 0.0098098265 0.026370997 -0.030752428 -0.0248928 -0.053187404 -0.023151461 0.039678145
0.019208338 0.04468505 0.025654525 0.0035541602 0.04721566 -0.04522709 0.0028433297 -0.01960699
-0.040310316 -0.03502585 -0.05513442 -0.041182183 -0.016460339 -0.048484996 -0.021059608 0.028317023
-0.031791497 0.043048896 0.008411679 -0.02030271 0.027078519 0.0009825818 -0.06313817 -0.037833165
0.044629924 -0.03182388 0.04511263 -0.0021463237 -0.041098937 0.013208536 -0.020105293 0.011973064
0.015490206 -0.019695947 0.032193445 0.030760812 -0.04764501 0.054575313 -0.028963812 0.020842751
0.009637244 -0.029337311 0.021520574 0.028520973 0.01938361 0.00024235061 -0.04506265 -0.008567545
-0.031364974 0.041216567 0.002180872 -0.062475543 -0.056831326 -0.06287144 -0.017396664 -0.020564195
0.059820693 -0.05019405 -0.0435806 0.04419048 -0.02642061 0.012317072 -0.06486192 -0.060519513
-0.015049383 -0.046318613 0.058891244 0.042214427 -0.054941047 -0.045896396 0.02379282 0.017272277
-0.010262571 -0.027225168 -0.04503356 0.0039564236 0.012535073 -0.054690417 0.051379066 -0.03208208
-0.012597849 0.0017758827 0.02379887 0.043366145 0.022410946 -0.02584616 0.04264826 0.041189056
0.052288562 -0.009611102 0.041947033 -0.028547898 0.04459572 -0.05276494 -0.006166078 -0.038142107
0.0075295577 0.0156204635 0.022324847 0.04478637 0.012855152 0.05242895 -0.0019728197 -0.040365208
0.04632219 0.0528538 -0.023917265 -0.03861444 -0.05777685 -0.039439935 -0.004359239 0.02302102
-0.048922643 0.044963434 -0.03739793 0.046219688 -0.052717827 0.046709813 -0.0115699535 -0.014813357
0.053799447 -0.038594905 0.027423661 -0.04884019 0.015796205 0.0042285314 0.044699978 -0.017691176
00000000: 3b67 393d 0e1d 49bd f07a 4bbd 325c 0fbd
00000010: c5f2 75bc 4625 1ebd dbbe 513d f6ee 48bd
00000020: a052 06bc 1b4c 223c 133c 263d 281c f93b
00000030: 96ab 56bd e9a2 7ebc 7062 8dbc efef 7abc
00000040: 4322 b83b 3d71 933b 7f7f ae3c 02b3 48bd
00000050: f556 4bbc 1e97 45bd 2420 c5bc a4dc 2bbb
00000060: 6c5a 1b3d 63d6 df3c efaa dc3b fbf9 63bd
00000070: 7de2 ac3c 413c 5c3d 8e5f 88bc 98cc 66bd
00000080: 2c5e 5cbd 0f22 7b3c 7acd 053d 3254 debb
00000090: d691 7a3b 09be 88bd 42c4 54bd ee35 72bd
000000a0: 57bc 433d e37a 17bd 11c9 393d 5660 7d3d
000000b0: c5af 543d 7e99 6b3c 509d 683c 9fb5 4cbd
000000c0: d7ea 6dbd 8c75 633d 2da6 5dbd 4771 74bd
000000d0: fe14 3a3d c5bd 2b3d 0fe0 fd3b 804e 703d
000000e0: 66f6 a63c 8ae2 7f3d d104 32bd aa88 a8bc
000000f0: 343b 3ebd b7c3 24bd b728 dc3c d68c 733b
00000100: 7ca1 21bd cf26 04bd 6b7d 383d d258 ffbc
00000110: 5399 ceba e907 5cbd 4551 75bd ce0e b83a
00000120: 204e 84bd 65b4 f43b bdb7 a03c 5a9c 183b
00000130: 7012 30bd 12a0 83bc 0970 493d 8862 39bd
00000140: 9c71 353b a352 333d 2aca 70bb c612 573d
00000150: 74e0 203c fe39 0d3c d991 7bbc 11ae 13bd
00000160: 8993 843d 80e4 7abd 9c89 61bc bdef 713b
00000170: 0741 c73c e079 2d3a 9341 fc3b a409 98bb
00000180: 30d6 10bd e538 d93b 1dcd 86bd bb46 81bd
00000190: 9bf5 403c 7c4c 7abc 4044 82bd cd8f 1c3d
000001a0: a0b8 26bd 3851 47bd 307a 133d 2cfe 17bc
000001b0: 3377 4f3d 4ae3 4c3b db6f 1e3d 50d2 793c
000001c0: f538 19bc 5322 74bd ec67 05bc ed3a 83bc
000001d0: 8d96 2dbd 36e4 813b 84e2 a3bc fbd0 133d
000001e0: 69f8 3a3d 65b9 203c fd07 d83c 84ec fbbc
000001f0: fceb cbbc 09db 59bd 22a8 bdbc 8d85 223d
00000200: ce5a 9d3c ac07 373d 7029 d23c eaec 683b
00000210: 3565 413d 0b40 39bd 2857 3a3b d79e a0bc
00000220: 6e1c 25bd 4477 0fbd a1d4 61bd a6ae 28bd
00000230: d5d7 86bc 3498 46bd 3385 acbc 1af9 e73c
00000240: cd37 02bd 0a54 303d 24d1 093c de51 a6bc
00000250: c5d3 dd3c f9c9 803a 964e 81bd f3f6 1abd
00000260: decd 363d c259 02bd 05c8 383d 56a9 0cbb
00000270: 5c57 28bd 9e68 583c dbb3 a4bc ac2a 443c
00000280: a2ca 7d3c 6559 a1bc 46dd 033d 19fe fb3c
00000290: 6a27 43bd 5d8a 5f3d 8445 edbc 6bbe aa3c
000002a0: 88e5 1d3c cd54 f0bc ea4b b03c d1a4 e93c
000002b0: 60ca 9e3c 7f1f 7e39 9d93 38bd e35e 0cbc
000002c0: 8f78 00bd b4d2 283d f6ec 0e3b 5be6 7fbd
000002d0: f7c7 68bd bec2 80bd 7383 8ebc 3e76 a8bc
000002e0: 8b06 753d 4798 4dbd 9281 32bd 1401 353d
000002f0: 0970 d8bc 8bcd 493c 54d6 84bd 4fe3 77bd
00000300: b091 76bc 96b8 3dbd f237 713d 09e9 2c3d
00000310: dd09 61bd dcfd 3bbd 29e9 c23c 977e 8d3c
00000320: 5824 28bc 5107 dfbc 1c75 38bd e3a4 813b
00000330: e85f 4d3c 0f03 60bd db72 523d 8068 03bd
00000340: 3567 4ebc bcc4 e83a d9f5 c23c b3a0 313d
00000350: 2997 b73c 53bb d3bc f1af 2e3d dbb5 283d
00000360: 882c 563d e277 1dbc a7d0 2b3d 48dd e9bc
00000370: 00aa 363d 0d20 58bd d00c cabb e63a 1cbd
00000380: 82ba f63b f9ec 7f3c 99e2 b63c ea71 373d
00000390: 6a9e 523c bdbf 563d 6c4a 01bb fd55 25bd
000003a0: 56bc 3d3d 3a7d 583d 24ee c3bc 2d2a 1ebd
000003b0: 6ba7 6cbd c58b 21bd f2d7 8ebb 9496 bc3c
000003c0: 1c63 48bd 942b 383d 922e 19bd db50 3d3d
000003d0: a6ee 57bd ca52 3f3d e78f 3dbc b9b3 72bc
000003e0: cf5c 5c3d b115 1ebd 96a7 e03c a70c 48bd
000003f0: 0b67 813c 7e8f 8a3b 5317 373d 16ed 90bc

network.2.weight f4 [256]
1.0031558 0.9952356 1.0088035 1.0067395 1.0066528 1.0011326 1.0038269 1.001726
1.0001721 1.0067849 0.99592066 1.0069779 1.0025687 1.008329 1.0052255 0.99934655
0.9963873 0.9874297 1.0079476 0.99139917 1.0007595 0.99139637 1.0029116 1.0018162
1.009804 0.99814284 1.0008991 0.9896652 0.9973081 0.9916212 1.009842 1.0021753
1.008351 1.0064603 0.99761444 0.99425185 0.9980892 0.9978125 1.0028377 1.0087802
1.0077145 1.0055063 1.0012866 1.0046911 0.99761665 1.0029157 1.007306 1.0102664
0.9884338 0.9940961 0.9959225 1.0057871 0.9925087 1.0000544 0.9925569 0.99828947
0.9977312 0.99719775 1.0090818 0.997288 1.0089803 0.9989922 0.993383 1.008568
1.0054591 0.9999266 1.0060422 1.0034047 1.0043215 1.0004076 1.0043844 0.99798775
0.99834293 0.9980807 1.004549 0.99445045 1.0001411 1.0067524 1.0042377 1.0033739
1.002319 0.994858 1.0030227 1.0082564 0.9906098 0.9912921 0.99948674 0.99487484
0.9905322 1.0080618 0.9879879 1.002265 0.99564373 0.99907327 1.0004531 1.0051588
1.0032008 1.006276 1.0065892 1.00424 1.0081583 1.007178 1.0085031 1.0018616
0.9950729 1.0005925 0.99280006 1.0001395 0.9988717 1.0044956 1.000475 0.994401
1.0042757 0.990759 1.0028027 1.0002556 0.9959603 0.9898878 1.0013745 1.0037705
1.0007359 1.0066127 0.9987843 1.0017596 0.9968048 1.0010471 1.0031933 0.99931735
1.0076958 1.0040284 0.9981379 0.99766845 0.99902034 1.0082763 0.9972004 1.0025669
0.99938416 1.0033814 1.0065503 1.0053093 1.0044258 0.9977399 1.0042892 1.003923
1.0020597 0.99672675 0.9985091 0.9926504 0.9945931 1.0054488 0.99878144 0.9964294
0.9992344 0.9988888 0.9918385 1.000519 1.0105087 0.99286515 1.0030876 0.99824405
0.9974932 0.99334264 0.9991077 0.98917574 1.0008391 0.9960603 1.0028472 1.0073256
0.99806875 0.99712473 0.9956488 1.0029355 0.9972982 0.99423105 1.0044837 0.99204576
1.0119739 0.99908316 0.99583226 0.9955207 1.0049305 1.0005738 1.0086087 0.99685335
1.0039823 1.0080732 0.99485713 1.0119406 0.9958705 1.002657 0.99766743 1.0045668
1.0048778 1.0000837 0.99487275 1.0061103 0.9927961 0.99131817 0.9959659 0.99078125
0.9980612 0.9908403 0.9988876 0.99677634 1.0019491 1.0025026 1.0075277 1.0020303
0.9973616 0.9930008 0.9982698 1.0085051 1.0080235 0.9986193 0.9990363 1.0038434
0.9958824 1.0055591 1.0089124 0.99615663 0.995298 0.99174446 0.99867934 1.0003061
0.99534994 0.988993 1.0032274 0.9993152 0.99291533 0.9992443 0.99039096 0.9976377
1.0082325 1.0016735 0.9966563 1.0068531 0.99297726 0.99874145 0.99597937 0.99727845
0.99813145 0.98845464 1.0046258 0.99308044 0.9961747 1.0075954 0.9933967 0.9977051
0.9921566 1.0063957 1.0017534 0.99188 0.9906802 1.0087106 0.99445814 1.0055438
00000000: 6967 803f c3c7 7e3f 7920 813f d7dc 803f
00000010: 00da 803f 1d25 803f 667d 803f 8f38 803f
00000020: a405 803f 54de 803f a8f4 7e3f a7e4 803f
00000030: 2c54 803f ed10 813f 3bab 803f 2dd5 7f3f
00000040: 3d13 7f3f 31c8 7c3f 6d04 813f 56cc 7d3f
00000050: e318 803f 27cc 7d3f 685f 803f 833b 803f
00000060: 4241 813f 4a86 7f3f 761d 803f b35a 7d3f
00000070: 954f 7f3f e3da 7d3f 8142 813f 4847 803f
00000080: a511 813f b1d3 803f a963 7f3f 4a87 7e3f
00000090: c682 7f3f a470 7f3f fc5c 803f b61f 813f
000000a0: cafc 803f 6eb4 803f 292a 803f b899 803f
000000b0: ce63 7f3f 8b5f 803f 67ef 803f 6950 813f
000000c0: ff09 7d3f 157d 7e3f c7f4 7e3f a2bd 803f
000000d0: 0d15 7e3f c801 803f 3618 7e3f e68f 7f3f
000000e0: 506b 7f3f 5a48 7f3f 9829 813f 444e 7f3f
000000f0: 4426 813f f4bd 7f3f 594e 7e3f c218 813f
00000100: e2b2 803f 31fb 7f3f fec5 803f 916f 803f
00000110: 9b8d 803f 5b0d 803f ab8f 803f 207c 7f3f
00000120: 6793 7f3f 3782 7f3f 1095 803f 4e94 7e3f
00000130: a004 803f 43dd 803f dc8a 803f 8e6e 803f
00000140: fd4b 803f 04af 7e3f 0c63 803f 8c0e 813f
00000150: 9b98 7d3f 52c5 7d3f 5dde 7f3f 1eb0 7e3f
00000160: 8593 7d3f 2b08 813f c6ec 7c3f 384a 803f
00000170: 82e2 7e3f 44c3 7f3f d90e 803f 0ba9 803f
00000180: e268 803f a7cd 803f ead7 803f f08a 803f
00000190: 550b 813f 35eb 803f a116 813f 003d 803f
000001a0: 19bd 7e3f 6a13 803f 2528 7e3f 9204 803f
000001b0: 0eb6 7f3f 5093 803f 910f 803f 1091 7e3f
000001c0: 1b8c 803f 62a2 7d3f d75b 803f 6008 803f
000001d0: 41f7 7e3f 4969 7d3f 0a2d 803f 8d7b 803f
000001e0: 1d18 803f afd8 803f 54b0 7f3f a939 803f
000001f0: 992e 7f3f 5022 803f a368 803f 43d3 7f3f
00000200: 2dfc 803f 0184 803f f785 7f3f 3367 7f3f
00000210: ccbf 7f3f 330f 813f 8748 7f3f 1d54 803f
00000220: a4d7 7f3f cd6e 803f a4d6 803f faad 803f
00000230: 0691 803f e26b 7f3f 8c8c 803f 8d80 803f
00000240: 7e43 803f 7c29 7f3f 4b9e 7f3f 561e 7e3f
00000250: a79d 7e3f 8cb2 803f 24b0 7f3f ff15 7f3f
00000260: d3cd 7f3f 2db7 7f3f 21e9 7d3f 0211 803f
00000270: 5958 813f 692c 7e3f 2d65 803f ec8c 7f3f
00000280: b75b 7f3f b44b 7e3f 86c5 7f3f 9f3a 7d3f
00000290: 7f1b 803f cffd 7e3f 4c5d 803f 0cf0 803f
000002a0: 6f81 7f3f 9143 7f3f d7e2 7e3f 3160 803f
000002b0: ef4e 7f3f ed85 7e3f ec92 803f b6f6 7d3f
000002c0: 5c88 813f eac3 7f3f ddee 7e3f 72da 7e3f
000002d0: 90a1 803f cd12 803f 171a 813f c831 7f3f
000002e0: 7e82 803f 8b08 813f f5ae 7e3f 4587 813f
000002f0: 5ef1 7e3f 1157 803f 2267 7f3f a595 803f
00000300: d69f 803f be02 803f fbaf 7e3f 39c8 803f
00000310: e327 7e3f 07c7 7d3f 9ff7 7e3f d7a3 7d3f
00000320: f080 7f3f b6a7 7d3f 19b7 7f3f bc2c 7f3f
00000330: de3f 803f 0152 803f abf6 803f 8742 803f
00000340: 1753 7f3f 4d35 7e3f 9c8e 7f3f b216 813f
00000350: ea06 813f 84a5 7f3f d8c0 7f3f f17d 803f
00000360: 26f2 7e3f 29b6 803f 0b24 813f 1f04 7f3f
00000370: dacb 7e3f f7e2 7d3f 73a9 7f3f 080a 803f
00000380: 41cf 7e3f a52e 7d3f c169 803f 1fd3 7f3f
00000390: b32f 7e3f 79ce 7f3f 438a 7d3f 2f65 7f3f
000003a0: c30d 813f d636 803f de24 7f3f 90e0 803f
000003b0: c233 7e3f 85ad 7f3f 81f8 7e3f a44d 7f3f
000003c0: 8b85 7f3f 5d0b 7d3f 9497 803f 853a 7e3f
000003d0: 4e05 7f3f e3f8 803f 3f4f 7e3f 9a69 7f3f
000003e0: fafd 7d3f 93d1 803f 7539 803f d9eb 7d3f
000003f0: 389d 7d3f 6e1d 813f cf94 7e3f a9b5 803f

network.2.bias f4 [256]
0.004961032 0.002990313 0.0027829942 -0.011001928 0.01083103 -0.00487793 0.0049831937 -0.0009863207
-0.0055786134 -0.0007851933 -0.0029457945 -0.005526184 -0.0036658063 0.0060101133 -0.0018193283 -0.007646305
0.005938801 0.0077381483 0.009514782 0.004473805 0.00656509 -0.004595042 -0.0019529662 0.005072927
-0.0034601549 0.00031664557 -0.0066212453 -0.006341812 -0.009457177 -0.0056398804 -0.011454211 0.003541484
0.0049395673 -0.0022353276 0.00068249885 -0.0034757883 0.0016422406 0.00792928 0.006396799 -0.008979177
0.008644485 -0.005958087 -0.007677717 0.00548624 0.0017332454 0.0017425184 -0.0064340318 0.0051362524
0.008788294 0.00028922726 -0.0044338894 -0.0010793277 0.0003085029 0.00032318413 0.0011621431 -0.0017990333
-0.0074194884 -0.0015401301 -0.0036706515 -0.00087414455 -0.0063887774 -0.0010451066 -0.0032482846 0.0032173032
-1.2053005e-05 0.0023888713 0.0033322047 -0.0032907722 -0.008401321 0.0027835337 0.0012744876 0.0006496365
0.0031937056 -0.0028451788 0.0026949723 0.007804539 0.0022150222 0.0040409835 0.011857826 -0.0044928417
0.002377257 -0.0028162124 0.001475654 0.0020808165 -0.009857405 -0.0043053883 0.006784243 0.005918671
0.0067382627 -0.0036540253 -0.0030812095 0.004907165 -0.0050148885 -0.00062203826 0.0026693658 0.0014325209
-0.00093682134 -0.0011584006 -0.005197284 -0.0014603822 -0.010232162 -0.010946523 -0.004598401 0.0054986253
0.01042405 0.005883919 0.00010949554 -0.0040435744 -0.007903007 -0.0043498734 -0.012046699 0.011048052
-0.0019001499 -0.0017580843 0.002066323 -0.0065753986 -0.0011421428 0.0043406556 -0.0012795407 -0.00085442414
-0.009510632 -0.0028130705 -0.0006097088 -0.0014709666 0.000948308 -0.0072175264 -0.00030381253 -0.007172153
-0.0037440695 -0.0033244316 0.0036190148 -0.004154179 0.0016818644 0.005425388 -0.00056035625 0.001473313
0.004765944 -0.003004295 0.009441452 -0.0034356746 0.004094973 -0.004498977 0.0045322734 -0.009869957
0.0050695883 -0.0018621611 -0.0028384344 0.008906409 -0.0019641647 0.001247243 -0.004575516 -0.0047638896
0.0014223782 -0.0073562334 0.0016655078 -0.005286151 0.008836439 0.01097933 -0.0034604156 0.00027925207
-0.007216864 0.00035191447 -0.0016936008 -0.005695345 0.0023345936 -0.0013249532 0.004454121 -0.0032238858
0.006760899 0.0015029393 -0.01037289 0.0013371736 -0.0038895397 0.00792203 -0.000830324 0.004635453
-0.012953298 -0.003445796 0.0063884584 -0.00082483585 -0.0019652057 0.0014694036 0.006000505 0.0033987511
-0.004997139 0.0054310802 0.008884719 0.0019229616 0.00514365 0.0065080402 0.0037985211 0.0020325473
-0.0040797326 -0.002761125 0.0012998903 -0.0027288944 0.0058394796 0.00013118863 0.0059185745 -0.0031052162
-0.0037408285 0.0029321518 0.007166424 0.010154468 -0.0052044224 0.0062847594 0.0022698294 0.0072962297
0.004818661 -0.00173694 -0.009163341 -0.0038857143 -0.008555319 -0.0005102738 -0.011894763 -0.0015511184
-0.004023123 -0.0073720547 -0.0075458 -0.0017525789 0.00010458026 -5.8954967e-05 -3.5505665e-05 0.0005666898
-0.0044539147 0.003644281 -0.0011280959 0.001616326 -0.005225774 -0.0050019105 -0.0031944632 -0.005121418
0.011771924 0.0021735823 0.0037435056 -0.0034781103 0.0037630345 0.010157251 0.0066700466 -0.005608436
0.005481612 -0.00029382028 -0.009170063 0.0019047926 -0.007670349 0.0026056576 0.0011211754 -0.0030006818
0.0055376017 0.00619652 -0.012462604 -0.006804617 0.009098071 0.0032853722 -0.004826748 -0.007919128
00000000: 2790 a23b 21f9 433b e562 363b 6e41 34bc
00000010: a274 313c 0bd7 9fbb 0f4a a33b 6e47 81ba
00000020: cdcc b6bb 6ed5 4dba 3b0e 41bb fe14 b5bb
00000030: 063e 70bb 7cf0 c43b 8776 eeba db8d fabb
00000040: 469a c23b 4b90 fd3b e3e3 1b3c ff98 923b
00000050: f71f d73b 0292 96bb acfa ffba cc3a a63b
00000060: c4c3 62bb 7303 a639 08f7 d8bb face cfbb
00000070: 46f2 1abc bfce b8bb 71aa 3bbc 3e18 683b
00000080: 18dc a13b 937e 12bb b9e9 323a 0dca 63bb
00000090: 7340 d73a d0e9 013c 3d9c d13b 661d 13bc
000000a0: 99a1 0d3c 0e3c c3bb 5c95 fbbb ebc5 b33b
000000b0: 112e e33a 3765 e43a 92d4 d2bb 024e a83b
000000c0: c7fc 0f3c 6da3 9739 294a 91bb 3a78 8dba
000000d0: 8fbe a139 0a71 a939 0d53 983a 8acd ebba
000000e0: 2e1f f3bb 31de c9ba 508f 70bb d926 65ba
000000f0: f358 d1bb f5fb 88ba 2ce1 54bb 64d9 523b
00000100: 4337 4ab7 9c8e 1c3b 1e61 5a3b ffa9 57bb
00000110: b2a5 09bc f26b 363b b50c a73a 5e4c 2a3a
00000120: 7d4d 513b 2e76 3abb 229e 303b 38bd ff3b
00000130: e829 113b 3a6a 843b 5447 423c b038 93bb
00000140: c1cb 1b3b 3490 38bb bb6a c13a 4f5e 083b
00000150: f480 21bc 3714 8dbb 5b4e de3b 69f1 c13b
00000160: a5cc dc3b 5f78 6fbb 1eee 49bb 49cc a03b
00000170: ef53 a4bb 4810 23ba 87f0 2e3b 6dc3 bb3a
00000180: 0495 75ba 79d5 97ba fa4d aabb 4c6a bfba
00000190: cca4 27bc 0c59 33bc 2fae 96bb d02d b43b
000001a0: a2c9 2a3c e4cd c03b f8a0 e538 f67f 84bb
000001b0: 9d7b 01bc 6289 8ebb 855f 45bc e402 353c
000001c0: 730e f9ba 856f e6ba 266b 073b 7176 d7bb
000001d0: f4b3 95ba 0f3c 8e3b 43b6 a7ba 6ffb 5fba
000001e0: 7bd2 1bbc 7e5b 38bb ddd4 1fba 73cd c0ba
000001f0: df97 783a 0081 ecbb 0749 9fb9 6104 ebbb
00000200: 105f 75bb b5de 59bb fe2c 6d3b c71f 88bb
00000210: 0172 dc3a 74c7 b13b dfe4 12ba 2e1c c13a
00000220: a32b 9c3b b5e3 44bb 52b0 1a3c 0e29 61bb
00000230: 202f 863b 286c 93bb 7783 943b 9ab5 21bc
00000240: ca1e a63b c213 f4ba 0705 3abb 30ec 113c
00000250: 37b9 00bb 887a a33a 36ee 95bb 671a 9cbb
00000260: 186f ba3a 8f0c f1bb 2b4d da3a 7337 adbb
00000270: b6c6 103c a6e2 333c 24c8 62bb 9468 9239
00000280: 717b ecbb 2981 b839 d0fb ddba 04a0 babb
00000290: fbff 183b 0daa adba e0f3 913b d447 53bb
000002a0: 888a dd3b 46fe c43a 0ef3 29bc 1a44 af3a
000002b0: a6e7 7ebb 67cb 013c 1aaa 59ba 00e5 973b
000002c0: 123a 54bc ddd2 61bb 4656 d13b cc39 58ba
000002d0: aeca 00bb 0199 c03a e29f c43b 95bd 5e3b
000002e0: 0abf a3bb 34f7 b13b 3691 113c e20b fc3a
000002f0: 108c a83b 6641 d53b 9cf0 783b 7c34 053b
00000300: 47af 85bb fef3 34bb 1561 aa3a 40d7 32bb
00000310: 1b59 bf3b ae8f 0939 9af0 c13b e280 4bbb
00000320: b028 75bb 5829 403b 52d4 ea3b ed5e 263c
00000330: dc89 aabb 62f0 cd3b 6bc1 143b 3615 ef3b
00000340: dce5 9d3b 09aa e3ba d621 16bc 78a7 7ebb
00000350: 9c2b 0cbc e5c3 05ba 41e2 42bc e64e cbba
00000360: 67d4 83bb 4791 f1bb c242 f7bb cab6 e5ba
00000370: 1952 db38 6a46 77b8 ebeb 14b8 e98d 143a
00000380: 25f2 91bb e4d4 6e3b 9edc 93ba e7da d33a
00000390: f83c abbb 11e7 a3bb 335a 51bb 91d1 a7bb
000003a0: 07df 403c a972 0e3b 9a55 753b 02f1 63bb
000003b0: 3e9d 763b 996a 263c 6890 da3b f9c6 b7bb
000003c0: 189f b33b e40b 9ab9 083e 16bc 3caa f93a
000003d0: 8d57 fbbb aec3 2a3b 67f4 923a 16a7 44bb
000003e0: c574 b53b 2d0c cb3b f32f 4cbc 44f9 debb
000003f0: 1310 153c 664f 573b b229 9ebb 3bbf 01bc

network.2.running_mean f4 [256]
0.25299215 0.23297063 0.19050133 0.20887408 0.25566548 0.12712562 0.2065274 0.21154574
0.32534692 0.25329357 0.19756784 0.17631216 0.14836094 0.2565598 0.20117518 0.30966648
0.23520616 0.29049703 0.2330551 0.21980256 0.15065546 0.21604143 0.21091916 0.16932684
0.28803656 0.2205556 0.30072233 0.2736543 0.19263513 0.23539488 0.23947205 0.18701003
0.21120977 0.22332485 0.33779153 0.21011972 0.2642473 0.21004972 0.21763188 0.35134244
0.30379763 0.2412971 0.18142378 0.22023968 0.24563117 0.24872033 0.30353668 0.17584622
0.22742862 0.27036035 0.23598298 0.18705294 0.24483413 0.21787386 0.2630449 0.31945357
0.26923558 0.2738386 0.21853656 0.26848623 0.21189632 0.17418218 0.26959813 0.17539735
0.15009342 0.16136399 0.27216864 0.21602638 0.2341993 0.15383509 0.16580689 0.15360397
0.27110815 0.18725954 0.19502899 0.2590246 0.23150174 0.25921294 0.28335395 0.21711415
0.2601004 0.19743122 0.25613996 0.21392047 0.27028486 0.20310314 0.2424305 0.25136256
0.23338716 0.21861695 0.169118 0.21237741 0.18898973 0.2062906 0.2780593 0.16040383
0.24067748 0.29316464 0.23285978 0.21126723 0.19121674 0.26701006 0.1660599 0.2386607
0.18719897 0.29139242 0.19800231 0.21377319 0.2794122 0.24399011 0.21302438 0.27822462
0.21336998 0.15642522 0.19223578 0.29046634 0.2259966 0.21818264 0.15019615 0.2170333
0.2557212 0.26469925 0.19568385 0.19807416 0.23290914 0.200763 0.206338 0.16770713
0.22296281 0.2673832 0.2195779 0.29318783 0.24539661 0.2591689 0.18318157 0.18955986
0.15081592 0.33483475 0.25848335 0.19739501 0.29551134 0.17324166 0.1914838 0.2614571
0.32485795 0.34674543 0.22206762 0.29855907 0.25384262 0.21173579 0.23107249 0.23879078
0.18167664 0.1903586 0.19977419 0.22386825 0.19714078 0.246531 0.22355977 0.16891564
0.15870765 0.21452546 0.20731391 0.23578623 0.23368043 0.26116502 0.18955532 0.18013899
0.19565465 0.22775821 0.13321923 0.25058118 0.21862027 0.25700468 0.20475821 0.23331974
0.23652054 0.25880414 0.1766114 0.14233276 0.21485029 0.20118225 0.16835052 0.22447556
0.18335551 0.2512225 0.27032125 0.27212787 0.20701842 0.17106596 0.173437 0.14598903
0.19704854 0.30881953 0.18082395 0.19902642 0.2132882 0.24732229 0.24729759 0.20993032
0.21890348 0.22998892 0.1589011 0.23530929 0.20049334 0.25843468 0.27153546 0.19460368
0.26504666 0.21824275 0.35008362 0.15720926 0.27576795 0.29546002 0.23233603 0.24020891
0.21138582 0.20006418 0.35018295 0.23154402 0.21374702 0.24711834 0.20064333 0.21279098
0.24809922 0.16636667 0.2021147 0.21439359 0.17711022 0.25072533 0.21603157 0.28664505
0.1943779 0.28120673 0.23047571 0.25023684 0.22054264 0.19347978 0.23307417 0.253821
0.18166466 0.28154185 0.2611752 0.28746948 0.33995625 0.2403947 0.2508785 0.1822979
0.19894381 0.27212408 0.23801154 0.28591222 0.2471486 0.20036331 0.2791087 0.22505894
00000000: 3088 813e da8f 6e3e c812 433e 16e3 553e
00000010: 96e6 823e 382d 023e eb7b 533e 729f 583e
00000020: df93 a63e b2af 813e 394f 4a3e 2d8b 343e
00000030: eeeb 173e ce5b 833e de00 4e3e 9b8c 9e3e
00000040: e2d9 703e 07bc 943e ffa5 6e3e ec13 613e
00000050: 6d45 1a3e f739 5d3e 31fb 573e 0464 2d3e
00000060: 8779 933e 54d9 613e 47f8 993e 6b1c 8c3e
00000070: 2542 453e 5b0b 713e 2938 753e 8f7f 3f3e
00000080: 6047 583e 45af 643e 03f3 ac3e a029 573e
00000090: 6c4b 873e 4617 573e e4da 5e3e 28e3 b33e
000000a0: 5d8b 9b3e 9616 773e 28c7 393e 8386 613e
000000b0: bd86 7b3e 8bb0 7e3e 2969 9b3e 0811 343e
000000c0: 0ce3 683e ac6c 8a3e 86a5 713e ce8a 3f3e
000000d0: ccb5 7a3e 531a 5f3e d2ad 863e 6b8f a33e
000000e0: 3fd9 893e 9334 8c3e 0cc8 5f3e 0777 893e
000000f0: 59fb 583e d05c 323e c408 8a3e 5d9b 333e
00000100: 17b2 193e 9a3c 253e b059 8b3e 0536 5d3e
00000110: f1d1 6f3e f286 1d3e 48c9 293e 5c4a 1d3e
00000120: b0ce 8a3e f7c0 3f3e aeb5 473e df9e 843e
00000130: cb0e 6d3e 8fb7 843e c513 913e 2c53 5e3e
00000140: e12b 853e 692b 4a3e c724 833e f80d 5b3e
00000150: c762 8a3e 45fa 4f3e b33f 783e 98b2 803e
00000160: 0bfd 6e3e 1fdd 5f3e 452d 2d3e 7779 593e
00000170: 8686 413e d83d 533e ca5d 8e3e e740 243e
00000180: 2874 763e ad19 963e cb72 6e3e 7056 583e
00000190: 52ce 433e 8bb5 883e 9b0b 2a3e 7863 743e
000001a0: 16b1 3f3e 6331 953e 1ec1 4a3e 5ce7 5a3e
000001b0: 1e0f 8f3e 8bd8 793e 1023 5a3e 7573 8e3e
000001c0: a97d 5a3e ef2d 203e 75d9 443e 01b8 943e
000001d0: a76b 673e 456b 5f3e 05cd 193e fa3d 5e3e
000001e0: e4ed 823e a986 873e 5961 483e f4d3 4a3e
000001f0: bc7f 6e3e d194 4d3e 454a 533e 6bbb 2b3e
00000200: 5d50 643e 73e6 883e 07d9 603e b71c 963e
00000210: 4049 7b3e c9b1 843e f393 3b3e fb1b 423e
00000220: 7d6f 1a3e 766f ab3e ee57 843e eb21 4a3e
00000230: 434d 973e 4366 313e 5414 443e b4dd 853e
00000240: c853 a63e 9e88 b13e b265 633e bcdc 983e
00000250: a9f7 813e 44d1 583e 449e 6c3e 9285 743e
00000260: 7109 3a3e 5ded 423e 9b91 4c3e b83d 653e
00000270: 46df 493e 9f72 7c3e daec 643e 39f8 2c3e
00000280: 4284 223e 90ac 5b3e 194a 543e f271 713e
00000290: ec49 6f3e 6cb7 853e ca1a 423e 5b76 383e
000002a0: b159 483e 7339 693e 9f6a 083e 2d4c 803e
000002b0: fedd 5f3e 1e96 833e 23ac 513e 5feb 6e3e
000002c0: 7132 723e fa81 843e 9ed9 343e aebf 113e
000002d0: b701 5c3e b802 4e3e 1464 2c3e ecdc 653e
000002e0: 8cc1 3b3e 3ca0 803e 8c67 8a3e 5854 8b3e
000002f0: a3fc 533e ea2b 2f3e 7899 313e 267e 153e
00000300: 18c7 493e 981d 9e3e ea29 393e 95cd 4b3e
00000310: 3968 5a3e 0e42 7d3e 943b 7d3e f9f7 563e
00000320: 3c28 603e 3782 6b3e f8b6 223e ebf4 703e
00000330: 204e 4d3e 8d51 843e b206 8b3e 3046 473e
00000340: 32b4 873e 077b 5f3e 293e b33e 77fb 203e
00000350: 7531 8d3e 8946 973e 7fe9 6d3e 53f9 753e
00000360: 8675 583e a0dd 4c3e 2e4b b33e e019 6d3e
00000370: 80e0 5a3e 970c 7d3e 7275 4d3e e1e5 593e
00000380: b90d 7e3e 065c 2a3e 28f7 4e3e fe89 5b3e
00000390: 625c 353e 125f 803e 6137 5d3e 24c3 923e
000003a0: 000b 473e 54fa 8f3e d301 6c3e 0b1f 803e
000003b0: eed5 613e 901f 463e ffaa 6e3e d3f4 813e
000003c0: 4d06 3a3e 4126 903e c1b8 853e 332f 933e
000003d0: bf0e ae3e 072a 763e 2673 803e 4dac 3a3e
000003e0: edb7 4b3e d953 8b3e 4cb9 733e 1663 923e
000003f0: 8614 7d3e 0a2c 4d3e 56e7 8e3e da75 663e

network.2.running_var f4 [256]
0.22164522 0.26786658 0.19336395 0.26742214 0.24283507 0.14824708 0.21163823 0.18783037
0.4436738 0.25096497 0.19937575 0.17919053 0.16211365 0.30425912 0.20734885 0.27633318
0.20455661 0.29961476 0.27231985 0.22632462 0.14475763 0.24952273 0.1898929 0.1519637
0.35112995 0.22795832 0.2986711 0.34473595 0.21649653 0.2512033 0.22597285 0.19037041
0.23465179 0.2357529 0.3056955 0.21831407 0.29563928 0.22423097 0.22486076 0.45677865
0.2847123 0.27947292 0.17157458 0.20020933 0.21309188 0.2524439 0.32418096 0.21474013
0.23768663 0.38688824 0.2717988 0.19986689 0.20417476 0.17726937 0.27759472 0.28824493
0.27020937 0.27409723 0.26435596 0.30743876 0.19880837 0.15474008 0.21872826 0.18279423
0.17029546 0.17286327 0.22340208 0.21499144 0.2205399 0.17001683 0.20544736 0.1640244
0.34293744 0.17572744 0.16131257 0.22406499 0.23947582 0.28593567 0.27859166 0.24662048
0.24449508 0.22302 0.21276277 0.21831807 0.28083208 0.17953624 0.24780127 0.2279312
0.2085037 0.2657567 0.1670739 0.22775169 0.17359687 0.18489489 0.29386148 0.16423818
0.22940171 0.30158797 0.2661136 0.24479899 0.20311588 0.3806341 0.20371835 0.21947832
0.19431275 0.37250274 0.1697135 0.25532362 0.23515628 0.2668852 0.19261235 0.29670957
0.2033962 0.16979133 0.18363793 0.29855606 0.24858873 0.23416185 0.15915002 0.20457192
0.26517794 0.25218064 0.20017081 0.20322059 0.2747232 0.25918356 0.18951051 0.15254787
0.21055336 0.22609378 0.21665494 0.3710194 0.21313724 0.3740391 0.18129933 0.18074995
0.18003619 0.45272008 0.23405652 0.17335445 0.36628875 0.19663842 0.1891064 0.30587155
0.31549272 0.44535255 0.2919256 0.34806257 0.27797347 0.19278254 0.23579456 0.2543786
0.1720727 0.17128424 0.19300146 0.21834722 0.23231934 0.24874254 0.21034972 0.1627388
0.1616541 0.20976502 0.18283907 0.21311082 0.25173768 0.2547977 0.19222353 0.16876116
0.18884097 0.22359197 0.14052123 0.25461802 0.20720948 0.24839875 0.19166237 0.24734111
0.24755894 0.25598562 0.17525429 0.14918694 0.25146478 0.20171861 0.1734909 0.20351203
0.16301346 0.33277294 0.29153723 0.27449688 0.1972895 0.16553122 0.1987044 0.16010863
0.24612434 0.3384596 0.17788427 0.18750712 0.26868188 0.26411334 0.23321666 0.22643292
0.19652659 0.21070056 0.18207324 0.23107433 0.19944216 0.25274587 0.2503677 0.1903015
0.26623315 0.20074879 0.44552544 0.14770856 0.29837662 0.39407992 0.21394376 0.28423038
0.22062574 0.2199884 0.3950505 0.23944677 0.19603673 0.24449804 0.21948405 0.21234629
0.23406322 0.17120662 0.17485863 0.22217664 0.16662298 0.23581807 0.18355212 0.4110606
0.19091995 0.2546149 0.24108067 0.31301567 0.21923092 0.19340621 0.21581458 0.26887837
0.20948553 0.34615576 0.30625853 0.25138324 0.34775233 0.2216665 0.2171668 0.17122115
0.18158045 0.26547608 0.25230664 0.33626747 0.25602296 0.200584 0.2743575 0.20536117
00000000: f7f6 623e cf25 893e 3301 463e 8eeb 883e
00000010: c2a9 783e 15ce 173e b1b7 583e 9b56 403e
00000020: 3629 e33e 7b7e 803e 2829 4c3e b97d 373e
00000030: 1f01 263e dac7 9b3e 4253 543e 8b7b 8d3e
00000040: 4a77 513e 1b67 993e 826d 8b3e a4c1 673e
00000050: 583b 143e e382 7f3e 4973 423e 5f9c 1b3e
00000060: 4ec7 b33e e86d 693e 6beb 983e 3b81 b03e
00000070: 44b1 5d3e b89d 803e 6d65 673e 76f0 423e
00000080: 8f48 703e 3569 713e 1f84 9c3e b98d 5f3e
00000090: 085e 973e ce9c 653e e641 663e e4de e93e
000000a0: d0c5 913e 1317 8f3e 3fb1 2f3e ad03 4d3e
000000b0: c234 5a3e 5440 813e 0cfb a53e d6e4 5b3e
000000c0: 2064 733e 3716 c63e 3629 8b3e e8a9 4c3e
000000d0: 3013 513e 1a86 353e e520 8e3e d794 933e
000000e0: e258 8a3e 7956 8c3e aa59 873e 9d68 9d3e
000000f0: 6c94 4b3e 2f74 1e3e 4dfa 5f3e 692e 3b3e
00000100: ef61 2e3e 1203 313e 84c3 643e b726 5c3e
00000110: 36d5 613e e418 2e3e cb60 523e 03f6 273e
00000120: 7f95 af3e e5f1 333e 1f2f 253e 4b71 653e
00000130: 2639 753e 2966 923e 91a3 8e3e 148a 7c3e
00000140: eb5c 7a3e 5b5f 643e 7cde 593e c68e 5f3e
00000150: 39c9 8f3e 59d8 373e 9ebf 7d3e cc66 693e
00000160: fe81 553e 4311 883e 6c15 2b3e bd37 693e
00000170: 61c3 313e 1655 3d3e 0375 963e 0e2e 283e
00000180: 48e8 6a3e bd69 9a3e 0b40 883e 96ac 7a3e
00000190: 9cfd 4f3e 79e2 c23e 8b9b 503e edbe 603e
000001a0: ecf9 463e aeb8 be3e 60c9 2d3e c7b9 823e
000001b0: cfcc 703e 2da5 883e 2c3c 453e 51ea 973e
000001c0: 1847 503e c7dd 2d3e 950b 3c3e 57dc 983e
000001d0: 0b8e 7e3e 20c8 6f3e 39f8 223e 4d7b 513e
000001e0: 67c5 873e d21d 813e 94f9 4c3e 0f19 503e
000001f0: 85a8 8c3e b5b3 843e 0b0f 423e 8235 1c3e
00000200: 4d9b 573e 2185 673e cbda 5d3e 41f6 bd3e
00000210: a640 5a3e 0e82 bf3e 88a6 393e 8416 393e
00000220: 685b 383e edca e73e 83ac 6f3e d483 313e
00000230: 338a bb3e 955b 493e 1ca5 413e 329b 9c3e
00000240: 4388 a13e 4005 e43e 4677 953e 4235 b23e
00000250: 8a52 8e3e c968 453e 2174 713e e93d 823e
00000260: d333 303e 2365 2f3e 2da2 453e 6a96 5f3e
00000270: 1fe5 6d3e 5db6 7e3e eb65 573e 00a5 263e
00000280: a788 253e a4cc 563e 2a3a 3b3e b939 5a3e
00000290: c3e3 803e d874 823e 3fd6 443e bacf 2c3e
000002a0: 875f 413e 4bf5 643e cce4 0f3e 4b5d 823e
000002b0: b92e 543e 3e5c 7e3e 2443 443e fd46 7d3e
000002c0: 1780 7d3e 8c10 833e dc75 333e 76c4 183e
000002d0: febf 803e 538f 4e3e 99a7 313e 7565 503e
000002e0: 00ed 263e 3761 aa3e 5e44 953e db8a 8c3e
000002f0: 4206 4a3e 0481 293e 2b79 4b3e 84f3 233e
00000300: 0508 7c3e 944a ad3e 4b27 363e de01 403e
00000310: ac90 893e dd39 873e 59d0 6e3e 08de 673e
00000320: 443e 493e e3c1 573e 6871 3a3e c09e 6c3e
00000330: 913a 4c3e e867 813e 3230 803e 65de 423e
00000340: b64f 883e 1791 4d3e e91b e43e ea40 173e
00000350: d2c4 983e d8c4 c93e 1314 5b3e a586 913e
00000360: b7eb 613e a444 613e 0f44 ca3e 8931 753e
00000370: dabd 483e b25d 7a3e 6dc0 603e 4e71 593e
00000380: 45ae 6f3e ca50 2f3e 240e 333e 4682 633e
00000390: 379f 2a3e 4b7a 713e 16f5 3b3e 8976 d23e
000003a0: 8580 433e e25c 823e dadd 763e 9743 a03e
000003b0: 127e 603e 470c 463e 7ffe 5c3e 6daa 893e
000003c0: 6083 563e 543b b13e ebcd 9c3e 4eb5 803e
000003d0: 980c b23e 8bfc 623e f960 5e3e 9954 2f3e
000003e0: 3af0 393e 7bec 873e 562e 813e 402b ac3e
000003f0: 7115 833e e465 4d3e 9678 8c3e 334a 523e

network.4.weight f4 [128, 256]
-0.036677033 -0.044276994 0.0040856474 -0.013431153 0.05912345 -0.014440312 -0.036862668 0.057742473
-0.00602881 -0.061479528 0.05639679 0.01415721 -0.0334083 -0.029102232 0.044748984 0.0016265156
0.037457444 -0.061493743 0.040699996 0.006812106 -0.03267769 0.0058321366 -0.03976364 0.011465347
-0.03210437 -0.013880082 -0.00043053963 -0.020983461 0.026909066 -0.00685207 0.048786834 -0.042487156
-0.02560079 0.04651034 -0.031785373 0.01409401 -0.0648198 -0.04720893 0.054747004 -0.042906106
-0.03300336 0.032183763 0.038879972 0.01655817 -0.041583866 0.054434396 0.0459708 0.063380726
0.015063615 -0.023159845 -0.043702092 -0.003928264 0.0010457557 -0.024489371 0.025404451 0.008610766
0.015618628 -0.030109735 0.02678479 0.029473849 0.062490877 0.041100938 -0.02368081 0.011133221
-0.041704804 0.01923265 0.012457262 0.0598099 0.024239374 0.004210856 -0.008745589 -0.06311551
-0.0065563535 0.06484465 -0.032372043 -0.021876112 -0.050843995 0.022336418 -0.0304831 0.02371295
0.021750053 -0.023708424 -0.04051015 -0.01776992 -0.05036828 0.019147689 0.047400493 0.050459694
-0.009233374 -0.06312814 0.058912437 0.030596275 0.04333241 0.05730442 0.043836977 0.0035134626
0.04915614 -0.045135353 0.0036935094 -0.045202006 -0.0484753 0.026438436 -0.04910585 0.014085907
0.027348964 0.00058495917 0.026313614 -0.013776033 0.056254886 0.04861669 -0.053007394 0.061190076
0.025830444 -0.018184267 -0.045259967 -0.027317224 -0.053716652 0.052805312 0.03513218 0.018273512
-0.008381229 -0.04581394 -0.039684534 0.008380744 -0.017471662 0.013855828 -0.01861181 -0.056521535
-0.0491111 -0.0010939789 -0.03731811 0.060192402 0.011425506 -0.012788947 -0.0012057959 0.047904577
-0.05762251 -0.012318441 0.008895135 0.05818909 -0.029567573 -0.039072067 0.026817525 -0.020031586
0.00519893 0.028314041 0.025239298 0.016700052 -0.06045615 -0.0057739317 0.0022945348 -0.043726742
0.04703258 -0.0026333986 0.056039028 0.045468885 -0.05952293 -0.0661884 0.050393745 0.026092177
-0.040957537 0.0048014005 0.022937192 0.010693433 -0.038137056 0.04520342 -0.025309552 -0.023259703
0.05737217 0.000507845 -0.06294049 -0.05804658 -0.057545878 0.010148749 -0.052452747 0.0031754263
0.022730324 0.04337386 -0.0033330582 0.02858211 -0.020663727 0.02477348 -0.050967187 -0.0347955
-0.06097952 0.045507856 -0.06151014 -0.030229026 -0.005923635 -0.02149467 0.029920977 -0.006088669
0.06393891 0.056806695 0.0075811963 -0.013524041 -0.037363462 0.046567045 -0.04741686 0.056446586
0.033423394 0.03402223 -0.059090137 0.04614741 -0.004507224 0.011742537 0.03144146 -0.00841591
-0.004156038 -0.023222234 -0.045956526 0.063138865 0.0019820991 0.044478785 0.05613209 -0.05641575
-0.033532146 -0.0015779163 0.00900096 -0.013267294 -0.01924661 0.044768527 -0.022271989 0.04013271
0.05558791 -0.018969823 0.0032806753 -0.052989252 -0.044978082 0.004345677 -0.044439204 0.01109782
-0.018736962 0.012910734 0.054745752 -0.018829908 0.029994331 0.030741038 -0.03517844 -0.011431095
0.04401627 -0.025158059 -0.032973718 0.021095606 0.02138078 -0.06314174 -0.04005333 -0.038768478
0.041167594 -0.04850927 -0.009321696 -0.05882274 -0.053297374 0.028842408 0.015929587 -0.05311261
00000000: a83a 16bd cb5b 35bd e5e0 853b 570e 5cbc
00000010: 6e2b 723d 0f97 6cbc 4ffd 16bd 5f83 6c3d
00000020: 538d c5bb f5d1 7bbd 5200 673d a4f3 673c
00000030: 24d7 08bd ce67 eebc b64a 373d cf30 d53a
00000040: fa6c 193d dde0 7bbd 0ab5 263d 1638 df3b
00000050: 0bd9 05bd 821b bf3b 33df 22bd 27d9 3b3c
00000060: df7f 03bd 4969 63bc 0dba e1b9 82e5 abbc
00000070: 6770 dc3c 5487 e0bb b4d4 473d 0307 2ebd
00000080: bfb8 d1bc a081 3e3d 6131 02bd 90ea 663c
00000090: 3ec0 84bd 275e 41bd 653e 603d 50be 2fbd
000000a0: 882e 07bd 1fd3 033d 9b40 1f3d 00a5 873c
000000b0: d853 2abd 9af6 5e3d e14b 3c3d c1cd 813d
000000c0: 61cd 763c b7b9 bdbc f700 33bd abb8 80bb
000000d0: bd11 893a ef9d c8bc ff1c d03c 2c14 0d3c
000000e0: 46e5 7f3c b1a8 f6bc c76b db3c 2473 f13c
000000f0: 6ff6 7f3d 7559 283d 42fe c1bc 1d68 363c
00000100: a8d2 2abd ca8d 9d3c 8b19 4c3c 3afb 743d
00000110: a791 c63c 38fb 893b a949 0fbc b442 81bd
00000120: aed6 d6bb 46cd 843d 8c98 04bd 8835 b3bc
00000130: cb41 50bd ddfa b63c b2b7 f9bc a941 c23c
00000140: 2b2d b23c 2b38 c2bc f9ed 25bd 3992 91bc
00000150: f84e 4ebd 9ddb 9c3c 0527 423d d3ae 4e3d
00000160: 9447 17bc 5449 81bd 2b4e 713d 0aa5 fa3c
00000170: 537d 313d 0ab8 6a3d 678e 333d 1f42 663b
00000180: f357 493d d9df 38bd ce0e 723b bd25 39bd
00000190: 098e 46bd 6b95 d83c 3723 49bd 93c8 663c
000001a0: ef0a e03c f257 193a a68f d73c dfb4 61bc
000001b0: 866b 663d 4b22 473d 481e 59bd 72a2 7a3d
000001c0: 5e9a d33c 2cf7 94bc 8462 39bd 5fc8 dfbc
000001d0: fe05 5cbd 624a 583d c3e6 0f3d 55b2 953c
000001e0: 6c51 09bc 66a7 3bbd 408c 22bd 634f 093c
000001f0: bb20 8fbc 8e03 633c cb77 98bc 2083 67bd
00000200: b928 49bd d763 8fba e0da 18bd 4f8c 763d
00000210: 0c32 3b3c bb88 51bc cc0b 9eba 9737 443d
00000220: 9505 6cbd 49d3 49bc e6bc 113c af57 6e3d
00000230: b237 f2bc 080a 20bd 6db0 db3c 4819 a4bc
00000240: c95b aa3b d9f2 e73c a5c2 ce3c 8cce 883c
00000250: dea0 77bd 4033 bdbb e85f 163b d01a 33bd
00000260: 3ca5 403d 1995 2cbb 2e89 653d 953d 3a3d
00000270: 51ce 73bd c98d 87bd ac69 4e3d 43bf d53c
00000280: 17c3 27bd 1155 9d3b c7e6 bb3c 8233 2f3c
00000290: 9a35 1cbd 3927 393d fa55 cfbc 228b bebc
000002a0: 15ff 6a3d e720 053a f2e6 80bd 40c2 6dbd
000002b0: 3ab5 6bbd f046 263c b1d8 56bd d01a 503b
000002c0: f234 ba3c caa8 313d 706f 5abb 0725 ea3c
000002d0: fa46 a9bc c1f1 ca3c f8c2 50bd ba85 0ebd
000002e0: a9c5 79bd 7266 3a3d 0ef2 7bbd dda2 f7bc
000002f0: 0d1b c2bb 9715 b0bc d61c f53c 7583 c7bb
00000300: 67f2 823d 23ae 683d af6b f83b f093 5dbc
00000310: 6e0a 19bd 16bd 3e3d 2e38 42bd 8934 673d
00000320: f8e6 083d e55a 0b3d 8008 72bd 1105 3d3d
00000330: 56b1 93bb c563 403c c3c8 003d e3e2 09bc
00000340: 602f 88bb 8e3c bebc e93c 3cbd f34e 813d
00000350: 1be6 013b 632f 363d c3ea 653d 3414 67bd
00000360: 0159 09bd 16d2 ceba c378 133c 105f 59bc
00000370: 11ab 9dbc 345f 373d bf73 b6bc 3262 243d
00000380: 26b0 633d 9a66 9bbc 9900 573b 420b 59bd
00000390: f03a 38bd 2e66 8e3b e205 36bd a1d3 353c
000003a0: 427e 99bc 8b87 533c 153d 603d 2e41 9abc
000003b0: acb6 f53c a1d4 fb3c 4517 10bd 7d49 3bbc
000003c0: 684a 343d 4618 cebc 730f 07bd b1d0 ac3c
000003d0: bf26 af3c 7550 81bd f60e 24bd b2cb 1ebd
000003e0: 5a9f 283d a8b1 46bd 07ba 18bc 1df0 70bd
000003f0: 594e 5abd ea46 ec3c c47e 823c 9c8c 59bd

network.4.bias f4 [128]
-0.044641957 0.022798631 -0.021048736 -0.032506745 -0.040874552 -0.022385512 0.04981132 0.039041046
-0.029552745 -0.021638406 0.056516647 0.015640344 0.0032544814 -0.010559591 -0.046918496 0.029575821
0.037223123 -0.0472038 0.051522914 0.053910673 0.0023774249 0.046095073 0.0029563366 -0.0042159506
0.040147867 0.015666476 0.051935732 0.035977803 -0.0025611944 -0.026431102 0.04405234 0.062492166
0.037014116 0.02741543 0.017649747 -0.03616316 0.050226714 -0.067292914 0.036620926 0.032721777
0.032364763 -0.011127713 0.0006327777 -0.012887294 -0.015555192 0.027651582 0.008555599 -0.03309023
-0.0309186 0.021120554 -0.056393676 -0.015000343 -0.009596341 0.020658635 0.047307074 0.028790291
0.0136495745 -0.016536359 0.009442385 -0.039424874 -0.026203722 0.04138415 0.027873743 0.020040276
-0.026673304 -0.0073414394 -0.018603913 -0.04797261 -0.06106568 0.06276917 -0.025737964 -0.064379476
-0.060165796 -0.052434843 0.004254792 0.010831317 -0.0147817945 -0.053345613 0.017357841 0.030117659
0.040506378 0.049727894 0.018313223 -0.00424238 0.06744058 -0.025735531 0.01277523 -0.00019122522
-0.0057860264 -0.0152039565 -0.00023707852 0.0187433 -0.02737663 -0.023511758 0.055265978 -0.012767553
0.055961825 0.009256275 0.051068105 -0.053348504 0.07060092 -0.018856458 -0.041724335 0.02798405
-0.035814315 0.048079554 -0.00024112029 -0.063969366 0.03308762 -0.0043163686 -0.05359079 0.04032452
-0.040595327 0.0049894024 0.044762317 0.048826806 0.052447576 -0.041351393 -0.027522285 0.012094006
0.018507965 -0.011211618 0.059686758 -0.0037204197 0.0052396953 -0.026424913 -0.00113421 -0.021352405
00000000: 7cda 36bd 32c4 ba3c 666e acbc cb25 05bd
00000010: 136c 27bd d261 b7bc f406 4c3d 81e9 1f3d
00000020: 9918 f2bc 0743 b1bc 007e 673d 2e20 803c
00000030: 2349 553b 2302 2dbc 9c2d 40bd fe48 f23c
00000040: 4677 183d c658 41bd b109 533d 70d1 5c3d
00000050: 92ce 1b3b 30ce 3c3d 19bf 413b f525 8abb
00000060: 1772 243d fb56 803c 90ba 543d 765d 133d
00000070: b6d9 27bb 0a86 d8bc 3a70 343d c9f7 7f3d
00000080: 1d9c 173d 5396 e03c 3496 903c d21f 14bd
00000090: 87ba 4d3d ded0 89bd d3ff 153d 4507 063d
000000a0: ea90 043d 0351 36bc fee0 253a 3b25 53bc
000000b0: 34db 7ebc 9285 e23c c82c 0c3c 9f89 07bd
000000c0: 0149 fdbc 0305 ad3c 0efd 66bd 00c4 75bc
000000d0: f939 1dbc 4c3c a93c 10c5 413d 9ed9 eb3c
000000e0: 77a2 5f3c 4277 87bc 3cb4 1a3c fa7b 21bd
000000f0: 30a9 d6bc 6d82 293d 7a57 e43c 812b a43c
00000100: f981 dabc 7590 f0bb 3c67 98bc ed7e 44bd
00000110: 0220 7abd 1f8d 803d 6cd8 d2bc 63d9 83bd
00000120: 6970 76bd ebc5 56bd c86b 8b3b d675 313c
00000130: 572f 72bc ee80 5abd 0832 8e3c 4fb9 f63c
00000140: 04ea 253d 7aaf 4b3d 9d05 963c aa03 8bbb
00000150: 491e 8a3d 52d3 d2bc 334f 513c a183 48b9
00000160: b598 bdbb 041a 79bc 4898 78b9 8d8b 993c
00000170: f444 e0bc bb9b c0bc 945e 623d 002f 51bc
00000180: 3a38 653d a2a7 173c ca2c 513d f683 5abd
00000190: 3797 903d dc78 9abc 23e7 2abd ce3e e53c
000001a0: 08b2 12bd 11ef 443d 3cd5 7cb9 5f02 83bd
000001b0: e286 073d 5370 8dbb 0482 5bbd 532b 253d
000001c0: 4947 26bd 247e a33b b158 373d 9efe 473d
000001d0: 45d3 563d 1460 29bd 6a76 e1bc f025 463c
000001e0: 049e 973c efb0 37bc 1a7a 743d 49d2 73bb
000001f0: c0b1 ab3b 0f79 d8bc c6a9 94ba 3deb aebc

network.6.weight f4 [128]
0.99804413 1.0053295 1.0030202 1.0130917 0.99434465 1.0011736 1.009513 0.9992633
0.9990991 1.0018677 1.0125229 1.0008929 0.9963942 0.9958018 0.99663717 1.0081528
0.98768663 0.99713117 1.0080009 0.98880553 0.9982394 1.0026224 1.0044373 0.99683833
0.9991266 1.008003 0.99273163 0.9906614 0.99537164 0.9964304 1.0042827 0.9987039
1.0040833 1.0012723 0.99758947 1.00383 0.9967477 1.0018084 0.9996719 0.99536204
1.0030962 1.0070713 0.99514115 0.990596 1.0040908 0.9966745 0.99398667 0.99246466
0.99082524 1.0062629 1.0047374 1.0055768 1.0024272 0.99843 1.0017766 0.99800366
0.99380755 1.0015318 1.0090375 0.993009 0.9957533 0.99521255 1.0031257 0.9982454
1.0085478 0.99580157 1.0026828 0.99681234 1.0030828 0.9978249 1.0016395 0.9960491
0.9975727 1.0068682 1.0040843 1.0089643 1.0041442 1.003382 0.9905742 1.0042924
1.0007408 0.9924535 0.9950685 1.0018902 1.0035782 1.0046685 1.0004984 0.99597144
1.0066452 0.9878089 1.0050728 1.0105392 1.0035561 0.99388784 0.99282897 1.0002439
0.99551064 1.0068768 0.9933552 0.9925875 0.99091214 1.0068508 1.0001127 1.0013715
1.0029768 1.001608 1.0018739 1.0047485 1.0015326 0.99690837 0.99589026 1.0093706
0.99895024 1.0024707 1.0025632 1.000683 0.9984543 0.9999616 0.9946115 0.99577045
1.0124233 1.01099 0.9995634 1.0039761 0.9941143 0.99895513 1.0042237 0.996702
00000000: d27f 7f3f a3ae 803f f762 803f fdac 813f
00000010: 5f8d 7e3f 7526 803f b937 813f b8cf 7f3f
00000020: f5c4 7f3f 333d 803f 5a9a 813f 421d 803f
00000030: b113 7f3f deec 7e3f 9d23 7f3f 270b 813f
00000040: 08d9 7c3f fd43 7f3f 2c06 813f 5c22 7d3f
00000050: 9e8c 7f3f ee55 803f 6791 803f cc30 7f3f
00000060: c3c6 7f3f 3e06 813f a923 7e3f fc9b 7d3f
00000070: add0 7e3f 1016 7f3f 568c 803f 0fab 7f3f
00000080: cd85 803f b129 803f 0662 7f3f 807d 803f
00000090: db2a 7f3f 423b 803f 7fea 7f3f 0cd0 7e3f
000000a0: 7565 803f b6e7 803f 92c1 7e3f b397 7d3f
000000b0: 0c86 803f 0f26 7f3f e975 7e3f 2a12 7e3f
000000c0: b9a6 7d3f 39cd 803f 3c9b 803f beb6 803f
000000d0: 894f 803f 1c99 7f3f 373a 803f 2b7d 7f3f
000000e0: 2c6a 7e3f 3232 803f 2428 813f d635 7e3f
000000f0: b0e9 7e3f 40c6 7e3f 6c66 803f 038d 7f3f
00000100: 1818 813f daec 7e3f e957 803f 182f 7f3f
00000110: 0465 803f 7471 7f3f b935 803f 13fd 7e3f
00000120: ed60 7f3f 0fe1 803f d685 803f be25 813f
00000130: cc87 803f d26e 803f 4596 7d3f a78c 803f
00000140: 4618 803f 6f11 7e3f cfbc 7e3f f03d 803f
00000150: 4075 803f fa98 803f 5510 803f fcf7 7e3f
00000160: c0d9 803f 0be1 7c3f 3aa6 803f 5959 813f
00000170: 8774 803f 6f6f 7e3f 0a2a 7e3f fe07 803f
00000180: c9d9 7e3f 57e1 803f 874c 7e3f 371a 7e3f
00000190: 6bac 7d3f 7de0 803f b103 803f f12c 803f
000001a0: 8b61 803f b134 803f 673d 803f 999b 803f
000001b0: 3832 803f 6335 7f3f aaf2 7e3f 0e33 813f
000001c0: 34bb 7f3f f650 803f fe53 803f 6116 803f
000001d0: b39a 7f3f 7cfd 7f3f dc9e 7e3f d0ea 7e3f
000001e0: 1697 813f 1f68 813f 63e3 7f3f 4a82 803f
000001f0: 467e 7e3f 86bb 7f3f 678a 803f dd27 7f3f
