models/10s30s_next_day_mlp_fold5.pth (torch, 474167 bytes, 19 tensors)

network.0.weight f4 [256, 286]
000000 2b 69 fb bb 5c 1d 87 bc f9 79 39 bd f7 a7 4e bd
       -0.007672449 -0.016493492 -0.045282338 -0.050453153
000010 95 fd bc bc b6 f4 47 bb e1 a9 38 3d b6 07 08 3d
       -0.023070136 -0.003051085 0.045083884 0.03321048
000020 e5 11 62 3d 73 47 1a ba 76 4d 0f bd 45 81 10 3d
       0.055192847 -0.00058852806 -0.034985982 0.03527953
000030 2d c9 39 bd c2 c8 ce bb cc d1 0d 3d 7f 8b 77 3c
       -0.04535787 -0.0063105533 0.034623906 0.015108942
000040 49 8a de bc aa 74 15 3d 88 45 1f 3d 39 35 08 bc
       -0.027165549 0.036488213 0.03888467 -0.0083134705
000050 0c 0a 20 3d cf 51 8b 3b 3a 24 39 bc 26 d3 30 bd
       0.03907208 0.0042516957 -0.011300141 -0.043170117
000060 5f 76 5d 3d 9c 07 63 bd 6a a3 54 3d b2 2c e1 3c
       0.054067966 -0.05542718 0.051913656 0.027487133
000070 69 4a 2e 3d 9d 2e 14 3d ba 93 8f 3c 4d 4a fc bc
       0.04255143 0.036177266 0.017526496 -0.030797148
000080 e3 be d0 bc 21 72 49 bd 31 ed 11 3d 78 ee 8e bd
       -0.025481647 -0.049181107 0.035626594 -0.06979078
000090 2c 6b 16 bd 86 e2 6a ba f3 61 1c bb 98 a8 7a bd
       -0.0367233 -0.0008960146 -0.0023862093 -0.06119594
0000a0 6f d8 09 bd 8e 50 64 3c a7 3a ee 3c 42 ab 01 bd
       -0.033653673 0.013935221 0.029080702 -0.031657465
0000b0 d4 f9 38 3d a6 c3 b8 bc ff 9b ed bc 97 10 fd 3c
       0.04516013 -0.02255423 -0.029005049 0.0308917
0000c0 42 57 4a bd a8 40 09 bd dd d4 75 bd e7 26 bc ba
       -0.04939962 -0.033508927 -0.060017455 -0.0014354856
0000d0 46 43 63 bd e6 4c 15 3b 2f 74 3f bd 15 2e 19 3d
       -0.05548408 0.002278143 -0.04674166 0.037397463
0000e0 3a f5 1f 3d b3 e0 59 bb bb ba 6a bd 2c f4 38 bd
       0.039052226 -0.0033245503 -0.057306986 -0.045154735
0000f0 59 1d df bc 92 df b4 3c d7 ec db 3c 03 b3 18 bd
       -0.027235674 0.022079263 0.026846332 -0.037280094
000100 ce d3 fc bb e1 3a 97 bc 39 c9 8a bc 45 8e 35 3d
       -0.007715679 -0.018460693 -0.016941654 0.044325132
000110 93 47 de bc d6 10 6c 3d 13 cb 84 3c d1 ba 1e 3d
       -0.027133739 0.057633244 0.016210115 0.03875238
000120 69 6e 0a 3d 34 a9 66 3d 5f e9 c2 3c 73 82 01 3c
       0.0337967 0.05631371 0.02379292 0.007904637
000130 f8 3b e8 bc 64 f6 9d 3c ea 31 5e 3d 94 6a 0a 3c
       -0.028348908 0.019282527 0.05424682 0.008448262
000140 4a f2 46 bc 13 84 d7 3c ad ba 0e 3d ac c5 06 bd
       -0.012142727 0.026308095 0.034845997 -0.03290336
000150 c3 1f 74 3c 90 99 be bb 2e 38 a1 3c c4 9c 0f bd
       0.014900151 -0.005816646 0.019680109 -0.035061613
000160 3a 31 24 bd a6 0a 81 bc 73 42 0a 3d b5 39 9d bc
       -0.04008601 -0.015752148 0.033754777 -0.019192556
000170 9a b4 21 3d ca a6 00 3d 49 91 38 bd a9 b5 3f bb
       0.039478876 0.031409062 -0.04506043 -0.0029252565
000180 13 e3 2b 3d 1b 91 a7 3d 8b f3 39 3d bd 04 ea bc
       0.0419646 0.081819735 0.045398276 -0.028566713
000190 c0 1a 83 3d 88 62 83 3c 89 05 a6 3c e2 03 6b bd
       0.064015865 0.016038194 0.020266311 -0.05737675
0001a0 af db 70 bc 6d 72 df 3b 5f 18 84 3c c0 d8 b2 3a
       -0.014700814 0.0068190605 0.016124902 0.0013644919
0001b0 c6 c3 77 bd 0c 6d a9 3c a7 17 58 bb 51 41 4d 3c
       -0.06048944 0.02068188 -0.0032973082 0.01252778
0001c0 d4 a9 85 bc d1 3a e8 3c fe e7 9c bc b8 cb 6f 3c
       -0.016316332 0.028348358 -0.019153591 0.014635973
0001d0 d3 ff 11 bd 1b c7 3b 3d 27 3b 87 3d 0b 48 05 bd
       -0.035644364 0.04584418 0.06603079 -0.03253941
0001e0 32 3b 15 3c 84 d7 7d 3b c5 70 07 3d e5 87 49 bd
       0.009108352 0.0038733194 0.03306653 -0.049201865
0001f0 45 01 e8 3c ad 8d 44 bd 7b 7d 32 bd 1c d8 00 bd
       0.028320918 -0.047986675 -0.0435767 -0.031456098
000200 a4 75 f2 bc 19 c5 c2 3c e5 e4 ff bc 35 92 7e 3a
       -0.029597111 0.023775624 -0.031237075 0.00097111176
000210 a1 c8 6a 3c b5 e2 48 3b 24 93 1a 3d 67 99 9f bc
       0.01433006 0.0030652706 0.03773798 -0.019482328
000220 b2 f9 48 3d c5 4c c4 3b da 3a 35 3d 2e cf 6a bd
       0.049066253 0.005990597 0.04424558 -0.05732649
000230 57 60 48 bd b7 ad 73 bd 0e 35 7e bd b4 e5 69 bd
       -0.04892 -0.05949184 -0.062062316 -0.057103828
000240 fd c1 1b 3d 40 06 fd bc 52 88 7a bc 4c b0 16 bb
       0.0380268 -0.03088677 -0.01529129 -0.0022993265
000250 68 55 09 bc 58 21 e3 bc d8 6f 19 3d 58 ef 13 3d
       -0.008382179 -0.02772586 0.037460178 0.036116928
000260 df 01 0b bc a3 5e 3f bd bb 01 6e bd 96 6d 15 3d
       -0.008484333 -0.046721112 -0.05810712 0.036481462
000270 28 95 44 3d 52 98 8d 3c 4a cd 17 bd 3f 13 aa 3c
       0.04799381 0.017284546 -0.037061013 0.02076113
000280 87 3d cc ba 68 80 21 3d ab ba 31 bd 0c d5 71 3d
       -0.0015582301 0.0394291 -0.04339091 0.059041068
000290 03 5d 02 3c f3 dc ee 3c 30 85 2c 3d 87 4e f8 3b
       0.007956746 0.029158091 0.042119205 0.0075777206
0002a0 ae 2b e3 bc 58 a2 58 bc 36 e2 ea bb 8b fc 37 3d
       -0.027730789 -0.0132222995 -0.0071680797 0.044918578
0002b0 cf 18 2c bd 1d 06 52 bd 3c 45 3e bd 73 87 8f 3d
       -0.042015847 -0.05127536 -0.046452746 0.07008257
0002c0 25 65 0d bd 6f 85 20 bd d0 51 24 3d f1 08 ec bc
       -0.034520287 -0.039189752 0.040117085 -0.028812857
0002d0 3e 19 1e 3d bb 7e 4e bd ce 20 98 3c 1e 11 7f 3c
       0.03859829 -0.05041383 0.01857033 0.015568046
0002e0 30 d0 06 3d af fd 0c 3d e5 59 24 3d e9 05 5b 3d
       0.032913387 0.03442162 0.040124793 0.053472433
0002f0 14 5c 7d bc e5 90 6a 3d a0 41 58 ba c7 67 42 bd
       -0.015463848 0.05726709 -0.0008249525 -0.04746225
000300 03 43 92 ba b7 0a 86 3d 77 44 a4 ba d5 b2 fb bc
       -0.0011158887 0.065450124 -0.0012532611 -0.030724922
000310 88 dd 0d 3c 72 cc 7a bd 3f c1 49 bd df c5 33 3d
       0.008658774 -0.06123013 -0.04925656 0.043889876
000320 fd 23 68 3d 84 83 f3 bb ed a5 6a bc 36 a8 8c 3b
       0.056674946 -0.0074314494 -0.014321786 0.0042925132
000330 65 e5 24 bd 7e 6f ce ba 9a b7 80 3d 55 78 01 3c
       -0.04025783 -0.001574978 0.06285019 0.007902225
000340 18 c1 46 3c 9d 81 82 bd e8 b6 82 bc fb 34 77 bc
       0.012130998 -0.06372378 -0.015956357 -0.015088315
000350 d9 a3 90 bc 23 f5 b4 bc 49 af ac bc f2 55 04 39
       -0.017656254 -0.022089547 -0.021079676 0.00012620518
000360 ed 1c 69 3c a0 e9 32 bd 94 99 c9 bc a4 c1 3b bd
       0.014228088 -0.043679833 -0.024609365 -0.045838967
000370 fc 54 2a bd 1a 5c 1a 3d 7a 23 0c bd eb 21 86 bb
       -0.041584954 0.03768549 -0.03421352 -0.004093399
000380 96 35 61 3d 0a 7e 36 bd 74 57 a9 3c 80 c5 38 3d
       0.054982744 -0.044553794 0.020671584 0.045110226
000390 01 9b b9 3c cd 6a 2a 3c 0d e0 26 bd 85 df 11 bd
       0.02265692 0.01040144 -0.040741015 -0.035613555
0003a0 6a 66 8c 3d 94 3a 7b bb da 4a ca bc 4c ce bc bc
       0.068554714 -0.0038334476 -0.024693895 -0.023047589
0003b0 90 9c 0f bd 3a ed 29 bc 83 29 2c bb e9 e1 00 3d
       -0.03506142 -0.010371501 -0.002626986 0.031465445
0003c0 10 14 11 bd 0a e0 e2 3c 13 93 09 bd fb 2c 4d bd
       -0.035419524 0.02769472 -0.033587527 -0.050091725
0003d0 23 49 e2 3c d7 28 27 3d 1d b3 c9 bc 91 fa 3f 3b
       0.027622765 0.040810432 -0.02462154 0.0029293636
0003e0 94 bf 5c bd 74 1a 77 bd 55 a0 5a bd 42 95 39 3d
       -0.05389364 -0.060327962 -0.05337556 0.04530836
0003f0 82 89 09 3d ad b3 67 bc e7 a2 28 bd eb 36 8a bc
       0.033578403 -0.014141959 -0.04117098 -0.01687189

network.0.bias f4 [256]
000000 8c 8f ad 3c 9f 8d f6 3c 60 60 61 3d f7 a5 f4 bc
       0.021186613 0.030096827 0.05502355 -0.029864294
000010 9f 5d 43 ba a7 d4 f6 bc e8 e5 78 3c 76 4a 22 3d
       -0.00074526103 -0.030130697 0.015191533 0.039621793
000020 fa c9 f2 3a 46 5e 14 bd 19 7c 26 bd d0 bc 5c bd
       0.0018523328 -0.03622272 -0.040645692 -0.053891003
000030 d5 4e 6b 3c 34 a0 ab bc eb a2 49 3d f2 b5 f8 3a
       0.014362057 -0.020950414 0.049227636 0.0018975122
000040 52 0a 6c bd 6e 4f 66 bd e2 7d 01 bd eb 4f fd 3b
       -0.05762703 -0.056228094 -0.03161419 0.007730474
000050 3b e3 3c bd 16 65 6a 3d 0f 58 80 bc 7d f0 d4 3c
       -0.04611514 0.05722531 -0.01566699 0.02599358
000060 76 b2 04 bc 29 e6 0a bd 68 5e 0d 3d 3d fb df bb
       -0.008099189 -0.033910904 0.03451386 -0.00683537
000070 f8 9a 24 3b cb b0 06 bd 8a ab f0 bb c0 d6 ab 3c
       0.0025116783 -0.032883447 -0.007344668 0.020976424
000080 78 a9 4d 3c 96 79 3e bd b2 f4 00 bd 95 36 55 3d
       0.0125526115 -0.046502672 -0.03148336 0.052054007
000090 5b 04 45 3d 8d 6f 19 3d f6 99 b7 bc 70 1e 4b 3d
       0.048099857 0.0374599 -0.022412281 0.049589574
0000a0 8e 2b 0d 3d f6 2d 08 3a 96 5d be bc be fa c2 3c
       0.034465365 0.0005194837 -0.023237985 0.023801204
0000b0 54 0d 34 bd 23 19 23 3c 66 df 28 bd 48 f8 2d 3d
       -0.043958023 0.0099547235 -0.041228674 0.042473108
0000c0 da 2c 07 3c 99 98 27 3d 76 ab b0 bc b8 c8 0e 3d
       0.00825044 0.040917013 -0.021566134 0.03485939
0000d0 4f de 4d 3d d7 d7 ef 3c c5 1c 54 3d d7 c3 ad 3c
       0.050260838 0.029277725 0.05178525 0.021211548
0000e0 de ba 3c 3d a6 71 92 bb 0f b4 e6 bc 60 6f 22 3d
       0.046076648 -0.0044691144 -0.02816203 0.039656997
0000f0 50 e5 95 bc 91 82 16 3d 72 4e f9 3b 0d e7 6a 3d
       -0.018297821 0.03674561 0.0076082284 0.057349253
000100 73 e4 e6 3c 66 36 87 3d 86 b3 fa 3b 9c cd 4f 3c
       0.028185105 0.066021726 0.0076507954 0.012683298
000110 ce 04 32 bd e6 7a 00 3d 77 7d 1e bc aa 0c 8e ba
       -0.043461613 0.031367205 -0.009673468 -0.0010837514
000120 43 3b a8 3c ff 63 c1 bc 44 64 30 bc fb 65 77 39
       0.02053607 -0.023607252 -0.010766093 0.00023593746
000130 0f 43 c3 bb d5 72 10 ba 2d b0 20 3d 85 ee 36 bd
       -0.0059589217 -0.00055102754 0.039230514 -0.044661064
000140 f0 31 f8 bc 1e 3f ac 3c 46 f5 8c bc 76 32 a5 3c
       -0.03029725 0.02102619 -0.0172068 0.020165663
000150 0a 6d c2 3c f5 e5 5c 3d d6 6d f7 bb 3c 10 65 bd
       0.023733635 0.05393024 -0.0075509353 -0.055923685
000160 36 85 6b bd e6 51 b2 3c ed 0c 47 3d db 01 9b 3c
       -0.057500087 0.021767568 0.04859631 0.018921783
000170 16 ad db 3c 7c c4 e5 3c 94 66 ba bb 91 d9 1c 3c
       0.026815932 0.028047793 -0.005688498 0.009573356
000180 19 5d fe 3b 53 e3 3b 3d 5d f1 49 3d 57 9c cd ba
       0.007762563 0.04587109 0.049302448 -0.0015686852
000190 73 7a 82 bd 1c 96 09 bd 28 5a ac 3c 76 39 7c 3d
       -0.063710116 -0.03359042 0.021039084 0.061578237
0001a0 a5 ba 14 bd 57 54 02 bc f4 47 34 bb 20 7c 22 3d
       -0.03631081 -0.0079546785 -0.0027508708 0.039669156
0001b0 7e 39 23 3d db 62 1c 3d db 96 c1 bc c3 de 07 3d
       0.03984975 0.038180213 -0.023631504 0.033171427
0001c0 70 e1 b8 bb 31 ef 4d bd 9b 91 58 3d 68 a7 40 bd
       -0.0056421086 -0.05027694 0.052873235 -0.04703465
0001d0 5f f5 9a bc 28 f5 b7 bc 6a a9 91 bd 5f 36 88 3d
       -0.01891583 -0.022455767 -0.07112391 0.066509955
0001e0 5f a0 43 bd 7d ad 27 bd f2 a2 2e bd 33 4b e7 bc
       -0.047760364 -0.040936936 -0.042635866 -0.0282341
0001f0 4e 45 4c 3d ae 6b d5 3b ad 71 6b 3d e0 f5 84 bb
       0.04987078 0.0065130806 0.057481457 -0.004057631
000200 50 72 34 bd 9b 2d 2e 3d be ac b1 bc 13 3d d3 3c
       -0.04405433 0.04252396 -0.021688815 0.025785958
000210 fc 44 1d 3d e1 48 85 3c 0c f0 f7 3c ae 78 39 3c
       0.038395867 0.016270103 0.03026583 0.011320276
000220 58 dd 76 3d 84 5a 49 3d aa b2 d5 3c af 59 71 bb
       0.060269684 0.049158588 0.02608617 -0.0036827137
000230 f5 3f 50 3d 92 17 cd bc 28 f6 d3 bc f0 62 aa bc
       0.050842244 -0.025035653 -0.025874212 -0.02079913
000240 4a 8a 45 3d 5a ff 37 bb 0c 83 6c bd ba 7b 60 3b
       0.048227586 -0.0028075785 -0.057742164 0.0034253434
000250 06 70 18 3d 08 68 0c bc 5c f9 23 3d 01 a1 8d 3c
       0.03721621 -0.008569725 0.04003273 0.017288687
000260 89 41 ea bc 47 3b d2 bb e9 90 6a bd a8 b4 7e bb
       -0.028595703 -0.006415758 -0.057267103 -0.0038865004
000270 5c 63 25 3c 4b e5 c4 b8 44 95 85 3d 00 8a 1d bc
       0.01009449 -9.3887174e-05 0.06522611 -0.009615421
000280 79 be 49 3d ef 81 53 3d e4 9d 1c 3d 45 4a 2f bc
       0.049253915 0.051637586 0.038236514 -0.01069886
000290 12 9f 0a bd 3d 57 74 3d f5 90 77 3c 5e 05 13 3d
       -0.033843108 0.05965351 0.015110244 0.03589379
0002a0 66 5d c6 3c 12 a2 75 bd f5 b4 da 3a 33 79 29 bc
       0.024214458 -0.059969015 0.001668601 -0.010343838
0002b0 10 9f 41 3d fb 22 9f bb 7d 2f 93 3b 26 44 b8 3b
       0.047270834 -0.004856465 0.004491745 0.0056233583
0002c0 40 4d 88 3d c5 48 1b 3d 5e 73 49 bd 4f 0f 53 bc
       0.06655359 0.037911195 -0.04918229 -0.012882068
0002d0 a9 7a 14 bd fe 5e 31 3d 08 0f 36 bd f2 30 d3 3c
       -0.03624979 0.043303482 -0.04444793 0.025780175
0002e0 14 cc 5d bc a6 a1 27 3d 09 0a 54 3c 7d 8b 3d bd
       -0.013537426 0.040925644 0.012941846 -0.046275605
0002f0 b0 ae 5d 3c d9 1e dd 3c f8 88 fc bc 3a 28 30 bd
       0.013530418 0.026992248 -0.03082703 -0.043007113
000300 cb 3b bf bc b0 3e 30 bc 0b 7e f9 3c 28 02 4b bd
       -0.023343941 -0.010757133 0.03045561 -0.049562603
000310 7a ad e7 bc e1 14 74 3d 6c 37 6b bd 4a a9 af bc
       -0.028280962 0.059590224 -0.0574259 -0.021443028
000320 04 21 2f bc 96 f4 15 3d a3 74 aa bc 65 82 c7 bb
       -0.010689024 0.03661021 -0.02080757 -0.0060885423
000330 02 cf 2b bb 3b ae 89 3c 65 49 4f bd a1 ec 10 bc
       -0.0026215916 0.016806712 -0.050607104 -0.008845479
000340 36 49 27 ba e1 26 09 bd 90 28 38 bd ce c0 62 3d
       -0.0006381454 -0.033484343 -0.04496056 0.055359654
000350 d1 a6 b3 3b d4 d6 4d bd 99 b7 83 3d 99 dd 2f 3d
       0.0054825325 -0.050253704 0.06431503 0.04293594
000360 31 12 4f bc 51 b2 41 3b 27 eb 0c 3d bc 15 db bc
       -0.0126386145 0.0029555748 0.034403946 -0.026743762
000370 06 d4 11 3c 9e 5d 3c 3d 8f 40 6a 3d c2 ee 22 bd
       0.008900648 0.045987718 0.057190474 -0.03977848
000380 a2 5b 62 bd 7a 2b a9 3b 2b da f0 3c b0 76 fa bc
       -0.05526317 0.0051626535 0.029400906 -0.030574173
000390 19 31 07 3c fb 78 fc bc cd 11 08 bd 81 f0 7b bd
       0.008251452 -0.030819407 -0.0332201 -0.06150866
0003a0 c4 9b 1d bd d3 f4 9c 3c 24 aa 19 bd b1 e7 1b 3c
       -0.038478628 0.01915971 -0.037515774 0.009515689
0003b0 30 09 71 bd 32 7f 66 3c 91 df 8b bd 15 e8 3b bd
       -0.058846653 0.014068412 -0.06829751 -0.045875628
0003c0 65 92 09 3a 42 19 96 bb 5f a0 59 bd 65 38 35 3d
       0.000524795 -0.0045806477 -0.053131457 0.044243235
0003d0 52 82 09 bd b5 10 7a bc f8 2b d8 bc 9f ca 9a 3c
       -0.03357155 -0.015262772 -0.026388153 0.018895445
0003e0 2b 10 8a bd 56 fb b1 3c 96 07 04 bd ff 23 31 39
       -0.06741365 0.021726292 -0.032233797 0.00016893445
0003f0 f7 00 87 bc 67 4a 63 3d c0 e4 1a 3d a3 fd 00 bd
       -0.016479952 0.055490877 0.03781581 -0.031491887

network.2.weight f4 [256]
000000 58 4d 81 3f c9 97 81 3f 47 04 80 3f eb ef 7e 3f
       1.0101728 1.0124446 1.0001305 0.99584836
000010 50 e2 7f 3f 35 74 80 3f f5 b4 7e 3f cd 84 7f 3f
       0.999547 1.0035464 0.9949487 0.9981201
000020 3d 4e 80 3f bf 07 7e 3f b4 52 80 3f d2 a8 7c 3f
       1.0023876 0.9923057 1.0025239 0.986951
000030 43 ea 7d 3f 46 16 7f 3f 1e 6d 82 3f 53 a2 81 3f
       0.9918558 0.9964336 1.018955 1.0127662
000040 54 0b 81 3f 6f f4 7c 3f 5e e2 80 3f db 05 7e 3f
       1.0081582 0.98810476 1.0069082 0.99227685
000050 48 71 80 3f 1b 7f 81 3f 8e ff 7e 3f 2e 19 81 3f
       1.0034571 1.0116915 0.99608696 1.0085809
000060 49 a7 81 3f 51 b4 7e 3f 1a 91 7e 3f 61 ea 7b 3f
       1.0129176 0.9949389 0.9944016 0.9840451
000070 81 0f 81 3f f3 43 80 3f b8 a5 7f 3f 40 14 80 3f
       1.0082856 1.0020736 0.9986224 1.000618
000080 bf 75 81 3f 86 63 81 3f a7 ff 81 3f cb b2 7c 3f
       1.0114058 1.0108497 1.0156144 0.98710316
000090 9d 3f 80 3f 06 9b 7e 3f 78 e8 7d 3f 83 2d 81 3f
       1.0019413 0.99455297 0.99182844 1.0092014
0000a0 81 b1 7f 3f 60 af 80 3f 43 ad 7c 3f 2e 1c 82 3f
       0.99880224 1.005352 0.98701876 1.016485
0000b0 72 f7 81 3f 90 b9 7f 3f b2 8a 7c 3f 40 d0 7b 3f
       1.0153639 0.9989252 0.9864913 0.9836464
0000c0 83 a0 7e 3f 71 c9 80 3f 8e 74 80 3f 6b 4c 80 3f
       0.9946367 1.0061475 1.003557 1.0023321
0000d0 6a 32 81 3f ee 7a 81 3f 69 2e 81 3f 90 46 80 3f
       1.009351 1.011564 1.0092288 1.0021534
0000e0 cb 55 80 3f 13 3a 7f 3f e5 3a 7f 3f 2e 15 82 3f
       1.0026182 0.9969799 0.9969924 1.0162714
0000f0 35 4a 80 3f 71 42 7e 3f 89 fe 7d 3f e4 d0 82 3f
       1.0022646 0.9932013 0.99216515 1.0219998
000100 3e 6c 7e 3f c5 b0 82 3f 4f 98 80 3f 1a 12 7f 3f
       0.99383914 1.0210196 1.0046481 0.99636996
000110 b4 36 7c 3f e5 69 80 3f ec 4a 7e 3f 9f 74 80 3f
       0.9852097 1.0032316 0.9933307 1.003559
000120 1f 48 80 3f 03 3f 7f 3f d1 1e 83 3f c6 db 81 3f
       1.002201 0.99705523 1.024378 1.0145195
000130 65 a9 80 3f b1 b0 80 3f df ab 80 3f 29 41 7f 3f
       1.0051695 1.0053922 1.0052451 0.997088
000140 25 3b 81 3f 39 9c 7f 3f dd 8f 7e 3f 92 45 80 3f
       1.0096174 0.9984775 0.9943827 1.0021231
000150 74 ac 7f 3f af 3e 81 3f ff 59 80 3f c2 69 81 3f
       0.9987252 1.0097255 1.0027465 1.01104
000160 a3 34 80 3f c6 8b 80 3f 52 77 7d 3f fc b4 81 3f
       1.0016063 1.0042655 0.99010193 1.0133357
000170 43 53 7b 3f 86 e0 7f 3f fe e6 7d 3f f4 85 82 3f
       0.9817392 0.9995197 0.9918059 1.0197129
000180 3d 80 7e 3f 0c 2b 7f 3f 4f f5 7f 3f 29 98 7d 3f
       0.99414426 0.9967506 0.99983686 0.990603
000190 79 96 80 3f 7b 21 7f 3f 59 bc 7c 3f 08 55 80 3f
       1.0045921 0.9966046 0.98724896 1.002595
0001a0 37 75 7e 3f 53 30 7d 3f ba 4b 80 3f 9d 10 7f 3f
       0.99397606 0.9890186 1.002311 0.99634725
0001b0 32 d4 80 3f 1f 89 80 3f 3e 75 80 3f 46 19 81 3f
       1.0064757 1.0041846 1.003578 1.0085838
0001c0 17 30 7e 3f d8 ee 7a 3f ad 06 7f 3f 8d ea 7e 3f
       0.9929213 0.98020697 0.9961956 0.99576646
0001d0 ea 4f 81 3f 15 5d 83 3f 83 5f 7c 3f 88 e3 7b 3f
       1.0102513 1.0262781 0.9858324 0.9839406
0001e0 c7 7f 7d 3f a8 fe 7e 3f 31 2a 7e 3f a8 96 80 3f
       0.990231 0.99607325 0.9928313 1.0045977
0001f0 4a d9 81 3f 1f 39 7e 3f a7 48 7a 3f c1 77 80 3f
       1.0144436 0.9930591 0.9776711 1.0036546
000200 5b 36 7f 3f 9f 21 80 3f 9a ee 7a 3f 02 e8 81 3f
       0.99692315 1.001026 0.9802033 1.0148928
000210 60 cb 7e 3f 69 27 7f 3f 28 68 80 3f fe 69 80 3f
       0.99529076 0.9966951 1.0031786 1.0032346
000220 d7 ec 7c 3f b3 cf 7e 3f f5 d0 80 3f 8b 35 7f 3f
       0.9879889 0.99535674 1.0063769 0.99691075
000230 35 c3 7c 3f 81 8c 7d 3f dd 61 7e 3f 5b a4 80 3f
       0.9873536 0.99042517 0.9936808 1.0050157
000240 a3 1a 7d 3f d0 d4 80 3f 08 3a 7f 3f da 2d 80 3f
       0.9886877 1.0064945 0.99697924 1.0013993
000250 13 25 80 3f 19 67 81 3f f1 a0 80 3f a0 3f 80 3f
       1.0011314 1.0109588 1.0049115 1.0019417
000260 e3 cd 7e 3f 12 6e 7e 3f 95 50 7e 3f a9 05 81 3f
       0.9953291 0.99386704 0.9934171 1.0079852
000270 0d 5c 82 3f d7 be 7e 3f 23 57 7b 3f 78 61 81 3f
       1.0184342 0.9950995 0.98179835 1.010787
000280 bc b3 7e 3f 85 00 81 3f 8b 9f 81 3f 2e 38 80 3f
       0.99493 1.0078284 1.0126814 1.0017145
000290 d9 ec 80 3f e8 a8 7d 3f 0a a0 7b 3f c7 99 80 3f
       1.007228 0.99085855 0.98291075 1.0046929
0002a0 15 dc 7f 3f c5 18 80 3f 40 04 7f 3f 31 e4 7e 3f
       0.99945194 1.0007559 0.9961586 0.9956694
0002b0 76 43 80 3f 8e 95 80 3f 03 d3 7d 3f 19 14 80 3f
       1.0020587 1.004564 0.99150103 1.0006133
0002c0 02 1b 81 3f b6 2c 7e 3f ad 32 7c 3f 5c 92 80 3f
       1.0086367 0.99286973 0.98514825 1.0044665
0002d0 af 6d 7e 3f 3e 7e 82 3f 13 b8 7f 3f 4c f6 7d 3f
       0.99386114 1.0194776 0.9989025 0.99203944
0002e0 8a 96 7d 3f 7b 8d 7f 3f e3 04 7f 3f 46 22 80 3f
       0.9905783 0.9982526 0.9961683 1.001046
0002f0 1b ee 7f 3f d9 0c 82 3f e8 1d 82 3f 0e 77 81 3f
       0.99972695 1.0160171 1.0165377 1.0114458
000300 96 cd 7c 3f 12 28 81 3f 02 4e 7c 3f 58 62 7f 3f
       0.987512 1.0090353 0.9855653 0.99759436
000310 8c 0a 7e 3f 74 2e 80 3f 0a de 7f 3f 6c b3 80 3f
       0.99234843 1.0014176 0.9994818 1.0054755
000320 cb be 7f 3f e1 52 81 3f b4 b6 80 3f e2 6f 80 3f
       0.999005 1.0103418 1.0055757 1.0034144
000330 af af 7e 3f b2 92 7f 3f 8b eb 7d 3f b3 37 7e 3f
       0.9948682 0.99833214 0.99187535 0.9930374
000340 74 0a 80 3f d0 b6 82 3f 75 ce 7f 3f b7 f0 7d 3f
       1.000319 1.021204 0.99924403 0.99195427
000350 2e 3b 81 3f b7 f7 7e 3f 93 c6 80 3f 96 b7 80 3f
       1.0096185 0.9959673 1.00606 1.0056026
000360 70 85 7d 3f 87 e8 80 3f fd 18 7e 3f 92 ff 81 3f
       0.99031734 1.0070962 0.9925688 1.0156119
000370 3a 78 7e 3f 09 5b 7a 3f d3 8e 81 3f 46 ae 7c 3f
       0.994022 0.9779516 1.0121711 0.9870342
000380 1f 1b 83 3f 7b 59 7e 3f b4 8e 81 3f 18 9b 80 3f
       1.0242652 0.99355286 1.0121675 1.0047331
000390 77 fe 7c 3f a0 7e 80 3f 8f a9 81 3f bc 1e 7e 3f
       0.9882578 1.0038643 1.012987 0.99265647
0003a0 d2 cc 7e 3f 24 b7 7d 3f 01 11 81 3f 98 54 7d 3f
       0.9953128 0.99107575 1.0083314 0.98957205
0003b0 57 73 7c 3f 47 85 81 3f 3b ff 80 3f 71 1e 81 3f
       0.98613495 1.0118798 1.007789 1.0087415
0003c0 ae ee 81 3f 1b a4 7e 3f e5 93 7e 3f 8a 46 80 3f
       1.0150964 0.99469155 0.9944442 1.0021527
0003d0 ce 76 80 3f da 9b 7b 3f 59 52 81 3f c7 fe 7a 3f
       1.0036256 0.98284686 1.0103256 0.9804501
0003e0 86 c3 7e 3f a3 c8 7c 3f 63 d8 7f 3f 72 5e 80 3f
       0.99517095 0.9874365 0.99939555 1.0028822
0003f0 98 0d 81 3f 8c e1 7e 3f 7a 2c 7c 3f 0a c7 80 3f
       1.0082273 0.9956291 0.98505366 1.0060742

network.2.bias f4 [256]
000000 72 ee b2 bc 2d 03 e5 bb ad da d1 b9 e2 23 8e bb
       -0.021842215 -0.006988904 -0.00040026513 -0.0043377737
000010 1e 83 4a bc 6a 0b 8a bc 8f cd 65 bc b3 15 75 3b
       -0.012360362 -0.016851146 -0.01402606 0.0037396967
000020 1d dc ea ba 1d 48 97 b8 92 c6 0a 3c d4 43 4c bb
       -0.0017918382 -7.213673e-05 0.008470194 -0.0031168358
000030 77 5c 7f 3b 8a 9b a1 bc 5a b1 1b bc 28 be 18 3c
       0.0038965025 -0.019727487 -0.009502733 0.0093226805
000040 d7 a0 fb bb 03 a3 02 bb 24 8e 6c bc ac bc e9 3b
       -0.0076790857 -0.0019933588 -0.014438186 0.007133087
000050 20 39 a3 3c 45 19 d1 b9 d4 98 89 3b 97 74 2f 3b
       0.0199247 -0.00039882414 0.0041991267 0.0026772374
000060 45 81 50 bc f5 e5 a0 ba 84 5b 47 bb e3 81 4b 3a
       -0.012726133 -0.0012275564 -0.0030419538 0.000776319
000070 f6 93 0b bc 32 a8 8f bb 63 b4 27 3c 6f df 8d 3c
       -0.008519163 -0.004384064 0.010235879 0.017318456
000080 e0 b7 80 3b a1 bc 02 bb d4 eb 49 ba d9 45 90 3b
       0.0039281696 -0.0019948857 -0.00077026826 0.0044028577
000090 f7 e2 41 bb db 8b b7 3b dd 80 48 bb 9d 07 5d 3c
       -0.0029584744 0.005601389 -0.0030594387 0.013490585
0000a0 e1 f7 62 3c dd e6 45 3b bd 3e f4 3b ed 1f 7a 3c
       0.013853044 0.003019742 0.007453768 0.015266401
0000b0 74 33 69 bb 76 8e ad ba cf e5 f4 3b 91 a3 e3 ba
       -0.0035583647 -0.0013241309 0.0074736844 -0.0017367472
0000c0 8e 38 c0 3c aa e1 c4 3b e3 3f 26 bb ef 84 23 bb
       0.023464467 0.0060083466 -0.002536767 -0.002495106
0000d0 08 18 00 bc 8a 50 37 bb f9 ac d7 bb df b5 6f 3b
       -0.0078182295 -0.002797159 -0.0065818992 0.003657691
0000e0 94 4d 83 3c 82 f4 16 bc 84 9b 61 bb 7b 4b 33 bb
       0.016028203 -0.009213569 -0.003442497 -0.0027358222
0000f0 b9 80 c7 b9 78 70 9a 3b 5b 01 49 bb f3 52 5d bb
       -0.00038052144 0.0047131144 -0.0030670974 -0.0033771365
000100 d0 0e 24 3b bc 66 14 bc 47 34 19 3a 4b 95 d3 3b
       0.0025033243 -0.009057697 0.0005844277 0.006457006
000110 e8 7e 17 3c c4 df 2a 3b 5d 5d 10 3b c5 be 00 bc
       0.009246565 0.0026073316 0.0022028305 -0.007857983
000120 10 02 0a ba 26 7d 4c 3c c5 ac 3f bc 56 7f b4 3c
       -0.00052645896 0.01248101 -0.011698906 0.022033375
000130 43 49 16 3c 93 d9 03 ba c4 c6 dc bb 3d 03 2d bc
       0.00917274 -0.00050296745 -0.006737562 -0.010559854
000140 0f 5c 6f 3c 86 88 e4 3a bd ae 71 bc f4 51 a1 3a
       0.014609351 0.0017435707 -0.0147511335 0.0012307749
000150 cd bf 11 bc d4 6f 36 bc 96 c7 5d bc 77 34 3b 3c
       -0.0088958265 -0.01113506 -0.0135363545 0.011426083
000160 af 39 5f bc 43 e1 13 3c 69 78 37 3c 5c c1 cc b9
       -0.013624593 0.009025875 0.011198142 -0.00039053976
000170 bc 0a 81 bb e7 e6 96 3b 96 4b 25 3c 35 f5 50 3b
       -0.003938047 0.0046051624 0.010088822 0.0031884436
000180 ea 03 8e bc 87 8e f6 bb a0 99 50 bb 37 ea 37 bb
       -0.01733585 -0.007524315 -0.003182985 -0.0028063187
000190 f9 df 60 bb 23 24 d7 bb 07 27 99 bb 4c fc 19 3c
       -0.0034313186 -0.006565587 -0.004673842 0.009398531
0001a0 d0 37 bd bb 2d 63 a8 3b 31 a8 70 bb 5f 6f d9 bb
       -0.0057744756 0.005138776 -0.0036721344 -0.006635591
0001b0 48 ca ba ba d3 4b 5a bb 8f e7 82 bb d3 78 6b bb
       -0.0014250958 -0.0033309355 -0.003994889 -0.003593017
0001c0 a0 45 29 bc 42 5e a6 bc b7 ad 1c bc 3d 9f ba bb
       -0.010331541 -0.020308618 -0.009562901 -0.005695252
0001d0 aa 54 94 bc 3b 76 11 bc 3a ed 2a 3c 3a 70 14 bc
       -0.018106777 -0.008878286 0.010432536 -0.00905996
0001e0 af 0a 7c bb 7b b0 27 ba a9 e4 ad 3b b5 2e 70 bb
       -0.0038458516 -0.0006396842 0.0053067994 -0.0036648933
0001f0 5c 79 bd bb e1 51 a3 ba d6 d0 7c ba 82 b1 10 bc
       -0.0057822894 -0.0012460315 -0.0009644156 -0.008831384
000200 68 88 85 bc 9e 05 0a 3b 33 47 fe 3b f4 1c ea bb
       -0.016300395 0.0021060477 0.0077599525 -0.0071445648
000210 2f a6 84 3c 87 26 ef bb 59 2b 0e bc 98 06 b6 bc
       0.016192524 -0.007298294 -0.008677327 -0.022219941
000220 af 7d 6b 3c dd d6 b6 bb de fc 86 bb 7c b0 da bb
       0.014373227 -0.005579813 -0.0041194996 -0.0066738706
000230 f7 a3 93 ba 92 89 20 bb dc 9a fe 3b d7 54 e1 ba
       -0.0011264075 -0.002449606 0.0077699255 -0.0017191422
000240 7d ea a0 3b ed f5 61 bb 16 c5 e1 ba 1f 65 09 3c
       0.0049107657 -0.0034478859 -0.0017224874 0.008385926
000250 67 3d d3 bb 20 3f 77 3b da f9 32 ba 12 57 34 3c
       -0.0064465287 0.0037726834 -0.0006827392 0.011007087
000260 23 dd d2 bb aa b5 91 3c 5b f1 b4 3c a7 73 ae 3c
       -0.006435053 0.01778682 0.022087744 0.021295382
000270 93 ee d2 bb 8a 27 89 bc 58 50 a6 3b cf 3e 75 bc
       -0.0064371317 -0.016742487 0.0050754957 -0.014968588
000280 db ba 1a bc 0a 2c f2 ba 4e 3c 1e bb 32 a3 cf 3a
       -0.009443964 -0.001847626 -0.002414483 0.0015841483
000290 f3 82 67 bb ea 9f 22 bc ee 2a db bb 85 5b 39 3b
       -0.0035325855 -0.009925822 -0.006688467 0.002828331
0002a0 3f 1a 99 bc 29 bf a6 3b 1e 6d 0e bb 76 52 ad bc
       -0.018689273 0.005088706 -0.002173252 -0.021157485
0002b0 8b 59 46 bb bd d3 1a 3b eb 6a b4 bb 40 b0 88 3c
       -0.0030265774 0.002362474 -0.0055059097 0.016685605
0002c0 38 22 3b bb 36 79 0f 3c 8c 10 1d 3a 7a 2a a3 3c
       -0.0028554332 0.008756926 0.00059915404 0.019917715
0002d0 c7 00 b4 bc c4 09 b0 3b 42 d3 b7 3b 95 c5 17 3c
       -0.021973027 0.005372258 0.0056099007 0.009263416
0002e0 b7 70 29 3a 79 86 23 bc 89 9a d2 bc a3 ba 8b bc
       0.0006463634 -0.009980791 -0.025708454 -0.017056769
0002f0 40 66 37 bb b2 ba 0d 3c b3 09 79 bc da 2d c6 bb
       -0.002798453 0.008650469 -0.015200066 -0.0060479464
000300 51 ac 14 bb 06 fd 3f bb 5e a5 8f bc 30 bd e9 3b
       -0.0022685716 -0.00292951 -0.017534908 0.0071331486
000310 c1 9c d2 3b 56 60 31 bc dc 49 8a bc 95 ae 1f 3b
       0.006427378 -0.010826191 -0.016880922 0.0024365534
000320 18 e8 a5 bb d8 ab ad 3b fc db 46 3b 27 e9 82 bb
       -0.005063068 0.0053000264 0.0030343523 -0.003995079
000330 a9 54 93 3b 98 c8 78 3c ea 00 7a ba 4b 09 98 bb
       0.0044961763 0.015184544 -0.00095368794 -0.0046397797
000340 52 d6 08 bc 3f 3f 3b bb 04 0b b8 bb 6a bb db 3a
       -0.008351879 -0.0028571633 -0.0056165475 0.0016764228
000350 d7 ff 2f bb f9 c7 a5 bb 51 54 fc 3b aa 10 8a bb
       -0.0026855373 -0.005059239 0.007700481 -0.0042134123
000360 4a f6 45 bb 1f 10 22 bc 64 49 09 3c 40 c2 d9 bb
       -0.0030206614 -0.009891539 0.008379314 -0.006645471
000370 d9 46 9c 3b d3 8a 3b bb 32 a9 90 3b 79 c4 3f bc
       0.004769188 -0.0028616681 0.004414701 -0.011704558
000380 4d a1 14 bb 0f bb 8c 3a 17 37 b4 bc aa a6 18 bc
       -0.002267915 0.00107369 -0.021998925 -0.00931708
000390 95 2c 1d 3c 75 64 ad 3a 50 13 bc bb 05 56 a9 3c
       0.009593149 0.0013228791 -0.005739607 0.0206709
0003a0 e4 5b 5c 3b d8 1f 23 3a cf 7a 2f ba 1e f0 33 3b
       0.0033624107 0.00062227016 -0.000669402 0.0027456353
0003b0 62 24 42 bb bd 21 31 3c 9f 20 72 3b 4c 0b 8c bb
       -0.0029623737 0.0108112665 0.0036945713 -0.0042738076
0003c0 20 81 22 bb 42 ae b5 bc 6a 64 4f 3b bc cd 83 bb
       -0.0024796203 -0.02217782 0.0031645545 -0.004022328
0003d0 d6 c4 39 bc ac 43 ef 3a 36 19 32 3c 33 b6 ff bb
       -0.011338433 0.0018254421 0.010870269 -0.0078037023
0003e0 5c f5 03 bc d4 4f 2c 3a 40 03 01 3b a6 af 8e bb
       -0.008054104 0.00065731746 0.0019685775 -0.004354435
0003f0 51 f1 b5 bb e6 1f 79 3b f7 4d f6 bb 13 7f ae bb
       -0.005552449 0.0038013398 -0.0075166184 -0.005325207

network.2.running_mean f4 [256]
000000 75 6e cf 3e 20 35 91 3e 6e 4d a7 3e a7 45 cc 3e
       0.4051396 0.28360844 0.32676262 0.3989689
000010 54 37 76 3e 7a 47 6f 3e 63 f0 99 3e f4 b2 d4 3e
       0.24044544 0.2336711 0.30066213 0.4154278
000020 7f 98 ba 3e 16 14 98 3e ef 01 a6 3e c1 c5 97 3e
       0.3644447 0.29702824 0.3242335 0.29643062
000030 8b 65 b0 3e d6 f4 db 3e a1 98 ce 3e 7a f9 8f 3e
       0.3445247 0.42960232 0.40350822 0.28120023
000040 07 8f b5 3e 9a 0c 86 3e f7 53 9c 3e ef bf 96 3e
       0.35460684 0.2618149 0.3053281 0.2944331
000050 54 9e 62 3e d3 23 d1 3e 4b 97 8d 3e 4e 10 d0 3e
       0.2213071 0.40847644 0.2765449 0.4063744
000060 94 75 b2 3e 1a 72 9c 3e 7e 20 b1 3e 7e e2 8d 3e
       0.3485533 0.30555803 0.34595102 0.27711862
000070 df 11 f9 3e 48 f9 83 3e 22 af d0 3e 9c 66 89 3e
       0.48646447 0.25776124 0.40758616 0.26836097
000080 98 27 d0 3e 5a 51 b4 3e 5a 01 e7 3e 9b 65 bb 3e
       0.40655208 0.35218316 0.4511822 0.36600956
000090 c8 04 ea 3e 8b 2e 91 3e 6f 46 9f 3e 36 37 bc 3e
       0.45706773 0.28355822 0.31108424 0.36760873
0000a0 82 33 b4 3e b1 6b 9d 3e 30 85 89 3e 43 5a d4 3e
       0.35195547 0.30746225 0.26859426 0.41475114
0000b0 ea 71 94 3e 95 8e b2 3e a2 69 8a 3e 3e f9 a1 3e
       0.2899316 0.34874406 0.27033716 0.3163547
0000c0 75 de fc 3e e0 d9 e8 3e 3f a4 df 3e aa 3b b1 3e
       0.4938847 0.45478725 0.43679997 0.34615833
0000d0 07 0c b9 3e 64 72 b1 3e 77 7d ce 3e 6a 00 cc 3e
       0.3614199 0.34657586 0.40330097 0.39844066
0000e0 bd ff a1 3e bd a6 a0 3e 30 f6 c1 3e 4b 23 a0 3e
       0.31640425 0.3137721 0.3788314 0.31276926
0000f0 c1 e0 a4 3e d9 bb ca 3e c0 bb 86 3e 74 05 a4 3e
       0.32202724 0.3959644 0.26315117 0.3203541
000100 04 f6 aa 3e 27 cd da 3e 28 39 d9 3e 25 9c a6 3e
       0.3339082 0.42734644 0.4242642 0.32541004
000110 b5 45 9d 3e b8 8c bb 3e b1 17 b6 3e 75 57 71 3e
       0.30717245 0.36630797 0.3556495 0.23568518
000120 a1 e0 b1 3e 0d 4c a1 3e c4 83 89 3e d9 dc a5 3e
       0.3474169 0.31503335 0.26858342 0.32395056
000130 5f 37 6e 3e 7c bc 98 3e 01 f7 8d 3e 26 f5 b5 3e
       0.2326331 0.29831302 0.27727512 0.35538596
000140 c0 53 c9 3e ed e9 ac 3e ae da 96 3e 72 be 89 3e
       0.3932171 0.3377222 0.29463714 0.2690311
000150 50 e5 07 3f f1 85 a6 3e cc 97 90 3e 76 35 69 3e
       0.5308428 0.32524064 0.28240812 0.227743
000160 a0 f5 b3 3e ee 1f c3 3e fe 12 d0 3e c1 60 af 3e
       0.35148335 0.38110298 0.4063949 0.34253505
000170 a5 f4 c5 3e d5 0c ae 3e ae 1d e3 3e d3 77 a7 3e
       0.3866321 0.33994165 0.4435858 0.32708606
000180 c6 b2 c2 3e 78 c8 b7 3e bd 85 b7 3e cd f3 be 3e
       0.38027018 0.35895133 0.35844222 0.3729538
000190 57 0b d9 3e 0e 49 cc 3e 0a 41 ae 3e 4f bd c8 3e
       0.42391464 0.39899486 0.34033996 0.3920693
0001a0 05 0d 8a 3e 69 9f be 3e 33 80 65 3e fa ec d2 3e
       0.26963058 0.37230995 0.22412185 0.41196424
0001b0 20 5a b2 3e b7 a3 ca 3e 45 fe 8d 3e f2 c7 aa 3e
       0.34834385 0.3957803 0.27733055 0.3335567
0001c0 37 bf b1 3e 03 80 4c 3e 61 85 94 3e 91 70 8d 3e
       0.34716198 0.19970708 0.2900801 0.27624944
0001d0 d4 53 8b 3e a3 5d c3 3e af 46 61 3e 71 ed 9f 3e
       0.27212393 0.38157377 0.2199962 0.3123584
0001e0 5c b4 b0 3e a0 b0 bd 3e 43 06 9e 3e 0e 49 95 3e
       0.34512603 0.37048817 0.30864152 0.291573
0001f0 9c ff c1 3e 84 ba ad 3e e9 33 a4 3e e7 e4 ca 3e
       0.37890327 0.33931363 0.32070854 0.39627764
000200 a1 b6 c2 3e d3 e1 c2 3e 53 0c 80 3e f1 11 d9 3e
       0.3802996 0.38062915 0.25009403 0.423965
000210 74 3f ec 3e 0c 28 d8 3e 01 09 d1 3e 45 c1 d9 3e
       0.4614216 0.42218053 0.40827182 0.42530265
000220 1e a2 a3 3e fd f1 be 3e f1 31 b9 3e 1f 48 ac 3e
       0.31959623 0.37293997 0.36170915 0.33648774
000230 8f 49 f0 3e d1 22 dc 3e f2 3a b3 3e ef 8b d5 3e
       0.4693112 0.42995313 0.3500591 0.41708323
000240 7d a0 be 3e 4a 1d a9 3e ce 82 6a 3e 74 06 cc 3e
       0.37231818 0.33030158 0.2290146 0.39848673
000250 7e f2 c7 3e f4 bb ac 3e a7 78 b4 3e 2d d2 85 3e
       0.39052194 0.33737147 0.352483 0.26136914
000260 75 57 d2 3e 29 6e c7 3e a2 63 c2 3e 51 76 90 3e
       0.4108235 0.38951233 0.3796664 0.28215268
000270 1e eb a0 3e 4a 6c a6 3e b2 9a a1 3e e7 5c cc 3e
       0.3142938 0.32504493 0.31563336 0.3991463
000280 cf 21 da 3e 47 4d bd 3e c9 eb 86 3e ab 46 ef 3e
       0.4260392 0.3697302 0.26351765 0.46733603
000290 17 83 84 3e 9a 76 a8 3e 2a 8f 90 3e 0a 14 bf 3e
       0.25881264 0.32902986 0.28234226 0.37319976
0002a0 8c 36 a3 3e c9 be 8c 3e 5f 81 7c 3e be c5 a3 3e
       0.31877553 0.27489308 0.24658726 0.31986803
0002b0 1e a2 d3 3e af 5c a0 3e 0e ec 74 3e 91 13 94 3e
       0.41334623 0.31320712 0.23918173 0.28921178
0002c0 ac 8c ea 3e 77 97 a2 3e 00 de b0 3e 3b a9 ca 3e
       0.4581045 0.31756184 0.34544373 0.39582238
0002d0 55 27 c7 3e af 52 d0 3e 05 db 6d 3e f3 8b 93 3e
       0.38897195 0.40688083 0.2322808 0.2881771
0002e0 0a d8 99 3e 38 22 d3 3e a6 01 be 3e 09 a8 a4 3e
       0.30047637 0.41237044 0.37110633 0.3215945
0002f0 d9 9f 87 3e 9f 78 e4 3e 51 f8 88 3e b3 42 b2 3e
       0.26489142 0.44623277 0.2675195 0.34816512
000300 23 4a b7 3e b2 db 8c 3e 57 c0 89 3e 7d 7b 59 3e
       0.3579875 0.27511364 0.26904556 0.21238513
000310 57 11 8e 3e 16 aa 87 3e 15 e2 c8 3e 17 43 aa 3e
       0.27747604 0.26496953 0.39234987 0.3325431
000320 e9 0b b6 3e bb a8 aa 3e c8 c9 d5 3e c5 50 ae 3e
       0.35555962 0.33331856 0.4175551 0.34045997
000330 e7 72 8d 3e 61 9c a5 3e f7 83 b6 3e 87 8e 9e 3e
       0.27626726 0.3234587 0.35647556 0.30968115
000340 69 5d a6 3e c9 76 96 3e 06 5d 83 3e 76 26 a2 3e
       0.3249314 0.293875 0.2565691 0.31669968
000350 99 2d ca 3e 06 5a 8d 3e 5d 93 cc 3e 20 55 c4 3e
       0.39487913 0.27607745 0.3995618 0.38346195
000360 50 cb b9 3e c2 98 c5 3e cf e0 c6 3e e6 af ab 3e
       0.36287928 0.38593107 0.3884339 0.33532637
000370 3a 45 d4 3e 1f 94 a9 3e 11 c4 d6 3e 7d 7b 93 3e
       0.41459066 0.3312082 0.41946462 0.28805152
000380 39 57 9f 3e 42 0e 95 3e da 1e a8 3e 56 11 a4 3e
       0.31121233 0.2911244 0.32836038 0.32044476
000390 d3 e6 ab 3e 8b 2f b7 3e f6 e2 9d 3e f8 4e a7 3e
       0.33574542 0.3577846 0.3083722 0.32677436
0003a0 a6 8a 81 3e 60 5f db 3e d6 37 b1 3e 26 3e 81 3e
       0.25301093 0.42846203 0.34612912 0.25242728
0003b0 18 8a 9d 3e c4 df ec 3e ee 08 6d 3e 61 37 95 3e
       0.3076942 0.4626447 0.23147938 0.29143813
0003c0 f4 4d ea 3e 04 78 aa 3e 95 1c bd 3e da 0b 89 3e
       0.457626 0.3329469 0.3693587 0.26766855
0003d0 fe 63 ae 3e e1 4e 58 3e 0d 16 b1 3e 63 f0 9e 3e
       0.34060663 0.2112384 0.34587136 0.31042776
0003e0 55 5e ba 3e 5a f0 a5 3e be 8f 8d 3e 25 43 e3 3e
       0.36400095 0.32409936 0.2764873 0.44387165
0003f0 52 e8 a4 3e c4 e5 ad 3e b4 e8 b8 3e 91 b5 b8 3e
       0.32208496 0.3396436 0.36115038 0.36076024

network.2.running_var f4 [256]
000000 0e 89 f0 3e 56 1e 42 3e e9 e2 95 3e 04 96 ea 3e
       0.46979564 0.18956885 0.2927468 0.45817578
000010 f2 f8 6c 3e 77 52 1b 3e bf e3 a0 3e 97 69 b0 3e
       0.2314184 0.15168177 0.31423756 0.3445556
000020 86 c5 99 3e 27 f3 44 3e 01 eb 91 3e 57 59 a9 3e
       0.3003351 0.1923338 0.28499606 0.33075973
000030 6b e4 8f 3e 4c 64 e2 3e 4e 16 cd 3e c2 78 9d 3e
       0.28103957 0.44217145 0.4005608 0.30756193
000040 7a f6 f6 3e 89 df 70 3e a4 8f 89 3e ba ff 40 3e
       0.48234922 0.23522772 0.26867402 0.18847552
000050 32 06 e5 3d 6d 5b d3 3e 1c 6a 60 3e 75 95 9e 3e
       0.11182822 0.4128069 0.21915478 0.30973402
000060 29 f2 ba 3e 58 0f 65 3e 43 bb 9d 3e 3c d2 9c 3e
       0.3651288 0.22369134 0.30806932 0.30629146
000070 5d 0d 08 3f c8 19 4d 3e c7 5f a4 3e cd b3 f9 3d
       0.5314539 0.20029366 0.32104322 0.121924974
000080 09 e6 28 3f da ce 88 3e 58 5f c9 3e 94 0e a7 3e
       0.65976006 0.26720315 0.39330554 0.3262831
000090 4d 78 0f 3f d1 0c 09 3e 94 a7 e2 3e 85 83 99 3e
       0.5604294 0.13383795 0.44268477 0.29983154
0000a0 ea e9 4f 3e d7 78 b8 3e 45 37 0f 3e ec 35 97 3e
       0.20304075 0.36029693 0.13985927 0.29533327
0000b0 8d ac 7d 3e cd c5 74 3e 03 cc 1f 3e ec 2e 67 3e
       0.24772854 0.2390358 0.15605168 0.22576493
0000c0 e5 4d 09 3f 35 a6 0f 3f 76 9c 0d 3f 5d 68 52 3e
       0.5363448 0.56112987 0.55316865 0.20547624
0000d0 96 03 97 3e 0b e2 7d 3e 90 77 73 3e d0 3e a8 3e
       0.29494923 0.2479326 0.23776078 0.32860422
0000e0 53 1d 41 3e 72 fd 8f 3e cf bf ab 3e 71 26 ac 3e
       0.18858843 0.2812305 0.33544776 0.33623078
0000f0 90 d0 c7 3e 69 96 09 3f 00 50 18 3e fe 2d 77 3e
       0.39026308 0.5374513 0.14874268 0.24138638
000100 7d 91 85 3e 04 1a c5 3e 91 f7 c3 3e c3 62 92 3e
       0.2608756 0.3849641 0.38274816 0.28590974
000110 f2 68 42 3e 30 3e cb 3e 45 09 be 3e 7d f7 22 3e
       0.18985346 0.39695883 0.37116447 0.15914722
000120 fc d2 98 3e 04 b2 c1 3e 50 b3 33 3e e9 d9 a6 3e
       0.29848468 0.37831128 0.17548871 0.32588127
000130 ac 9a bc 3d 9a 01 91 3e d2 b1 15 3e 55 d7 8c 3e
       0.09209189 0.28321534 0.14618614 0.27508035
000140 ae f4 a7 3e a8 96 aa 3e 18 a7 81 3e 88 86 34 3e
       0.32803863 0.33318067 0.25322795 0.17629445
000150 ca 35 74 3f 00 32 87 3e 43 60 5b 3e 0a f8 2d 3e
       0.95394576 0.26405334 0.2142344 0.1698915
000160 c0 11 ab 3e 64 4a c0 3e d5 70 ef 3e 2c 5a 83 3e
       0.3341198 0.37556756 0.46765772 0.25654733
000170 55 4e ca 3e 8f 08 a9 3e 7a 2e 06 3f 43 e1 89 3e
       0.39512888 0.33014342 0.5241467 0.26929674
000180 76 dd ba 3e f5 c6 75 3e e0 01 8a 3e f9 e7 a0 3e
       0.36497086 0.24001677 0.26954556 0.3142698
000190 46 7c d7 3e d7 75 ca 3e d6 76 85 3e 8c f7 c3 3e
       0.42087 0.3954303 0.26067227 0.382748
0001a0 1b 9b 16 3e 06 3a 67 3e d7 de 31 3e 49 4a dc 3e
       0.14707606 0.22580728 0.17370163 0.43025425
0001b0 2b ac f3 3e b8 1b e0 3e 55 8c 90 3e 1a f9 b9 3e
       0.4759229 0.43771148 0.28232065 0.36322862
0001c0 b8 63 9f 3e d3 dc bf 3d c1 1f 1b 3e e4 b2 38 3e
       0.31130767 0.09368291 0.15148832 0.18036991
0001d0 44 fe 2c 3e 5f 5c d0 3e 67 59 17 3e e1 71 2c 3e
       0.1689387 0.40695474 0.14780198 0.16840316
0001e0 eb 5c d4 3e 68 6e 94 3e 30 bc 4b 3e f9 87 60 3e
       0.4147714 0.28990483 0.19896007 0.2192687
0001f0 32 5b 7b 3e c3 e2 67 3e 42 2c 6c 3e 93 44 a0 3e
       0.24546507 0.22645096 0.23063758 0.31302318
000200 9b fe d8 3e 91 31 b9 3e 94 77 63 3e 7e 66 f7 3e
       0.4238175 0.3617063 0.22213584 0.48320383
000210 60 61 fa 3e e4 3d a4 3e 8f 2a cc 3e 34 59 b7 3e
       0.48902416 0.3207847 0.3987622 0.35810244
000220 73 59 84 3e c0 31 94 3e c0 73 b9 3e ce 26 88 3e
       0.25849494 0.28944206 0.36221123 0.26592106
000230 7c f8 d1 3e f7 35 c9 3e 2d f7 86 3e ec 1b c1 3e
       0.4100989 0.39298984 0.26360455 0.37716615
000240 af ce 90 3e 11 62 76 3e ac 1f fb 3d 64 ff af 3e
       0.28282687 0.24060847 0.122619 0.34374535
000250 40 eb ba 3e 04 b9 57 3e b8 3f 85 3e 0d f4 25 3e
       0.36507607 0.21066672 0.26025176 0.16206379
000260 f8 89 b5 3e 66 db dc 3e 7b 29 fc 3e 2e dd 4f 3e
       0.35456824 0.43136138 0.49250397 0.20299217
000270 4a de 8b 3e 0c e6 50 3e 8c 26 77 3e 28 28 e3 3e
       0.2731803 0.20400256 0.24135798 0.44366574
000280 f2 73 a1 3e 2a 50 c6 3e 21 31 37 3e bb a1 37 3f
       0.31533772 0.38733035 0.17889835 0.71731156
000290 af 50 00 3e 16 91 5e 3e e2 90 62 3e f7 59 d2 3e
       0.12530778 0.21735033 0.22125581 0.41084263
0002a0 4c ab 81 3e 67 97 7c 3e 12 1d f7 3d 88 a3 4b 3e
       0.25326002 0.2466713 0.120660916 0.19886601
0002b0 63 7b 00 3f 73 5c 2c 3e 5a d6 09 3e 74 b2 56 3e
       0.50188273 0.16832142 0.13460675 0.20966512
0002c0 00 7a df 3e 57 3f 68 3e 4a ec 8d 3e be ce 97 3e
       0.43647766 0.22680412 0.27719337 0.2964992
0002d0 50 62 d1 3e 7f 7f 09 3f 00 df 2d 3e 8b ca 1b 3e
       0.4089532 0.5371017 0.16979599 0.15213983
0002e0 8a 0f 2e 3e 88 7a ed 3e 89 b5 b3 3e 0c fa ac 3e
       0.16998115 0.46382546 0.35099438 0.3378452
0002f0 b3 b4 16 3e c5 ca c7 3e 24 2f 28 3e ea 22 c0 3e
       0.14717369 0.39021888 0.16424233 0.37526637
000300 9a 60 bf 3e 6c 51 9a 3e b1 83 22 3e 18 8f 79 3e
       0.3737839 0.30140245 0.15870549 0.24370992
000310 76 61 40 3e d8 61 0f 3e 71 7f ce 3e f0 72 91 3e
       0.18787178 0.14002168 0.40331605 0.28408003
000320 c9 87 93 3e 76 cf 49 3e 12 b2 01 3f 0f da 61 3e
       0.28814533 0.19708046 0.5066234 0.22055839
000330 45 f5 23 3e 52 75 90 3e 9b 59 96 3e 52 e0 5e 3e
       0.16011532 0.28214508 0.2936524 0.21765259
000340 ab 79 b4 3e bf 00 4d 3e 8a 1d 19 3e d1 f6 09 3e
       0.35249075 0.20019816 0.14952675 0.13473059
000350 eb e6 d0 3e 27 5d 93 3e cc 76 84 3e 50 aa b2 3e
       0.40801176 0.28782007 0.25871885 0.34895563
000360 46 31 a7 3e 14 74 ca 3e 8b eb 06 3f c3 e5 9e 3e
       0.3265478 0.39541686 0.5270316 0.3103467
000370 01 04 fe 3e 7b 02 5c 3e 31 1f ca 3e 21 34 81 3e
       0.4961243 0.21485321 0.39476922 0.25235084
000380 c5 cf 66 3e b5 e8 9c 3e e8 74 b4 3e 00 ce 9e 3e
       0.22540195 0.3064629 0.35245442 0.3101654
000390 6b 23 32 3e 4e 03 79 3e c3 fa ae 3e 7f d5 87 3e
       0.17396323 0.24317667 0.3417569 0.26530072
0003a0 e4 d3 87 3e 70 98 cf 3e 65 de a3 3e d5 85 3f 3e
       0.26528847 0.40545988 0.3200561 0.18703397
0003b0 47 ca 72 3e 82 a1 3b 3f 57 78 46 3e 9f 98 90 3e
       0.23709975 0.73293316 0.19381844 0.2824144
0003c0 be 8c e7 3e 7a 05 62 3e 39 69 ce 3e 82 bd 48 3e
       0.45224565 0.22072402 0.40314654 0.19603541
0003d0 20 59 b0 3e b8 a5 24 3e 46 70 83 3e f2 ba 88 3e
       0.34442997 0.16078842 0.25671595 0.26705128
0003e0 ac fc d1 3e 70 24 6e 3e 8a 75 9b 3e e3 f4 e9 3e
       0.41013086 0.23256087 0.30363113 0.45694646
0003f0 ee 32 b9 3e 43 cd 84 3e b4 2c 84 3e 0e a4 c0 3e
       0.3617167 0.25937852 0.25815356 0.37625164

network.4.weight f4 [128, 256]
000000 9a af 19 bd 41 5e 39 bd 38 08 02 3d 48 9d 76 bc
       -0.037520982 -0.045255903 0.03174612 -0.015052147
000010 e4 1a 4c 3d 83 08 a8 3c 00 13 f5 bc b4 2b d7 bc
       0.049830332 0.020511871 -0.029916286 -0.026265956
000020 34 7b 1c bd b5 e5 cd bc e5 4a 86 bc 03 1a 30 ba
       -0.038203433 -0.025133947 -0.016393134 -0.0006717743
000030 d7 4a 0e bd d5 0b 88 bd 01 90 18 3d 34 9e 03 bd
       -0.03473934 -0.06642882 0.037246708 -0.032133296
000040 03 02 af 3b 62 79 42 bc 36 ab fd bc 88 22 04 3d
       0.005340816 -0.01186976 -0.030965429 0.032259494
000050 8e 3b 4a 3c 15 22 4f bd a2 e3 3c 3d e0 01 1a bd
       0.0123433005 -0.050569613 0.046115525 -0.037599444
000060 ce 42 5a bd cd 2d 25 3a bd 0f 85 bd 67 7e 57 3d
       -0.053286366 0.00063010753 -0.064971425 0.05261078
000070 f6 e9 e7 ba 6e f9 ef bc f7 d1 00 3d 99 f2 0a bd
       -0.0017693627 -0.029293742 0.031450238 -0.033922765
000080 fe c9 9a bc 6d 47 b7 3c 57 a1 02 bd 0d 1d d5 bc
       -0.018895146 0.022372926 -0.031892147 -0.026014829
000090 12 d6 6f 3d 3e 15 97 3a 97 1d f6 3c 30 e3 09 bd
       0.058553763 0.0011526716 0.030043406 -0.03366393
0000a0 78 30 42 bd 56 a5 51 3d 84 18 0a bd 76 f9 df bc
       -0.047409505 0.051183067 -0.033714786 -0.027340632
0000b0 ab 25 3d bd 9f 11 67 bb 03 6a 93 3b 99 ed ee 3c
       -0.0461785 -0.0035258306 0.0044987216 0.02916603
0000c0 ba ad f9 bc 07 b8 06 bc 86 b0 c0 3c 4a 97 5f 3c
       -0.030478347 -0.0082225865 0.023521673 0.01364691
0000d0 53 eb c0 3b bc 8c 54 3d 8d 91 1e 3d e8 61 be 3c
       0.005887428 0.051892027 0.038713027 0.023240045
0000e0 b5 38 03 bd 8e b7 6f bc eb 01 23 bd d5 1e b0 3c
       -0.032036502 -0.014631165 -0.03979675 0.021499077
0000f0 ad 26 d5 ba 89 b5 a9 bc f1 8d 03 bd 2d 85 77 3d
       -0.0016262137 -0.020716446 -0.032117788 0.06042974
000100 97 42 ae 3a 24 1d c3 3c 1a e0 20 3d 99 3e 35 3d
       0.0013294992 0.023817606 0.03927622 0.04424915
000110 18 7a b6 bb 32 0b 9b 3c 1c 1d 25 3a 28 c9 14 3d
       -0.005568754 0.018926237 0.0006298588 0.03632465
000120 e9 d5 cb 38 bb 02 33 3d fa 85 09 3d 83 62 fd ba
       9.719638e-05 0.043703776 0.033575036 -0.0019331727
000130 76 da b4 bc 65 aa 22 bc 74 d0 2d 3d c5 12 5a 3d
       -0.022076827 -0.009928321 0.042435125 0.053240556
000140 45 10 22 b9 ff 87 94 bd a4 03 b2 bb 42 6d a8 3c
       -0.00015455585 -0.07252502 -0.005432563 0.02055991
000150 48 d4 eb ba f9 28 15 bd b5 62 7a 3d e3 5c 83 3c
       -0.0017992342 -0.036416028 0.06112929 0.016035503
000160 0f 81 89 bd 3e 75 d9 3c 89 eb 73 3d 66 07 6b 3b
       -0.06714069 0.026545163 0.059550796 0.0035862564
000170 7e d4 a8 3b f4 df 98 3d c4 c7 13 3d b9 a5 5a bd
       0.005152284 0.07464591 0.036079183 -0.0533807
000180 56 db 45 3c d9 55 7c 3d 75 be 43 bd 10 23 40 38
       0.01207622 0.06160531 -0.047789056 4.580902e-05
000190 77 ca 71 bb 8a 8e 36 bc 48 96 d2 3c f8 28 5e 3b
       -0.003689436 -0.011142382 0.025706425 0.003389893
0001a0 7a 34 1a bd 43 33 15 bd e7 73 12 bd f7 ba 9b 3b
       -0.0376477 -0.03642584 -0.035755064 0.0047525126
0001b0 4a 72 54 bd 83 f9 1f bd fa 12 94 bd b0 45 32 bc
       -0.051866807 -0.039056312 -0.07230182 -0.010880873
0001c0 1d f4 69 3c 38 26 01 bd cf c3 8c 3c f3 44 cc 3b
       0.014279393 -0.03153059 0.017183213 0.0062338053
0001d0 32 5d 97 bc 58 7e 6d 3c 05 17 86 bc df 7c 29 bd
       -0.018477056 0.014495455 -0.016368398 -0.041378852
0001e0 80 10 d2 3c 56 29 50 3d 0c fa 68 bd 81 04 b2 3c
       0.025642633 0.05082067 -0.05687909 0.021730663
0001f0 67 d6 9b 3c 55 ab 2a 3d f3 03 b3 bb c3 2d 37 3d
       0.019023133 0.0416673 -0.0054631173 0.044721376
000200 b8 b3 91 3d 73 19 7c bc 9f 61 a6 bc a8 4e 5a bc
       0.07114357 -0.015386927 -0.020310221 -0.013324417
000210 15 e9 29 bd d9 79 bb bc bd 3d 36 3c df 8f 5c 3d
       -0.04148205 -0.02288525 0.011123118 0.053848144
000220 89 1d 98 bd ad 3d 48 3c d6 f5 31 3c 95 5f 6a 3d
       -0.074275084 0.012221736 0.0108618345 0.05722006
000230 68 e7 04 bb f1 cf 10 bc 46 28 3b bd 94 f1 24 3d
       -0.002027953 -0.00883864 -0.045692705 0.04026945
000240 ca 6a 76 bd b2 f1 20 bd 07 ff 04 bd 26 11 ef 3c
       -0.060160436 -0.039293 -0.032469776 0.029182982
000250 33 56 44 bd 5f 54 78 3a 42 26 d5 3c 1e 74 8d 3c
       -0.04793377 0.00094730215 0.02601922 0.017267283
000260 37 94 16 bd e5 21 43 bd 33 04 61 ba 72 a2 2d bd
       -0.036762442 -0.047639746 -0.00085836946 -0.042391248
000270 7f 76 69 3d c7 27 70 bd fc 50 9d ba a2 a7 87 bd
       0.056997772 -0.058631685 -0.0012002285 -0.0662377
000280 13 79 97 bc a3 aa c5 bc 77 bf d0 bc 20 7c 35 3c
       -0.01849035 -0.024129217 -0.025481923 0.011076957
000290 bd 05 bd 3b e2 c8 ed 3c 73 27 5d 3c 53 e4 36 bd
       0.0057685063 0.029026452 0.013498175 -0.04465134
0002a0 0d f5 77 3d d4 bd a3 3c f8 a6 17 bc 6c 35 2b bd
       0.060536433 0.019987978 -0.009256117 -0.041798994
0002b0 de 44 15 bd 7b 89 b6 3b 73 8a 38 bc 4c 99 5c bd
       -0.03644263 0.005570588 -0.011263478 -0.053857133
0002c0 79 e5 42 3d 76 7e 06 bc 6b d6 c8 bc 18 2d 1f bd
       0.047582123 -0.008208862 -0.024516305 -0.038861364
0002d0 46 20 29 3d 90 6d 4c bd 63 97 6e 3d 5d 9e 81 3c
       0.041290544 -0.049909174 0.058249842 0.015822584
0002e0 f2 a9 05 bd cd 7d 34 39 bb df 19 3d 32 e6 50 3d
       -0.032632776 0.00017213002 0.03756688 0.05100078
0002f0 d3 be 82 bb 7c 6a e0 bc f9 5c 9a bc eb c7 93 3d
       -0.003990033 -0.027394526 -0.018843161 0.07215866
000300 74 28 93 3d a8 a8 e4 3c 4e 5c 82 3c 50 76 90 3d
       0.0718545 0.027912453 0.015913155 0.07053816
000310 9a 19 6c bb 30 7a 88 bb 0a e2 d0 bc f1 8c 46 ba
       -0.0036026002 -0.0041649565 -0.025498409 -0.00075741025
000320 a6 e4 79 3d 97 de 83 3d 0b a5 e8 3b 4b 4c 41 3d
       0.06100907 0.0643894 0.007099753 0.0471919
000330 d8 01 84 bd e6 2b 4e 3c 41 a3 3d bd d5 4a 18 3b
       -0.06445664 0.012583708 -0.04629827 0.0023237963
000340 7c e1 98 3b ba 7c 13 3d 50 fe 58 3b e4 00 62 bd
       0.0046655517 0.03600762 0.0033110566 -0.05517663
000350 e7 3c 30 3d 14 97 a5 3b ca 60 62 bd 8e 3e 48 bd
       0.04302683 0.0050534103 -0.055268086 -0.04888778
000360 f1 e5 90 bc 78 ca d5 3a 83 57 9b 3d b1 24 87 bd
       -0.01768777 0.0016310951 0.07585051 -0.06598795
000370 e1 a5 8c 3d eb 6d 22 3d e5 85 45 3d 07 3c b8 bb
       0.068675764 0.039655607 0.048223395 -0.00562239
000380 89 e5 1d 3d 53 80 60 3d a0 ad 34 3d f2 f1 da bc
       0.03854898 0.05480988 0.044110894 -0.026726697
000390 bc 5f 64 3a 58 f4 21 bc 58 bf 79 3c a4 67 b1 bc
       0.00087117753 -0.009884916 0.015243374 -0.021655865
0003a0 a3 b2 00 3b ad 74 35 3d 88 75 60 bc 2e 59 46 bd
       0.0019637726 0.044300724 -0.013699897 -0.048424892
0003b0 13 c1 db 3c 35 8d 49 3d 83 e8 b7 bc bd 9f 8a bd
       0.026825463 0.04920693 -0.022449737 -0.06768749
0003c0 12 7d 61 bd ee 99 da 3c da 3c bd ba b3 c6 bc 3c
       -0.055050917 0.026684728 -0.0014437691 0.023043966
0003d0 6a 71 2c bd e1 fd bd bc 7d 94 85 3c 0f b8 23 3d
       -0.042100348 -0.023192348 0.016306156 0.039970454
0003e0 58 cf 55 3b 09 a9 30 bd f2 f2 e2 bc 48 d8 52 3d
       0.0032624807 -0.043129954 -0.027703736 0.051475793
0003f0 95 87 02 3d 56 df 25 3c 72 d3 dd 3b c6 5d 4d bc
       0.031867582 0.010124048 0.006769591 -0.012534564
