models/10s30s_next_day_mlp_fold3.pth (torch, 474167 bytes, 19 tensors)

network.0.weight f4 [256, 286]
0	0x3c23fc57	0.010008893
1	0x3caefff7	0.021362288
2	0xbcb3297e	-0.021870371
3	0xbd11f4fc	-0.035634026
4	0x3d3e69f1	0.046487752
5	0x3cabb23d	0.020959014
6	0xbd7767be	-0.06040167
7	0x3d9d83c2	0.076911464
8	0x3c17bac8	0.009260841
9	0x3c95fcae	0.018308964
10	0x3c35ec10	0.011103645
11	0x39010ad0	0.00012306427
12	0xbd4fad40	-0.050702333
13	0xbd11bfcd	-0.035583306
14	0x3d003416	0.031299673
15	0xbd30c9d4	-0.04316123
16	0x3d5a1905	0.053246517
17	0xbcb110e6	-0.021614503
18	0x3ab4f531	0.0013805983
19	0x3d12ad29	0.03580967
20	0x3c89018c	0.01672437
21	0x3d2ffb48	0.04296425
22	0xbbfe4c14	-0.007760534
23	0xbca543d9	-0.020173954
24	0x3bb44dd9	0.005502444
25	0xbd0ddfa0	-0.034637094
26	0x38bf3c27	9.118794e-05
27	0xbce276dc	-0.027644567
28	0x3d59a249	0.053133283
29	0xbd31c895	-0.04340418
30	0xbcc0d573	-0.02353928
31	0x3d463518	0.048390478
32	0xbc496ecc	-0.012294482
33	0xbd60e8c0	-0.054909468
34	0xbcc05be4	-0.023481317
35	0x3d4adb91	0.0495258
36	0xbbdbfb34	-0.0067132954
37	0x3caa3012	0.020774875
38	0x3d6dde72	0.05807347
39	0xbc3405d1	-0.010987715
40	0x3d6345d3	0.05548651
41	0x3d0c2cd3	0.034222435
42	0xbc1f8dc4	-0.009738389
43	0xbd2c7db3	-0.042112064
44	0xbd83f975	-0.064440645
45	0xbcfb13d1	-0.030649098
46	0xbccdeb04	-0.025136478
47	0x3d7ea832	0.062172122
48	0xbd662921	-0.056191567
49	0x3c2b538a	0.010456929
50	0xbc18775e	-0.009305803
51	0x3cf27e0c	0.02960112
52	0x3cad6e77	0.021170838
53	0xbd0acb54	-0.033885315
54	0x3d546160	0.051850677
55	0x3cda321b	0.02663522
56	0x3d743cfe	0.05962848
57	0x3cbc43bc	0.022981517
58	0xbc342377	-0.010994784
59	0xbccb9c84	-0.024854906
60	0x3d0caf3f	0.034346815
61	0x3d0ac4a9	0.033878956
62	0x3acd5730	0.0015666243
63	0xbd01790c	-0.03160958
64	0x3d4d0edc	0.050063
65	0xbd2ea314	-0.042635992
66	0x3cca8e1e	0.02472597
67	0x3d29c0b5	0.041443545
68	0x3c554a5d	0.013018218
69	0xbd083c35	-0.033260543
70	0x3acafc79	0.001548662
71	0xbd4228f5	-0.04740234
72	0x3c4a27c2	0.012338581
73	0x3c020f26	0.007938182
74	0x3d8b8c26	0.068138406
75	0xbb738502	-0.0037158136
76	0x3d5f9b8d	0.054591704
77	0x3d23bffe	0.03997802
78	0xbd06f40d	-0.03294759
79	0xbcce333a	-0.025170911
80	0x3d06d082	0.032913692
81	0x3d01976e	0.031638555
82	0xbcffa9ff	-0.03120899
83	0xbd2918d5	-0.041283447
84	0x3d6cc566	0.05780544
85	0xbbb1c770	-0.005425386
86	0xbab076c0	-0.0013463125
87	0xbd0aaaa0	-0.033854127
88	0x3d3756b6	0.04476043
89	0x3d23f265	0.040026087
90	0xbc6ed2c6	-0.0145766195
91	0xbc8c6472	-0.01713774
92	0x3d73f03b	0.059555274
93	0x3d566327	0.052340653
94	0xbba0dbc5	-0.004909011
95	0x3ca40f31	0.020026775
96	0xbc033bd7	-0.008009872
97	0x3d7cde52	0.06173546
98	0xbd405069	-0.046951685
99	0xbc2707bd	-0.010194716
100	0x3ca5edf0	0.020255059
101	0xbd2adc2d	-0.041713882
102	0x3d490046	0.049072526
103	0x3d16b487	0.036793258
104	0x3d91f3cd	0.071265794
105	0x3cb8489f	0.022495566
106	0x3cef433d	0.029206866
107	0x3c82ebb6	0.015981536
108	0x3cd055fb	0.025431624
109	0x3d2bcefd	0.041945446
110	0xbc3f4d34	-0.0116761215
111	0xb9c72942	-0.00037986977
112	0x3b9c4e1f	0.004770055
113	0x3c803f71	0.015655251
114	0x3c7493e9	0.014927843
115	0xbd0e8e08	-0.03480342
116	0xbd3e34de	-0.046437137
117	0xbd057461	-0.03258169
118	0x3d1daec8	0.038496763
119	0xbc383021	-0.011241944
120	0x3cbdcb7a	0.023168314
121	0xbd163603	-0.036672603
122	0x3cedb2dc	0.02901595
123	0xbd127025	-0.03575148
124	0x3ca37e5d	0.019957716
125	0x3ab0497a	0.0013449632
126	0xbcd09f5a	-0.02546661
127	0xbc170abd	-0.009218869
128	0x3d4ad8c2	0.049523123
129	0xbcb5412c	-0.022125803
130	0x3d1e8af5	0.03870674
131	0x3c1e19d7	0.009649715
132	0x3d216cd9	0.039410446
133	0x3d6ded7d	0.058087815
134	0x3ce45e29	0.02787693
135	0x3d167f17	0.036742296
136	0x3bfacd71	0.007653885
137	0x3da47443	0.08029988
138	0xbcd23023	-0.025657719
139	0x3d5b2506	0.053502105
140	0x3981f325	0.00024785954
141	0x3cfd4817	0.030918164
142	0x3cc472b6	0.02398048
143	0x3d925be7	0.07146435
144	0x3d09a3d2	0.033603497
145	0x3c06be08	0.008224018
146	0xbbb0d24a	-0.005396162
147	0xb8b1ee69	-8.484425e-05
148	0xbcf273a7	-0.029596163
149	0x3c976ed4	0.018485464
150	0x38873852	6.447792e-05
151	0xbd01931a	-0.031634428
152	0xbbea0c6f	-0.0071425955
153	0xbd4d96de	-0.050192706
154	0x3c98ef13	0.018668687
155	0x3d0deb97	0.034648504
156	0x3d485a30	0.048914135
157	0x3c6b66eb	0.014367799
158	0xbd1c4527	-0.038151886
159	0x3cabe538	0.020983323
160	0xbc8030b8	-0.01564823
161	0x3cffbd2b	0.031218132
162	0x3d243167	0.040086176
163	0xbd3f7125	-0.046738762
164	0xbc4d965e	-0.012548057
165	0xbd5a8f10	-0.05335909
166	0xbd46dd58	-0.048550934
167	0x3b63236b	0.0034658562
168	0x3b6a149e	0.0035717855
169	0x3d447e0f	0.04797178
170	0xbced0c2c	-0.028936468
171	0x3d68fad9	0.056879852
172	0xbca1e23e	-0.019761201
173	0xbca964d4	-0.020677961
174	0xbcd34e17	-0.025794072
175	0x3d5ab02f	0.053390678
176	0xbd5b38aa	-0.053520836
177	0xbd468a0b	-0.04847149
178	0x3d2533d8	0.040332645
179	0x3bd95376	0.006632264
180	0xbd11da4c	-0.035608575
181	0xbc534487	-0.012894756
182	0x3ced5cc1	0.028974893
183	0x3c90e6b4	0.017688133
184	0x3ca0fada	0.019650865
185	0xbd48ee4e	-0.04905539
186	0xbc3d84c3	-0.011567297
187	0xbc5efed6	-0.013610562
188	0xbc957d31	-0.018248172
189	0x3d265df3	0.04061694
190	0xbb722295	-0.0036946882
191	0x3c12c868	0.008958913
192	0x3d8a2355	0.0674502
193	0xbccb6fc4	-0.024833567
194	0xbb000bc4	-0.0019538263
195	0xbb5feecd	-0.0034169436
196	0x3d2b2938	0.041787356
197	0xbb9ca14f	-0.0047799717
198	0xbd40fcc0	-0.04711604
199	0x3ce8b80d	0.028408075
200	0x3d338bde	0.04383456
201	0xbd8e1b73	-0.06938829
202	0xbcbe2cdc	-0.02321475
203	0xbd1240ae	-0.035706215
204	0x3bfe354a	0.0077578174
205	0xbcf90f5b	-0.03040283
206	0x3d50a070	0.050934255
207	0x3bf8a708	0.007588271
208	0x3d260238	0.04052946
209	0xbc5087e1	-0.012727709
210	0x3c347b88	0.01101578
211	0xbc598b71	-0.013277874
212	0x3d4769de	0.048684947
213	0x3be2dcd7	0.006923299
214	0x3d1f5321	0.038897637
215	0xbb93b1c8	-0.004507277
216	0x3d7ce82e	0.06174486
217	0xbb4ca6b1	-0.0031227286
218	0x3c2de1e3	0.010612938
219	0x3b84d6e6	0.004053938
220	0x3d2fa786	0.042884372
221	0x3c92d233	0.017922496
222	0xbd1206d7	-0.035651054
223	0xbd60d673	-0.054892015
224	0x3d04bc56	0.032406174
225	0x3d458e11	0.04823119
226	0xbca46af3	-0.020070529
227	0xbb4d8bd9	-0.0031363873
228	0x3d0df3e4	0.03465642
229	0xbd30056e	-0.04297393
230	0xbc8f89cc	-0.017521761
231	0xbd1cb06a	-0.03825418
232	0xbd00fa3c	-0.031488642
233	0xbd360359	-0.044436786
234	0x3b4f71a1	0.0031653421
235	0x3d802ea4	0.06258896
236	0xbbadcead	-0.0053041787
237	0x3cc4cfbf	0.024024842
238	0xbcca5d12	-0.024702583
239	0xbd204ff1	-0.039138738
240	0xbd066320	-0.032809377
241	0x3d3f02c1	0.046633486
242	0x3ca987bf	0.020694612
243	0xbd25e41c	-0.040500745
244	0xbd06a7e5	-0.03287496
245	0x3b3299cb	0.0027252312
246	0xbb4e8fb2	-0.0031518755
247	0xbd613000	-0.054977417
248	0x3d83057f	0.06397533
249	0xbcd8a013	-0.026443517
250	0xbb311726	-0.0027021854
251	0x38ff59d1	0.00012176077
252	0x3cfceb4b	0.030873915
253	0xbd660cec	-0.056164667
254	0x3d9d67ba	0.076858
255	0x3b72160c	0.003693941

network.0.bias f4 [256]
0	0xbc2e8307	-0.010651357
1	0xbd71ecbb	-0.059063654
2	0xbcf2dd8c	-0.029646657
3	0xbcffa3e0	-0.031206071
4	0x3d6e75a7	0.05821767
5	0xbc6ae48d	-0.014336717
6	0x3d80e690	0.06293976
7	0x3d1c8da8	0.03822103
8	0xbd29ba14	-0.041437224
9	0xbc97580c	-0.018474601
10	0x3d8389b4	0.06422749
11	0x3d270cbd	0.040783633
12	0x3c8342c9	0.016023057
13	0x3c48c904	0.012254957
14	0x3d74c819	0.05976114
15	0x3d113287	0.035448577
16	0x3ccbf5be	0.024897452
17	0x3d956077	0.0729379
18	0xbd071d40	-0.03298688
19	0x3d2b916e	0.04188674
20	0xbbc8e646	-0.0061309664
21	0x3d1196f0	0.035544336
22	0x3d37f011	0.04490668
23	0xbc172be3	-0.009226772
24	0x3d1bfda4	0.038083687
25	0x3be8d927	0.0071059647
26	0x3d4f559d	0.050618757
27	0x3cfc9344	0.03083194
28	0xbd4e81aa	-0.050416626
29	0xbc920523	-0.017824715
30	0x3d7f0961	0.062264804
31	0xbce603e8	-0.028078035
32	0xbd573de7	-0.05254927
33	0xbc0db67b	-0.008649464
34	0x3cfde23c	0.030991666
35	0xbd5be987	-0.053689506
36	0xbd6e524b	-0.05818395
37	0x3c900e32	0.017584894
38	0x3d2923c0	0.04129386
39	0x3c88b5cf	0.016688256
40	0x3d1d9ffd	0.038482655
41	0x3cf9bde2	0.030486051
42	0xbbe182ad	-0.006882033
43	0xbc866c63	-0.016409105
44	0x3c23bb09	0.009993323
45	0x39963c10	0.0002865498
46	0xbd0b6990	-0.03403622
47	0xba034a80	-0.0005008355
48	0x3d15c594	0.03656538
49	0xbd3538c5	-0.044243593
50	0xbd4e0a97	-0.050303068
51	0x3d6809f5	0.05665012
52	0x3cf1e6d5	0.029529015
53	0x3c13db3c	0.0090244375
54	0x3b2291e2	0.0024806191
55	0x3d60d7d3	0.054893326
56	0x3b2719dc	0.002549759
57	0xbd2009c0	-0.0390718
58	0xbcc2a3da	-0.023759771
59	0xbc19a6ee	-0.009378178
60	0x3c5f6584	0.013635043
61	0xbd0631ab	-0.03276221
62	0xbd270720	-0.04077828
63	0x3d368d83	0.04456855
64	0x3c4749c8	0.012163587
65	0x3c2a883c	0.010408457
66	0x3d8cc08d	0.06872664
67	0xbc97c8a2	-0.018528286
68	0xbd1381a4	-0.036012307
69	0x3d7b70bb	0.061386805
70	0x3d50fae0	0.051020503
71	0x3d18d75f	0.03731477
72	0xbca3b2f6	-0.019982796
73	0x3d05e1f0	0.032686174
74	0xbd0d6da1	-0.03452838
75	0x3cafe8f9	0.021473395
76	0xbc70d0cd	-0.0146982195
77	0xbbe8086a	-0.007081081
78	0x3d0e6b93	0.03477056
79	0xbc5b3f8b	-0.013381849
80	0xbd0536a2	-0.032522805
81	0xbd08e1a7	-0.033418324
82	0x3bf85ff8	0.0075797997
83	0xbc93834f	-0.018006949
84	0xbd0a9342	-0.033831842
85	0xbb89b584	-0.0042025466
86	0x3be0cd75	0.00686043
87	0x3d497dbb	0.04919217
88	0xbc0eb5c8	-0.008710332
89	0x3c22484a	0.00990493
90	0x3d8613e7	0.06546765
91	0x3cc7c919	0.024387883
92	0xbc9f6196	-0.019455712
93	0xbd779c2d	-0.060451675
94	0xbccbf55e	-0.024897274
95	0xbcb63dc8	-0.022246256
96	0xbd115a4e	-0.035486512
97	0xbc1fb52a	-0.009747783
98	0xbb3adc2c	-0.002851258
99	0x3aac7fec	0.0013160682
100	0xbc80c6ac	-0.015719734
101	0xbc7be527	-0.015374458
102	0xbd18e247	-0.03732517
103	0xbce1f712	-0.027583633
104	0xbce314c7	-0.027719868
105	0x3ce9e24d	0.028550291
106	0x3c1ca1d3	0.009560066
107	0xbc25c1f4	-0.010117043
108	0x3c2cd343	0.010548416
109	0xbd333e5a	-0.043760635
110	0x3d1b6fa2	0.03794826
111	0xbce1e538	-0.02757512
112	0xbc6b4278	-0.014359109
113	0xbb9da83b	-0.0048113144
114	0x3d6712a2	0.056414254
115	0xbd298a05	-0.04139139
116	0xb9e706cb	-0.00044064815
117	0x3cf65261	0.030068578
118	0x3c2bc316	0.010483524
119	0x3d6b346f	0.05742305
120	0xbc449dbb	-0.0120004965
121	0xb9d8ecd4	-0.0004137518
122	0x3d1111c1	0.035417322
123	0x3d53916d	0.05165236
124	0xbc9f3808	-0.019435897
125	0xbd0db669	-0.034597788
126	0xbd530388	-0.05151704
127	0xba3ed81d	-0.0007280128
128	0x3d4aee77	0.049543824
129	0xbb2b1cf3	-0.0026109784
130	0xbcbd1d64	-0.023085304
131	0x3cfe4eb9	0.031043397
132	0x3d869d8a	0.06573017
133	0x3bbabf17	0.005699049
134	0xbd4bb59b	-0.04973374
135	0xbd0bd3be	-0.03413748
136	0x3d003517	0.03130063
137	0xbcd3f519	-0.025873708
138	0xbcde57b5	-0.027141431
139	0xbbb3bbca	-0.0054850327
140	0x3c539d7e	0.012915967
141	0xbbe9ed2d	-0.0071388693
142	0x3cef9b02	0.029248718
143	0xbc8f61a8	-0.01750262
144	0x3b059d1f	0.002038784
145	0x3cc88ad6	0.024480265
146	0x3cc335a5	0.02382929
147	0x3d75e748	0.06003502
148	0x3a46153a	0.00075562636
149	0xbd1c3c8e	-0.038143687
150	0xbd438a2a	-0.047739185
151	0xbc5966fd	-0.013269183
152	0x3cc96f4a	0.0245892
153	0xbd4b660e	-0.049657874
154	0x3d1b8e68	0.037977606
155	0x3c85b5e0	0.016322076
156	0xbc9cef68	-0.019157127
157	0x3c859b93	0.016309535
158	0xbd1f5033	-0.038894843
159	0x3ca739ca	0.020413298
160	0x3d805e13	0.06267943
161	0xbd697f41	-0.057006124
162	0x3d1e2c1a	0.038616277
163	0x3c9dcd21	0.019262852
164	0xbd067c78	-0.032833546
165	0xbb7a3719	-0.0038179813
166	0x3d08be2b	0.033384483
167	0x3d078016	0.033081137
168	0xbca162f0	-0.019700497
169	0x3d004501	0.031315807
170	0xbbcbe685	-0.0062225484
171	0xbd60041f	-0.05469143
172	0xbd67df23	-0.056609284
173	0xbd40863f	-0.047003027
174	0x3d25ef7b	0.04051159
175	0x3d2efbae	0.04272049
176	0x3d61ae48	0.05509785
177	0xbd3efc00	-0.046627045
178	0x3d1728d4	0.03690417
179	0x3c961044	0.018318303
180	0xbd56dc3c	-0.052456126
181	0xbd2ddbee	-0.04244607
182	0xbc322a2b	-0.010874311
183	0x3d61f3a4	0.055163994
184	0xbca21bf2	-0.019788716
185	0x3c452463	0.012032601
186	0xbcb7310e	-0.022362258
187	0x3d0b571d	0.034018625
188	0x3cd11620	0.025523245
189	0xbd056d85	-0.03257515
190	0x3d3b8822	0.045784123
191	0xbce4cabb	-0.0279287
192	0x3c24fb85	0.010069733
193	0xbd1a5e78	-0.03768775
194	0xb91b6586	-0.00014819772
195	0x3d01063c	0.031500086
196	0x3b8243e1	0.003975377
197	0x3d008fb8	0.03138706
198	0x3d2ccb44	0.042186037
199	0xbd08ca71	-0.03339619
200	0xbd84e5c6	-0.06489138
201	0xbb5e29e0	-0.003389947
202	0xbd175a1b	-0.036951166
203	0x3bd38de9	0.006456126
204	0xbc7f1773	-0.015569556
205	0xbd626cdc	-0.055279598
206	0x3d494300	0.04913616
207	0x3c07eead	0.008296651
208	0xbc984ee9	-0.018592315
209	0x3d48d11d	0.04902755
210	0xbb7aa6d0	-0.00382464
211	0xbc3efc81	-0.011656881
212	0xbcafb76a	-0.021449763
213	0x3bc92e99	0.006139588
214	0x3be4467b	0.0069664097
215	0x3c8c6e4d	0.01714244
216	0x3d41e988	0.047341853
217	0x3d76a67e	0.060217373
218	0xbc5ebee6	-0.013595318
219	0x3cf8fa08	0.030392662
220	0x3c978006	0.018493664
221	0x3cd8cd6e	0.026465144
222	0xbd2f35f0	-0.04277605
223	0x3d25c2a6	0.040468834
224	0x3cc0523d	0.023476714
225	0x3be6039f	0.0070194746
226	0xbd7a45aa	-0.061101593
227	0x3c4f3314	0.012646455
228	0xbd523df1	-0.051328603
229	0x3cf7bf1e	0.030242499
230	0xbb0b076d	-0.0021214143
231	0x3c3c5520	0.011494905
232	0x3bd00965	0.006348776
233	0x3c81e894	0.015857972
234	0x3d19f460	0.03758657
235	0x3c4a98b2	0.012365507
236	0xbd3d3dfc	-0.04620169
237	0x3cb9205e	0.022598442
238	0x3d014d56	0.031567894
239	0xbc95f623	-0.018305844
240	0x3cd4b2da	0.02596419
241	0x3d709033	0.05873127
242	0xbce0e9cc	-0.027455233
243	0xbc58f17d	-0.013241169
244	0xbc2e7f6f	-0.0106505
245	0x3d19915f	0.037492152
246	0x3d2cebbd	0.042217005
247	0x3d0f4c0c	0.034984633
248	0xbc9ad896	-0.018902104
249	0xbcd03942	-0.025417928
250	0x3ca7e50e	0.020494964
251	0x3d5f6090	0.05453545
252	0xbd38391d	-0.044976342
253	0xbd2a6ab0	-0.04160565
254	0x3c21f423	0.009884867
255	0x3cc6c4a9	0.024263697

network.2.weight f4 [256]
0	0x3f811f47	1.008767
1	0x3f7fbadc	0.998945
2	0x3f819947	1.0124902
3	0x3f7fa8db	0.9986703
4	0x3f7dcb7e	0.9913863
5	0x3f7b87e9	0.9825426
6	0x3f806c7a	1.0033104
7	0x3f7f7694	0.9979031
8	0x3f80d46f	1.006483
9	0x3f7cdc10	0.9877329
10	0x3f7a13d0	0.9768648
11	0x3f7a652f	0.97810644
12	0x3f7c8ce7	0.986525
13	0x3f7f28b6	0.99671495
14	0x3f7f40cb	0.9970824
15	0x3f7e569e	0.9935092
16	0x3f80aae8	1.0052156
17	0x3f805b4b	1.002786
18	0x3f802487	1.0011147
19	0x3f802f6b	1.0014471
20	0x3f7c49a6	0.9854988
21	0x3f8259bc	1.0183635
22	0x3f802823	1.0012249
23	0x3f7e746a	0.99396384
24	0x3f7f23a9	0.9966379
25	0x3f7f9002	0.99829113
26	0x3f7eca39	0.9952732
27	0x3f8079b7	1.0037144
28	0x3f7cca63	0.9874632
29	0x3f7ec1ee	0.99514663
30	0x3f7f62d2	0.9976016
31	0x3f7ae6e3	0.98008555
32	0x3f7f728b	0.99784154
33	0x3f828816	1.019778
34	0x3f807cd3	1.0038093
35	0x3f80c23d	1.0059277
36	0x3f815068	1.0102663
37	0x3f7fb1b4	0.9988053
38	0x3f7b7188	0.9822011
39	0x3f808852	1.0041602
40	0x3f7efba3	0.9960272
41	0x3f7d6f71	0.9899817
42	0x3f8441f3	1.0332626
43	0x3f80fc58	1.0077009
44	0x3f81e72a	1.0148671
45	0x3f7be254	0.98392224
46	0x3f7fb256	0.99881494
47	0x3f81bdb8	1.0136023
48	0x3f7c2752	0.984975
49	0x3f811105	1.0083319
50	0x3f7d3312	0.9890605
51	0x3f81b884	1.0134435
52	0x3f81ae50	1.0131321
53	0x3f7f3d4c	0.99702907
54	0x3f7e6d59	0.993856
55	0x3f80c203	1.0059208
56	0x3f7fea2b	0.99966687
57	0x3f84400b	1.0332044
58	0x3f7f9ab5	0.9984544
59	0x3f80b8be	1.0056379
60	0x3f7e1ea8	0.9926553
61	0x3f7da406	0.99078405
62	0x3f811df7	1.008727
63	0x3f813cc2	1.0096667
64	0x3f806cb6	1.0033176
65	0x3f7e0b22	0.9923574
66	0x3f7ecb1e	0.9952868
67	0x3f8051fc	1.002502
68	0x3f800783	1.0002292
69	0x3f7fb389	0.99883324
70	0x3f81d5d7	1.0143384
71	0x3f7cbd6a	0.9872652
72	0x3f829f24	1.0204816
73	0x3f81d83a	1.0144112
74	0x3f7e82da	0.99418414
75	0x3f800cfa	1.000396
76	0x3f7c8a23	0.9864828
77	0x3f82805b	1.0195421
78	0x3f800375	1.0001055
79	0x3f80f4ae	1.007467
80	0x3f80ac24	1.0052533
81	0x3f812c03	1.0091556
82	0x3f7d3a1a	0.9891678
83	0x3f7dcc96	0.991403
84	0x3f806527	1.0030869
85	0x3f7c87a4	0.9864447
86	0x3f80c877	1.0061177
87	0x3f817671	1.011427
88	0x3f7f9a19	0.9984451
89	0x3f807b3a	1.0037606
90	0x3f7f7874	0.9979317
91	0x3f801131	1.0005246
92	0x3f7f9b91	0.9984675
93	0x3f80ec36	1.0072086
94	0x3f822a04	1.0169072
95	0x3f7e79a2	0.99404347
96	0x3f805b70	1.0027905
97	0x3f807748	1.0036402
98	0x3f8044a2	1.0020945
99	0x3f7f2023	0.9965841
100	0x3f81771b	1.0114473
101	0x3f7f8e00	0.9982605
102	0x3f7e1b7c	0.9926069
103	0x3f8238aa	1.0173542
104	0x3f80ec28	1.0072069
105	0x3f816d85	1.0111548
106	0x3f803994	1.0017571
107	0x3f81932e	1.0123041
108	0x3f7d560d	0.9895943
109	0x3f7c286f	0.98499197
110	0x3f7f5b16	0.9974836
111	0x3f7fdbac	0.9994457
112	0x3f7cbad5	0.98722583
113	0x3f7f298c	0.9967277
114	0x3f816216	1.0108058
115	0x3f82ada6	1.0209243
116	0x3f7ea815	0.9947522
117	0x3f80b7b2	1.0056059
118	0x3f7fa83a	0.9986607
119	0x3f819aed	1.0125405
120	0x3f8131b1	1.009329
121	0x3f80839e	1.0040166
122	0x3f805642	1.0026324
123	0x3f7ebe5e	0.9950923
124	0x3f808f43	1.004372
125	0x3f8033df	1.001583
126	0x3f7dc122	0.9912282
127	0x3f7defc2	0.99193966
128	0x3f7ff2d4	0.999799
129	0x3f7e14f7	0.9925074
130	0x3f7d23c8	0.9888272
131	0x3f8078f5	1.0036913
132	0x3f7ed87e	0.9954909
133	0x3f805f6b	1.0029119
134	0x3f825d7f	1.0184783
135	0x3f7f082f	0.9962186
136	0x3f7d88ac	0.9903667
137	0x3f7fe479	0.99957997
138	0x3f7f0359	0.99614483
139	0x3f7d0a1e	0.9884356
140	0x3f80701d	1.0034214
141	0x3f7ddb8d	0.9916313
142	0x3f7e8371	0.99419314
143	0x3f80a1ff	1.0049437
144	0x3f7ff510	0.9998331
145	0x3f7ac0df	0.9795055
146	0x3f7c12a1	0.98465925
147	0x3f7dc76b	0.9913241
148	0x3f824719	1.0177947
149	0x3f81664b	1.0109342
150	0x3f7e3cf4	0.9931176
151	0x3f801f3a	1.000953
152	0x3f80bc9e	1.0057561
153	0x3f817bd0	1.011591
154	0x3f7c5354	0.9856465
155	0x3f81b511	1.0133382
156	0x3f7e681c	0.9937761
157	0x3f81a074	1.0127091
158	0x3f7ef444	0.9959147
159	0x3f80f30e	1.0074174
160	0x3f7d2e09	0.9889837
161	0x3f8061d0	1.002985
162	0x3f7f9f00	0.9985199
163	0x3f7ec6da	0.99522173
164	0x3f81c15e	1.0137136
165	0x3f7f9672	0.99838936
166	0x3f826809	1.0187999
167	0x3f8083c9	1.0040218
168	0x3f7d65b7	0.9898333
169	0x3f805950	1.0027256
170	0x3f80719e	1.0034673
171	0x3f7fa024	0.9985373
172	0x3f7f1c9d	0.99653035
173	0x3f7e7fe1	0.9941388
174	0x3f7e9a45	0.99454147
175	0x3f7dce62	0.9914304
176	0x3f7fa447	0.9986004
177	0x3f805250	1.002512
178	0x3f8034dc	1.0016131
179	0x3f7fd9f6	0.99941957
180	0x3f80b6a3	1.0055736
181	0x3f7b2914	0.98109555
182	0x3f7f6b7d	0.9977339
183	0x3f812f18	1.0092497
184	0x3f80e0e6	1.0068634
185	0x3f8017b9	1.000724
186	0x3f800acb	1.0003294
187	0x3f814a20	1.0100746
188	0x3f80245d	1.0011097
189	0x3f80dcff	1.0067443
190	0x3f80462a	1.0021412
191	0x3f82b8ac	1.0212607
192	0x3f82c1c9	1.0215389
193	0x3f7f5b48	0.9974866
194	0x3f834b36	1.0257328
195	0x3f7f571d	0.997423
196	0x3f7c0f81	0.9846116
197	0x3f7c1091	0.9846278
198	0x3f7f873b	0.9981572
199	0x3f7f80c1	0.9980584
200	0x3f822fad	1.01708
201	0x3f7dc963	0.99135417
202	0x3f826697	1.0187558
203	0x3f7d5255	0.98953754
204	0x3f80d2bd	1.0064312
205	0x3f7d8a87	0.990395
206	0x3f81278c	1.0090194
207	0x3f81091e	1.0080907
208	0x3f7a8bbb	0.9786946
209	0x3f806fd1	1.0034124
210	0x3f80b692	1.0055716
211	0x3f804f9a	1.0024292
212	0x3f7c926e	0.98660934
213	0x3f7e4f6a	0.99339926
214	0x3f7d2026	0.9887718
215	0x3f80f6f7	1.0075368
216	0x3f7f6665	0.99765617
217	0x3f7efa56	0.9960073
218	0x3f80a939	1.0051643
219	0x3f8090b1	1.0044156
220	0x3f7efe2b	0.9960658
221	0x3f7ea6a3	0.9947302
222	0x3f7cc2e7	0.987349
223	0x3f8008e0	1.0002708
224	0x3f7c61fc	0.9858701
225	0x3f81a09b	1.0127138
226	0x3f7ec65e	0.99521434
227	0x3f8121af	1.0088404
228	0x3f8061e9	1.002988
229	0x3f818bd8	1.0120802
230	0x3f7e5768	0.9935212
231	0x3f826f6b	1.0190252
232	0x3f8063d7	1.0030469
233	0x3f80aadd	1.0052143
234	0x3f7f0506	0.9961704
235	0x3f809466	1.0045288
236	0x3f7e7cb9	0.9940906
237	0x3f803e1c	1.0018954
238	0x3f7f3a2c	0.9969814
239	0x3f7f5572	0.99739754
240	0x3f811fd9	1.0087844
241	0x3f82a7e0	1.0207481
242	0x3f7c84da	0.98640215
243	0x3f7ec489	0.9951864
244	0x3f800c49	1.0003749
245	0x3f7e1e40	0.9926491
246	0x3f80d09c	1.0063663
247	0x3f7d8e91	0.99045664
248	0x3f80880d	1.0041519
249	0x3f801a13	1.0007957
250	0x3f7bd0b0	0.98365307
251	0x3f8022ec	1.0010657
252	0x3f8001d5	1.0000559
253	0x3f809578	1.0045614
254	0x3f808ed3	1.0043586
255	0x3f7c1cb6	0.9848131

network.2.bias f4 [256]
0	0x3a9bf09a	0.0011897266
1	0x3a3a7551	0.00071128184
2	0x3be0294c	0.0068408605
3	0xbc3d1141	-0.011539758
4	0x38c2e8df	9.2940165e-05
5	0x3b02fb3c	0.0019986173
6	0x3a87cacf	0.0010360124
7	0x3c25c484	0.010117654
8	0xbb8db17d	-0.004324137
9	0x3bdf36b7	0.0068119424
10	0x3c29e97d	0.010370609
11	0xbb221873	-0.002473381
12	0xbaa43891	-0.0012529065
13	0xbb792090	-0.0038013794
14	0xbb86184a	-0.004092251
15	0x3abae027	0.0014257476
16	0x3bb0af57	0.005391996
17	0x3ba78ada	0.005112988
18	0xbc6d0738	-0.014467053
19	0x3bee8924	0.007279532
20	0xbb8230ac	-0.0039730873
21	0xbc0ee831	-0.008722351
22	0x3c8e6355	0.01738135
23	0xbc07a34b	-0.008278678
24	0xbc4cfce9	-0.01251147
25	0xbb401b6d	-0.0029313222
26	0x3c506dd7	0.0127215
27	0x3c096d7c	0.0083879195
28	0x3bb0e1d9	0.005398017
29	0xbb98b169	-0.004659821
30	0x3c35ef22	0.011104377
31	0xb9ede983	-0.00045378142
32	0xb8f812a1	-0.000118290314
33	0xbbbf18b9	-0.0058318046
34	0xbb5f67d2	-0.0034088981
35	0x3c18c6fe	0.009324787
36	0xbc89d08f	-0.016823081
37	0xbc40cf82	-0.011768224
38	0xbbd2aa32	-0.0064289803
39	0xbbf5a5da	-0.0074965777
40	0x3bd6a7e0	0.006550774
41	0x3c3b4403	0.0114297895
42	0xbb560fdd	-0.0032663264
43	0x3b5ad868	0.0033393148
44	0xbb0ddc83	-0.0021646328
45	0x3b87d17b	0.004144845
46	0x3b64b20e	0.0034896168
47	0xbb832121	-0.004001752
48	0x3ba03e0e	0.00489021
49	0xbb0738f4	-0.0020633312
50	0xbb01e4d0	-0.001982022
51	0x3a57f5a4	0.00082382024
52	0x3aee55b2	0.0018183498
53	0xbc5667aa	-0.013086239
54	0x3ba3fea6	0.0050047217
55	0xba2a0b69	-0.00064866856
56	0xbad22d3a	-0.0016035207
57	0xbc87c19d	-0.016571814
58	0xbcbe529d	-0.023232752
59	0xbbbf6193	-0.005840489
60	0xbb5e800d	-0.0033950836
61	0x3c5964a7	0.013268626
62	0xbb36a51f	-0.0027869416
63	0xbbb3976d	-0.005480698
64	0xbba519e1	-0.0050384854
65	0x3a03d726	0.0005029313
66	0xb948e1e9	-0.00019157644
67	0x3b8c2eb7	0.00427803
68	0x3c11a5e9	0.008889654
69	0x3b9449ac	0.004525384
70	0x3a95a9a0	0.001141835
71	0xbb1b79db	-0.0023723755
72	0x3c24712f	0.010036751
73	0xbb112d45	-0.0022152227
74	0x3ca188f4	0.019718625
75	0xbb0c9aa9	-0.002145449
76	0x3ab59c82	0.0013855847
77	0xbbaef7d9	-0.0053396043
78	0xb8925ea2	-6.979449e-05
79	0xbc9b79fd	-0.018979067
80	0xbc1302c5	-0.008972828
81	0x3b8b31ad	0.004247865
82	0xbb0dd7ae	-0.0021643448
83	0xbbccb762	-0.006247447
84	0xbc5ee68a	-0.0136047695
85	0x3b5d89c8	0.0033804048
86	0xba238a32	-0.0006238549
87	0x3c58ff58	0.013244472
88	0xbc34c3b5	-0.011032988
89	0xbc216010	-0.009849563
90	0x3ae4428f	0.0017414856
91	0xbb9c29eb	-0.004765739
92	0x3b9f5a8f	0.0048630903
93	0xba8f39aa	-0.0010927219
94	0xbbe38eab	-0.0069444976
95	0xbcb93254	-0.022607006
96	0x3c627e3b	0.013824041
97	0xbb70c85a	-0.0036740513
98	0xbc2b17f0	-0.010442719
99	0x3a8e49e1	0.0010855758
100	0xbb6512d2	-0.0034953845
101	0xbb55cd0b	-0.0032623436
102	0xbc05d669	-0.008168795
103	0xbb88a1d2	-0.004169681
104	0xbbafda99	-0.005366635
105	0x3a9062d2	0.0011015779
106	0xbb7ad122	-0.0038271626
107	0xbbb950c4	-0.00565538
108	0x3b00b14b	0.0019636925
109	0xbc48d12d	-0.012256903
110	0xbbe44191	-0.006965824
111	0xbb2c7635	-0.0026315574
112	0xbb9e40bb	-0.004829494
113	0xbbbbaf0b	-0.005727654
114	0xbc21687a	-0.009851569
115	0x3b9e605d	0.0048332647
116	0xbb5a73a4	-0.0033333087
117	0xbac2908e	-0.0014844106
118	0xbb749c32	-0.0037324545
119	0x3ca11a94	0.019665994
120	0x3b620031	0.0034484977
121	0xbc986b4f	-0.018605856
122	0x3c1a1849	0.009405204
123	0xbb980a53	-0.0046399026
124	0x3caaa6d9	0.020831512
125	0x3ba56f4b	0.0050486675
126	0xbc281ec6	-0.010261243
127	0x3be8632f	0.0070919017
128	0x3c2fcd73	0.010730135
129	0x3ad5d893	0.0016315154
130	0xbcaab0ba	-0.020836223
131	0xbc1dc5bc	-0.009629663
132	0x3c05029d	0.008118299
133	0x3bc128ec	0.005894771
134	0x3c5e63c0	0.013573587
135	0xbc418e10	-0.0118136555
136	0x3c018902	0.0079062
137	0x3c78df0d	0.015189898
138	0x3c209752	0.009801703
139	0x3bdda564	0.006764101
140	0x3b371416	0.0027935556
141	0x3b96e877	0.0046053487
142	0x3bf6b1f4	0.007528538
143	0x3b1d3edb	0.0023993764
144	0x3b8007b5	0.0039071687
145	0x3cc7fb3b	0.024411788
146	0x3c4c1e05	0.012458329
147	0xbbbae22d	-0.005703232
148	0xbbd38888	-0.006455485
149	0xbc6fa9b0	-0.014627859
150	0x3b327d23	0.0027235232
151	0x3b91da7b	0.0044510937
152	0xbb68a8df	-0.0035501046
153	0xbbdb215e	-0.0066873273
154	0xbcccb196	-0.024987023
155	0xbc4dde13	-0.012565154
156	0x3b94f6f3	0.00454604
157	0xbc20e058	-0.009819113
158	0x3b1f831c	0.0024339622
159	0xbb241ee8	-0.0025042836
160	0xbc5906be	-0.013246236
161	0xbb511502	-0.003190339
162	0x3c882262	0.016617958
163	0x3c65d383	0.014027479
164	0xbc32ff87	-0.01092518
165	0xbc390703	-0.011293176
166	0x3bed417e	0.0072404733
167	0xbc7a8078	-0.015289418
168	0x3c0250fc	0.0079538785
169	0xba3dae75	-0.0007235774
170	0xbb0ee083	-0.00218013
171	0xba1af858	-0.000591164
172	0xbb0fcf65	-0.0021943685
173	0xbbbbecf4	-0.005735034
174	0xbc00ffc9	-0.007873484
175	0x3b342ba2	0.0027491827
176	0x3c419689	0.0118156755
177	0x3b1f4da2	0.0024307747
178	0xbbaab90c	-0.0052100476
179	0x3c080bfe	0.00830364
180	0xbbd392f7	-0.0064567286
181	0xbba6b6bd	-0.005087702
182	0x3c8e003f	0.017334102
183	0x3c070143	0.008240047
184	0x3bb4abc2	0.005513639
185	0x3bfda999	0.007741165
186	0xbb1eb069	-0.0024214035
187	0x3bac2215	0.0052530863
188	0x3b145497	0.0022633427
189	0xbb9e8806	-0.0048379926
190	0xbb3cf5f0	-0.0028833114
191	0x3bc31621	0.0059535657
192	0x3baf1436	0.0053429855
193	0x3b8ef3cb	0.0043625585
194	0x3bafcbbe	0.005364864
195	0xbc1ca600	-0.009561062
196	0xbc0c1942	-0.008550944
197	0x3c20697c	0.009790774
198	0xbbebe288	-0.0071986355
199	0xbc19b7b3	-0.009382176
200	0xbb3a8a46	-0.0028463765
201	0xbb991e32	-0.004672789
202	0xbc32e26c	-0.010918241
203	0xbc4c8a3e	-0.012484131
204	0xbc906740	-0.017627358
205	0xbbccaeb0	-0.0062464103
206	0xbc1dd854	-0.009634096
207	0x3bb25ba9	0.0054430556
208	0xbc047de4	-0.008086655
209	0x3a4465f7	0.00074920006
210	0xbc595866	-0.013265705
211	0x3ba472c5	0.0050185644
212	0xbc555aa2	-0.013022097
213	0x3b993b64	0.0046762694
214	0xb9f45d0c	-0.00046608632
215	0x3b2c5c22	0.0026300033
216	0xb5d16b24	-1.5602895e-06
217	0xbcc6a2cc	-0.02424755
218	0x3b07cd9d	0.002072192
219	0xbc0f0f3a	-0.008731658
220	0x3c862c66	0.016378593
221	0xbbfed21e	-0.0077765128
222	0xbadc0c66	-0.0016788363
223	0x3bb71807	0.005587581
224	0xbb70bfc7	-0.0036735402
225	0xbc29b737	-0.010358623
226	0x3b536335	0.0032255177
227	0xbc714e26	-0.014728105
228	0x3c19ba59	0.009382808
229	0xba8a1cc8	-0.0010537142
230	0xbbc454fd	-0.0059915767
231	0x3b20b5e5	0.002452248
232	0xb9cdaded	-0.00039230232
233	0x3a79164a	0.00095019175
234	0xba29a6b0	-0.0006471677
235	0xbc37afb7	-0.011211327
236	0xbc23212d	-0.00995664
237	0x3bc01efc	0.0058630686
238	0xbb1b95f8	-0.0023740511
239	0xbc93bbec	-0.018033944
240	0xbbae64ae	-0.0053220605
241	0x3c275076	0.0102120545
242	0x3ad3a1f7	0.0016146292
243	0x3b3bed23	0.002867528
244	0x3bac2f33	0.00525465
245	0xbabb6e69	-0.0014299873
246	0x3bcbb741	0.006216914
247	0xb7833268	-1.563989e-05
248	0x3aac10d3	0.0013127573
249	0xbbffdfed	-0.0078086765
250	0x3b1e088f	0.0024113988
251	0xbbef7ea4	-0.007308798
252	0x3b27eb78	0.0025622528
253	0x3b80bcb3	0.0039287447
254	0xbb4edfe8	-0.0031566564
255	0xbb82811a	-0.0039826753

network.2.running_mean f4 [256]
0	0x3ecc56ac	0.39909875
1	0x3ed3c0c2	0.41358
2	0x3f1704a9	0.58991486
3	0x3e9bc97a	0.30427152
4	0x3e877189	0.26453808
5	0x3ea12b38	0.31478286
6	0x3ec6c0cb	0.38818964
7	0x3eb5ca7c	0.35506046
8	0x3e9c7e1a	0.30564958
9	0x3e985157	0.29749557
10	0x3ebebae2	0.37251955
11	0x3eb3d14a	0.35120612
12	0x3e9e7560	0.30948925
13	0x3eb15e55	0.34642282
14	0x3ef220fb	0.47290787
15	0x3e66547b	0.22493164
16	0x3eb6b959	0.35688284
17	0x3f0aef88	0.54271746
18	0x3eb3dc1f	0.35128877
19	0x3ecda927	0.40168115
20	0x3e2c23c0	0.16810513
21	0x3ec8553c	0.3912753
22	0x3f011ca1	0.5043431
23	0x3ea3ed34	0.3201691
24	0x3ea8cd7f	0.3296928
25	0x3eb00c90	0.34384584
26	0x3f04c2d0	0.5185976
27	0x3ee27e12	0.4423681
28	0x3eafc950	0.34333277
29	0x3ea88746	0.32915705
30	0x3ecf2092	0.40454537
31	0x3e8aeaa5	0.27132145
32	0x3e8e29da	0.27766305
33	0x3ec0bbf8	0.3764341
34	0x3eb38697	0.3506362
35	0x3ebb405b	0.36572537
36	0x3ea4e424	0.32205307
37	0x3edb518f	0.42835662
38	0x3eb08d58	0.34482837
39	0x3edf6449	0.436312
40	0x3ea0f0ae	0.31433624
41	0x3eda5d22	0.4264918
42	0x3e98624e	0.297625
43	0x3ebd75b7	0.37003872
44	0x3ed08b15	0.4073111
45	0x3ec4aa9a	0.3841141
46	0x3e91e1ac	0.28492486
47	0x3ebd5413	0.36978206
48	0x3f0e25b6	0.5552629
49	0x3ec230c4	0.3792783
50	0x3ebd006c	0.36914384
51	0x3e9d8119	0.30762556
52	0x3ed917eb	0.4240106
53	0x3ed56b87	0.416836
54	0x3f0a9ad3	0.54142493
55	0x3ec504de	0.38480276
56	0x3e868533	0.26273498
57	0x3efe8ec9	0.4971831
58	0x3f03c8aa	0.51478064
59	0x3ed8a2a4	0.42311585
60	0x3ebc2a7f	0.36751172
61	0x3eb10506	0.34574145
62	0x3eef2294	0.4670607
63	0x3eaafcd8	0.3339603
64	0x3ecca8fb	0.39972672
65	0x3e824190	0.25440645
66	0x3ea137c5	0.3148786
67	0x3e612670	0.21987319
68	0x3eac323f	0.33632085
69	0x3ed1af65	0.40954128
70	0x3eda339a	0.42617494
71	0x3eba1a67	0.36348268
72	0x3eb26eb6	0.3485009
73	0x3eb1e507	0.34745046
74	0x3eb1f0ae	0.34753937
75	0x3e9159f5	0.28388944
76	0x3ee3f096	0.4451949
77	0x3ed02043	0.40649614
78	0x3e9e1d0d	0.3088154
79	0x3eb80111	0.35938314
80	0x3e7b9dfa	0.24571982
81	0x3e86a41e	0.26297086
82	0x3ece2096	0.40259236
83	0x3ec8ead2	0.39241654
84	0x3e909255	0.28236642
85	0x3e9c5140	0.3053074
86	0x3e8a202f	0.2697768
87	0x3f045452	0.5169116
88	0x3ef0bcd6	0.4701907
89	0x3e9b6042	0.30346876
90	0x3ebfe68c	0.3748058
91	0x3e9a5853	0.3014551
92	0x3eb864aa	0.360143
93	0x3eb04030	0.3442397
94	0x3ea00c7e	0.3125953
95	0x3ed384f9	0.41312388
96	0x3f05a3b6	0.5220293
97	0x3ec014e0	0.37515926
98	0x3ebdc0ff	0.37061307
99	0x3ec23776	0.37932938
100	0x3ed4ca4d	0.41560593
101	0x3ea81d04	0.32834637
102	0x3ed101d0	0.40821695
103	0x3e8f3651	0.27971128
104	0x3ebddfdd	0.37084857
105	0x3ee05ba8	0.43819928
106	0x3ec26105	0.37964645
107	0x3ebc8820	0.36822605
108	0x3eae5343	0.340479
109	0x3ee8ad4b	0.45444712
110	0x3ebacd98	0.3648498
111	0x3e8d898a	0.27643996
112	0x3e810f64	0.25207055
113	0x3ed5e398	0.41775203
114	0x3e9150ce	0.28381962
115	0x3ece6455	0.40310922
116	0x3eb360ca	0.35034782
117	0x3eefa3a1	0.46804526
118	0x3eb5aeb6	0.35484856
119	0x3eefa304	0.4680406
120	0x3ed3de52	0.41380554
121	0x3edee7f8	0.43536353
122	0x3f05243a	0.520084
123	0x3ed030a9	0.40662125
124	0x3ecd0094	0.40039504
125	0x3e8b38aa	0.2719167
126	0x3e9bcbc8	0.3042891
127	0x3eb59a1c	0.3546914
128	0x3ec2941b	0.3800362
129	0x3eb0f86e	0.34564537
130	0x3e8bc991	0.2730222
131	0x3ed3661c	0.4128884
132	0x3ee23015	0.4417731
133	0x3e954b75	0.29159132
134	0x3e8ccc00	0.2749939
135	0x3ec470cb	0.38367304
136	0x3edd7d38	0.43259597
137	0x3eb578b7	0.3544366
138	0x3ed50e83	0.41612634
139	0x3ef37ecb	0.47557673
140	0x3ea85970	0.32880735
141	0x3ee28ff0	0.4425044
142	0x3ec48c74	0.38388407
143	0x3e99d711	0.30046895
144	0x3ed9642c	0.42459238
145	0x3e8ed017	0.27893135
146	0x3e8795ee	0.26481575
147	0x3e7c3c7e	0.24632451
148	0x3ed9593b	0.4245089
149	0x3eb42e18	0.35191417
150	0x3e9e4157	0.30909225
151	0x3e963465	0.2933685
152	0x3e9b57de	0.30340475
153	0x3ec20510	0.37894487
154	0x3ed7ec2f	0.4217238
155	0x3ed58e41	0.41710094
156	0x3e6427bb	0.22280781
157	0x3ecd4139	0.40088823
158	0x3ea1bdb8	0.31590056
159	0x3eb05f2f	0.3444762
160	0x3ebeadce	0.37241977
161	0x3e810b3f	0.25203893
162	0x3e9511d5	0.29115167
163	0x3e9878ad	0.29779568
164	0x3ea7dc8a	0.32785445
165	0x3ebcc413	0.36868343
166	0x3eac2481	0.336216
167	0x3ec2e555	0.3806559
168	0x3e85eef5	0.26158872
169	0x3ebea3b9	0.37234285
170	0x3ee6a8a8	0.4505055
171	0x3e8405a2	0.25785547
172	0x3e769150	0.2407887
173	0x3e963c24	0.2934276
174	0x3ef2bf63	0.4741164
175	0x3eb3bc6a	0.35104686
176	0x3eb86bb8	0.36019683
177	0x3e9be37d	0.30446997
178	0x3ebbdd4c	0.36692274
179	0x3e871168	0.26380467
180	0x3ea637a1	0.32464316
181	0x3ec13f8d	0.37743798
182	0x3e800ce6	0.2500984
183	0x3ecb29a1	0.39680198
184	0x3ede5952	0.4342752
185	0x3ed07d53	0.40720615
186	0x3eced070	0.403934
187	0x3f124fba	0.57152903
188	0x3ec0d308	0.37661004
189	0x3ee34f7e	0.44396585
190	0x3ea66bd8	0.32504153
191	0x3ed866de	0.4226598
192	0x3ed2d1e9	0.41175774
193	0x3e9b03a2	0.3027621
194	0x3eb38e8d	0.35069695
195	0x3eb814ad	0.35953274
196	0x3e8c04ce	0.27347416
197	0x3ea4ddae	0.32200378
198	0x3e9e30e3	0.30896673
199	0x3ee761d8	0.45191836
200	0x3e946af5	0.28987852
201	0x3e9dd3b6	0.30825585
202	0x3ecda90a	0.4016803
203	0x3eaebd67	0.34128878
204	0x3ec6f2ce	0.3885712
205	0x3eaf7966	0.34272307
206	0x3ee77d78	0.45212913
207	0x3e9b0a72	0.30281407
208	0x3e975319	0.29555586
209	0x3ec02de5	0.37535015
210	0x3ec29cdd	0.38010302
211	0x3eacdf87	0.33764288
212	0x3e87deb8	0.26537108
213	0x3ec54538	0.38529372
214	0x3ecabe9d	0.3959855
215	0x3eaf8f89	0.34289196
216	0x3eb410e8	0.35169148
217	0x3ec237c7	0.3793318
218	0x3eba5f8e	0.36401027
219	0x3ea7707a	0.32703
220	0x3eeb41b0	0.45948553
221	0x3eb9bafa	0.36275464
222	0x3ec2e721	0.38066962
223	0x3ec81dff	0.39085385
224	0x3ea4b3b0	0.3216834
225	0x3e9a80b7	0.30176327
226	0x3efffd29	0.49997833
227	0x3ed13f77	0.40868732
228	0x3eb9e5ad	0.3630804
229	0x3ecd34b2	0.40079266
230	0x3ea58234	0.323259
231	0x3eaa0a29	0.33210877
232	0x3ed0031b	0.4062737
233	0x3ed4f283	0.41591272
234	0x3eb1ec7f	0.34750745
235	0x3eabf5b8	0.33585906
236	0x3e8bd7b2	0.27313
237	0x3e980793	0.2969328
238	0x3ea3b57c	0.319744
239	0x3e984f42	0.2974797
240	0x3eace96d	0.3377184
241	0x3ef66ade	0.48128408
242	0x3e9db710	0.30803728
243	0x3e8e5328	0.27797818
244	0x3eaa8ce1	0.33310607
245	0x3ebb6c47	0.36606047
246	0x3ee9c94e	0.45661396
247	0x3ec1f4ab	0.3788198
248	0x3eb935be	0.36173815
249	0x3ed0de5a	0.4079464
250	0x3eac20bb	0.3361872
251	0x3e7440f7	0.23852907
252	0x3ecd95bd	0.40153304
253	0x3ec06b14	0.37581694
254	0x3eb97098	0.36218715
255	0x3eb7f4dd	0.35929003

network.2.running_var f4 [256]
0	0x3f0185a8	0.5059457
1	0x3ecaa065	0.39575496
2	0x3f332994	0.6998532
3	0x3e9754bf	0.29556844
4	0x3de2ba31	0.110706694
5	0x3e8b3791	0.2719083
6	0x3e8e279d	0.27764598
7	0x3e8cc34b	0.27492747
8	0x3e7ef9d9	0.24899997
9	0x3e4a65d8	0.19765413
10	0x3ea226bc	0.31670177
11	0x3e79b3ec	0.24385041
12	0x3e5cd78f	0.21566604
13	0x3e8cff12	0.27538353
14	0x3f26f7d2	0.65221894
15	0x3dc74ec8	0.09731823
16	0x3ee5a3a2	0.44851404
17	0x3f163c53	0.586858
18	0x3ee5a3d3	0.4485155
19	0x3e9ebbe2	0.31002718
20	0x3db37026	0.08761625
21	0x3ed42790	0.41436434
22	0x3ed61888	0.4181559
23	0x3e882e6c	0.26597917
24	0x3eae6e8f	0.34068725
25	0x3e805159	0.25062063
26	0x3ef75587	0.4830744
27	0x3ebe5d86	0.37180728
28	0x3ed263d7	0.41091797
29	0x3e8ad133	0.2711273
30	0x3eac2502	0.33621985
31	0x3e89a736	0.26885384
32	0x3e679bc9	0.22618021
33	0x3e96235d	0.29323855
34	0x3e7b5055	0.24542363
35	0x3ea29c86	0.31760043
36	0x3e8fe75f	0.2810621
37	0x3eb84e84	0.35997403
38	0x3e890e32	0.26768643
39	0x3ed45f06	0.41478747
40	0x3e582617	0.2110828
41	0x3ec9b00f	0.39392135
42	0x3e74c14d	0.23901863
43	0x3eb3b2b0	0.35097265
44	0x3ec48da5	0.38389316
45	0x3ebacd76	0.3648488
46	0x3e85a5da	0.26103097
47	0x3ea590ee	0.32337135
48	0x3f4563d0	0.77105427
49	0x3eaa0d28	0.33213162
50	0x3e9f6c72	0.31137425
51	0x3e260928	0.1621443
52	0x3ea7629c	0.3269242
53	0x3ec27c07	0.3798525
54	0x3f0a9b5c	0.5414331
55	0x3ebf74f4	0.37393916
56	0x3e3d99fe	0.18515775
57	0x3f0bac05	0.54559356
58	0x3f2476b8	0.6424365
59	0x3f090971	0.5353003
60	0x3e8b3205	0.271866
61	0x3e9eea24	0.3103801
62	0x3ef9df33	0.488031
63	0x3e8d548e	0.27603573
64	0x3eb751b0	0.3580451
65	0x3e05e3c8	0.13075173
66	0x3e35cd4e	0.17754099
67	0x3dcb2267	0.09918671
68	0x3e732528	0.23744643
69	0x3e8f6019	0.28003004
70	0x3eb7212a	0.3576749
71	0x3e997b8b	0.29977068
72	0x3e9c0e54	0.30479681
73	0x3e5e9dfe	0.21739957
74	0x3e9f06c8	0.3105986
75	0x3e3ede5a	0.18639508
76	0x3f04b2f6	0.5183557
77	0x3ec0bc71	0.3764377
78	0x3e5f2593	0.21791677
79	0x3eb10678	0.34575248
80	0x3e173034	0.14764482
81	0x3dffc331	0.12488402
82	0x3ec639fb	0.3871611
83	0x3e90d72a	0.28289157
84	0x3e3d16f3	0.18465786
85	0x3e4b7993	0.19870596
86	0x3e0d2dc2	0.13786986
87	0x3f01ef32	0.5075561
88	0x3eff587c	0.49872196
89	0x3e172dbb	0.14763539
90	0x3e8e368d	0.27775994
91	0x3e64dcf6	0.22349915
92	0x3ea2b078	0.3177526
93	0x3e8c0afb	0.27352127
94	0x3e8ce7f6	0.27520722
95	0x3eed91e6	0.46400374
96	0x3f476089	0.77881676
97	0x3ea9620b	0.33082613
98	0x3eb4dbed	0.3532404
99	0x3ea33897	0.31879112
100	0x3ee3d49d	0.4449815
101	0x3eb71c97	0.35764
102	0x3ef4223f	0.47682378
103	0x3e239471	0.15974595
104	0x3eab0e81	0.33409503
105	0x3ecd8cc0	0.40146446
106	0x3e9041a6	0.28175086
107	0x3e9261f0	0.28590345
108	0x3e90ff70	0.28319883
109	0x3f2a001e	0.6640643
110	0x3e7f4aa8	0.24930823
111	0x3e1e74d2	0.15474251
112	0x3e19fb5b	0.15037291
113	0x3eccfd78	0.4003713
114	0x3e319ca8	0.17344916
115	0x3ec28d62	0.37998492
116	0x3e6952d0	0.22785497
117	0x3ec91db7	0.39280483
118	0x3e845718	0.25847697
119	0x3f1e82a1	0.61918074
120	0x3ee4f0ec	0.4471506
121	0x3f0404ab	0.5156962
122	0x3f1da7f7	0.6158442
123	0x3e8c375f	0.27385995
124	0x3edc6682	0.43046957
125	0x3e1bcf09	0.15215696
126	0x3e67b808	0.22628796
127	0x3e59d542	0.21272758
128	0x3ec6e32b	0.3884519
129	0x3e98b831	0.29828027
130	0x3e4de9d9	0.20108737
131	0x3ebc86ee	0.36821693
132	0x3eb2b398	0.34902644
133	0x3e446153	0.19177751
134	0x3e646c8b	0.22307031
135	0x3eb14b1b	0.34627613
136	0x3eb3853e	0.35062593
137	0x3e807fa7	0.2509739
138	0x3efbd666	0.4918701
139	0x3f3a5f40	0.7280159
140	0x3e3a8c57	0.18217598
141	0x3ef478f9	0.47748545
142	0x3e8d3a65	0.27583614
143	0x3e72add8	0.23699129
144	0x3ec09982	0.37617117
145	0x3e52673d	0.20547195
146	0x3e031668	0.12801516
147	0x3deff99b	0.1171753
148	0x3eb7c5b0	0.3589301
149	0x3e983a9b	0.29732212
150	0x3e51955f	0.20467137
151	0x3e3c4f50	0.1838963
152	0x3e41996e	0.18906185
153	0x3ea65ada	0.3249119
154	0x3ed32deb	0.4124597
155	0x3eca25c0	0.39481926
156	0x3de149ed	0.11000428
157	0x3e9e15c1	0.30875972
158	0x3e5e6eb3	0.21721916
159	0x3e8714a9	0.2638295
160	0x3e881ed5	0.26586023
161	0x3e22e676	0.15908226
162	0x3e39ba33	0.18137436
163	0x3e2eb293	0.17060308
164	0x3e9544ed	0.2915415
165	0x3e662784	0.22476012
166	0x3e438812	0.19094875
167	0x3eb6a28c	0.35670888
168	0x3e124922	0.1428571
169	0x3eb3d728	0.3512509
170	0x3efd141e	0.4942941
171	0x3e56ec92	0.20988682
172	0x3df6d6ba	0.120526746
173	0x3e933985	0.2875482
174	0x3f222060	0.6333065
175	0x3e7cc6cd	0.24685211
176	0x3ed33aa8	0.4125569
177	0x3e7b6b26	0.24552593
178	0x3e9d1d7a	0.3068655
179	0x3e005caa	0.12535349
180	0x3e872c83	0.26401147
181	0x3ea40118	0.32032084
182	0x3df77573	0.120829485
183	0x3ea89190	0.32923555
184	0x3ed31721	0.41228583
185	0x3eb33052	0.34997803
186	0x3eae7c89	0.34079388
187	0x3f310ca4	0.69159913
188	0x3eb4bab1	0.35298684
189	0x3ed48b6e	0.41512626
190	0x3e761dbc	0.2403478
191	0x3ea03821	0.31292823
192	0x3ec00db0	0.37510443
193	0x3e95c7ad	0.29253903
194	0x3e95e21b	0.29274067
195	0x3e7f493a	0.24930277
196	0x3e2acc43	0.16679482
197	0x3e576c6c	0.21037453
198	0x3e4bdd22	0.19908574
199	0x3f193008	0.59838915
200	0x3eb597b6	0.3546731
201	0x3e828f22	0.25499827
202	0x3eb928ee	0.3616404
203	0x3e856225	0.2605144
204	0x3ea48911	0.32135823
205	0x3e824195	0.2544066
206	0x3f174053	0.59082526
207	0x3e446dd7	0.19182526
208	0x3e289660	0.16463614
209	0x3e9c4f0a	0.30529052
210	0x3eafc5ea	0.34330684
211	0x3eb8126e	0.3595156
212	0x3e12283c	0.1427316
213	0x3eea3570	0.45743895
214	0x3eba2224	0.36354172
215	0x3ea2207d	0.31665412
216	0x3e72861e	0.23683974
217	0x3e8f1ca8	0.2795155
218	0x3e93d4d7	0.2887332
219	0x3e7ca70d	0.246731
220	0x3f13039d	0.5742739
221	0x3eba54ff	0.36392972
222	0x3ed12900	0.40851593
223	0x3e994d2d	0.29941693
224	0x3e86baf1	0.263145
225	0x3e83c8cb	0.2573913
226	0x3f44405d	0.7666071
227	0x3ec2b953	0.38032016
228	0x3eb45c0f	0.35226485
229	0x3ecac0f4	0.39600337
230	0x3e836063	0.25659475
231	0x3e949f4c	0.29027784
232	0x3ea6f478	0.3260839
233	0x3f056026	0.52099836
234	0x3ecc44a7	0.39896128
235	0x3e82b70c	0.2553028
236	0x3e334f19	0.17510642
237	0x3e296583	0.1654263
238	0x3e509649	0.20369829
239	0x3e48ed97	0.19621883
240	0x3e9b7907	0.30365774
241	0x3f14129c	0.57840896
242	0x3e898aae	0.26863617
243	0x3e4cf190	0.20014024
244	0x3e75d78f	0.2400801
245	0x3e7c93e8	0.24665797
246	0x3eea7f7a	0.45800382
247	0x3e92088c	0.28522146
248	0x3ea2e6d5	0.31816736
249	0x3ee2e927	0.44318506
250	0x3e818fd6	0.2530505
251	0x3e151daf	0.14562105
252	0x3eaaf8fd	0.33393088
253	0x3ec0b187	0.37635443
254	0x3eb106e9	0.34575585
255	0x3e7d17a2	0.24716046

network.4.weight f4 [128, 256]
0	0x3d616504	0.055027977
1	0x3cfa343c	0.030542485
2	0x394e44e3	0.00019671353
3	0xbd5a4c68	-0.053295523
4	0xba810b42	-0.0009845274
5	0x3bb2d0ee	0.0054570353
6	0xbbd80734	-0.0065926556
7	0x3cfabc98	0.030607507
8	0x3b40b393	0.002940391
9	0x3d35b508	0.044362098
10	0x3cc35627	0.023844792
11	0x3cfff26a	0.031243522
12	0x3c4dbd44	0.0125573315
13	0x3c96e4ce	0.01841965
14	0x3d18f5ee	0.03734391
15	0xbc4401aa	-0.011963287
16	0x3c63b498	0.013898037
17	0xbc974a06	-0.018467914
18	0x3d6dccd3	0.058056664
19	0xbc53af6a	-0.01292024
20	0x3d219400	0.039447784
21	0x3d4c34f9	0.049855206
22	0xbd12e574	-0.035863355
23	0x3d8ecb79	0.06972403
24	0xbd581c99	-0.052761648
25	0xbd609d41	-0.05483747
26	0x3b14b21b	0.0022689167
27	0xbd8d2a12	-0.0689279
28	0x3cf833f4	0.03029821
29	0x3d9b49e6	0.075824544
30	0x3d019727	0.03163829
31	0xbd766d7c	-0.060163006
32	0xbd72b49e	-0.05925428
33	0xbd0222ad	-0.03177135
34	0x3cc58293	0.024110114
35	0xbd427a0e	-0.04747968
36	0xbd5c7972	-0.053826757
37	0x3c7f96e2	0.015599938
38	0x3cdb78c6	0.026790988
39	0xbcc5e964	-0.02415914
40	0xbd4c9372	-0.049945302
41	0xbd427a1a	-0.047479726
42	0xbbee4b72	-0.0072721774
43	0x3a26cb58	0.0006362698
44	0xbd887043	-0.06662037
45	0xbbcb803b	-0.0062103546
46	0x3d369676	0.044577084
47	0xbca8f31b	-0.020623734
48	0xbd63c854	-0.05561097
49	0xbd938d16	-0.072046444
50	0xbcaab197	-0.020836635
51	0x3bfe694e	0.007764018
52	0x3c7d293d	0.0154517265
53	0x3d399eda	0.04531751
54	0xbd8da447	-0.06916099
55	0x3d6432aa	0.05571238
56	0xbc10721f	-0.008816271
57	0xbcf47cab	-0.029844603
58	0x3cd60a3c	0.026127927
59	0x3d3c323f	0.045946356
60	0xbd180aeb	-0.037119787
61	0xbc07c58e	-0.008286847
62	0xbd72c078	-0.059265584
63	0xbd39d555	-0.045369465
64	0x3a74aac5	0.0009333308
65	0x3bf8ecfa	0.007596609
66	0x3d555527	0.05208316
67	0xbc8f0d0c	-0.017462276
68	0xbd1ab66a	-0.03777162
69	0xbd2cb708	-0.04216674
70	0x3d052119	0.032502268
71	0xbc046c82	-0.008082511
72	0x3d3a658f	0.04550701
73	0x3d65fb11	0.05614764
74	0xbd25c975	-0.040475328
75	0xbc8e6bda	-0.017385412
76	0x3d794bc9	0.06086329
77	0xbcbddd5d	-0.023176843
78	0x3bae8877	0.0053263265
79	0x3a7f1a55	0.0009731402
80	0xbc8714c0	-0.016489387
81	0x3d556a4a	0.05210332
82	0x3d60e82d	0.05490892
83	0x3c533ebb	0.012893374
84	0x3d31f611	0.043447558
85	0x3ca1a50c	0.01973202
86	0xbd4a3304	-0.04936506
87	0xbc505ca9	-0.012717404
88	0xbd83f7ff	-0.06443786
89	0x3c829ef4	0.015944935
90	0xbd2223d4	-0.03958495
91	0x3d8b5bf9	0.06804652
92	0x3be27990	0.006911464
93	0xbd84cf1e	-0.06484817
94	0xbd9add3e	-0.0756173
95	0xbcc780a2	-0.02435333
96	0x3d067e4f	0.0328353
97	0x3d5182dd	0.05115019
98	0x3b6249fb	0.003452896
99	0xbd7d9042	-0.061905153
100	0x3cce6f6a	0.02519961
101	0xbd8c4120	-0.06848359
102	0xbd04d7ca	-0.032432355
103	0x3cb72168	0.022354797
104	0xbd2f8ee6	-0.042860888
105	0xbbf10b69	-0.0073560965
106	0x3d8046a1	0.062634714
107	0x3d29b70a	0.041434325
108	0xbd67987c	-0.056541905
109	0x3d0c6d87	0.03428414
110	0x3d2a7f7c	0.041625485
111	0x3d7a18ee	0.06105893
112	0x3d65b08f	0.056076583
113	0xbc11f3f9	-0.008908265
114	0x3d193b20	0.0374099
115	0xbd4b782e	-0.04967516
116	0xbd4ddc60	-0.050258994
117	0x3cb1eb34	0.021718599
118	0xbc4e9020	-0.012607604
119	0x3d8528ea	0.06501944
120	0xbbe32c76	-0.0069327904
121	0x3c512806	0.01276589
122	0x3ca9ac80	0.020712137
123	0x3d441616	0.047872625
124	0x3d17f33e	0.03709721
125	0x3cf5d231	0.030007454
126	0xbb919fbe	-0.0044440916
127	0x3d68c6ac	0.056830093
128	0xbd84e5e2	-0.06489159
129	0xbc95a5b5	-0.018267492
130	0xbbbc5653	-0.0057475953
131	0xbcf2a469	-0.029619412
132	0x3d20c923	0.03925432
133	0x3ceccb54	0.028905548
134	0xbc8c2481	-0.01710725
135	0xbd0dc99c	-0.034616098
136	0xbcc71507	-0.024302019
137	0xbc90f363	-0.01769418
138	0x3cd97310	0.026544124
139	0x3ca21404	0.019784935
140	0x3d972784	0.07380584
141	0xbcdf10f0	-0.027229756
142	0xbcd231b7	-0.025658472
143	0x3d5ee6fa	0.054419495
144	0x3d16deab	0.036833446
145	0xbd10421f	-0.035219308
146	0xbd0cb712	-0.034354277
147	0x3d0c413a	0.034241892
148	0x3c874e0b	0.016516706
149	0x3d225584	0.039632335
150	0x3d77556d	0.060384203
151	0xbac71063	-0.0015187379
152	0x3d4e7c72	0.05041165
153	0x3ce249f9	0.027623164
154	0x3d15f54c	0.036610886
155	0xbcf3ab12	-0.029744659
156	0xbc3a5960	-0.011373848
157	0x3b329559	0.0027249663
158	0x3cfbf506	0.030756485
159	0xbd0317df	-0.032005187
160	0xbd40112f	-0.046891388
161	0x3d53823b	0.05163787
162	0x3d7ce985	0.06174614
163	0x3baebecf	0.0053328048
164	0xbc86387c	-0.016384356
165	0x3d342bd6	0.043987118
166	0x3d1e0b77	0.038585152
167	0xbcc93b5f	-0.024564443
168	0xbd6cabfb	-0.0577812
169	0xbb0aadc5	-0.0021160704
170	0xbd641ae2	-0.0556897
171	0xbcdd3c89	-0.027006404
172	0x3d5c7b37	0.053828444
173	0x3c887f6b	0.01666232
174	0x39f1f5e7	0.00046150314
175	0xbb96c57b	-0.004601178
176	0xbd2ff213	-0.04295547
177	0x3cd16f07	0.025565637
178	0x3be10570	0.0068671033
179	0xbc6cbeea	-0.014449814
180	0xbd399522	-0.04530824
181	0x3d1d05c2	0.03833557
182	0x3ccac94c	0.024754189
183	0x3d1baf3c	0.038008913
184	0xbc568ca7	-0.013095058
185	0xbc8681f4	-0.016419388
186	0xbd29df6e	-0.041472845
187	0xbbc9383b	-0.0061407364
188	0xbd206308	-0.039156944
189	0xbc01a859	-0.007913672
190	0x3d41a2ce	0.047274403
191	0xbd605d8c	-0.054776713
192	0xbc99cb35	-0.018773654
193	0x3c949151	0.018135699
194	0xbd4f6b3b	-0.050639372
195	0xbb78f4ea	-0.0037987777
196	0xbc307bfb	-0.010771747
197	0x3d3a2ec0	0.04545474
198	0x3d20cc46	0.03925731
199	0xbccb973b	-0.024852386
200	0x3c8a09f3	0.016850447
201	0x3cc07ebd	0.023497934
202	0x3afafcc3	0.0019148815
203	0xbc3df5a1	-0.011594207
204	0xbb76fd19	-0.003768748
205	0xbd16843a	-0.036747195
206	0xbc881f5b	-0.016616514
207	0x3d34a84e	0.04410582
208	0x3c2faa2c	0.0107217245
209	0xbd9201dc	-0.07129261
210	0x3d15f08e	0.036606364
211	0x3d42c6af	0.04755276
212	0xbcfc0580	-0.030764341
213	0xbce1defa	-0.027572144
214	0x3ce6ad08	0.02815868
215	0xbd5bee0c	-0.053693816
216	0xbc2449da	-0.010027373
217	0x3d3c34d3	0.045948815
218	0x3cb0136c	0.021493636
219	0x3caf83fd	0.021425242
220	0x3d232a87	0.03983548
221	0x3c3bd392	0.0114640165
222	0x3d1c3e10	0.038145125
223	0xbd363446	-0.044483446
224	0xbc0146d2	-0.00789042
225	0xbc946775	-0.018115738
226	0xbc880fd1	-0.016609104
227	0xbcd2646e	-0.025682654
228	0xbd004de0	-0.031324267
229	0xbd20e99c	-0.039285287
230	0x3c82ae49	0.015952246
231	0x3d92e103	0.07171824
232	0xbcacf1ce	-0.021111395
233	0x3d00268b	0.031286757
234	0xbd5524ec	-0.052037165
235	0xbcb0ce91	-0.021582874
236	0x3d0e5a93	0.034754347
237	0xbb4b5692	-0.0031026942
238	0xbd2036b5	-0.039114673
239	0xbd327f59	-0.04357848
240	0x3d14e658	0.036352485
241	0x3cf4f658	0.029902622
242	0xbc5d0814	-0.0134906955
243	0xbc938b76	-0.018010836
244	0xb85a834d	-5.2097534e-05
245	0xbbb05156	-0.0053807897
246	0x3c921fec	0.017837487
247	0xbd223668	-0.039602667
248	0xbd6d0db2	-0.05787439
249	0xbcf15d88	-0.029463544
250	0x3c817138	0.015801057
251	0x3c9e6c47	0.01933874
252	0x3c9a1715	0.018809834
253	0x3cfd1dfc	0.030898087
254	0xbcf54d05	-0.029943952
255	0xba8de3eb	-0.0010825371
