models/10s30s_next_day_mlp_fold1.pth (torch, 474167 bytes, 19 tensors)

network.0.weight f4 [256, 286]
00000000: 0192 63bc 6e39 4abd 729c 913c e2b1 4e3d
00000010: f1a1 f43c 6523 103c 93bc 533c 1e92 3c3b
00000020: 05d7 05bd 2464 d43c 6950 033d bb92 e5bb
00000030: e5f7 f93c 915d 543d e521 4fbd 1400 eeba
00000040: cf90 30bd c060 a9bc ab1c 873c 4056 29bc
00000050: e8bb ea3c ef06 2e3d e7af 32bb 25d2 123d
00000060: 4499 fb3c a6da 513d e427 c53c a0d5 45bd
00000070: 31f3 ab3c 9c3d c53c ff0b 5db9 db02 b13b
00000080: 99b4 e83b 9b32 083d 87d7 f13c b44f a7bc
00000090: 0d1e b5bc 7f10 0b3c 757b 053d 414e a3bc
000000a0: d7ec 043d 3ed9 1e3d 1642 fe3c dc79 5c3d
000000b0: 06fe 8bbc 9d2d 823c 9903 3d3d 84ee 5f3c
000000c0: da4d 30bc 630d 373d 3723 ffbc 52b6 6c3d
000000d0: ce93 bcbb e5f8 d5bc e123 003d 32f9 58bd
000000e0: 1187 653c 8b2a 743d 590f 313d ae16 483d
000000f0: 5ac9 31bd 9924 aabc 0f55 093d a28e 51bd
00000100: a206 683d cd6b 05bd e031 5fbc aa33 bc3b
00000110: 89eb 31bd 5e2f b1bc 94b2 e1bb 38d3 123d
00000120: 0eac 69bd 3cfd f83c 88fa 363d 1923 5c3c
00000130: 8702 18bd 5266 133d 0070 263d 467b 1b3d
00000140: acaf 0ebd 80ba a6bc 459e 2a3c 6c93 bcbc
00000150: c47d 343c 0461 04bd b5fc 29bc 74c3 8d3c
00000160: a9a4 3c3a a1f8 d13c 299c 9dbb 5286 0c3d
00000170: 4634 293d 7e9d 863d dcd9 17bd 5649 823d
00000180: 0998 87ba 218e 9f3c 801a a13c 6487 6a3d
00000190: 4cb5 bebb e459 623c 1b1c a1bb f916 bb3c
000001a0: ce2f 17bd 1d50 93bc 065c 3bbd c5b9 713c
000001b0: 37bb 0cbd 29f6 d83c 2890 28bd 475d 2bbd
000001c0: a886 ce3b 33a6 f53a 72de b73c 9e50 093a
000001d0: 78b9 9ebc e38c 95bd 4709 85bd 79a1 0ebd
000001e0: dff0 23bd 95d9 36bc 9305 87bb b456 c23c
000001f0: 7649 1dbd ef13 0b3c 10ba 7b3c a2e8 12bd
00000200: 5ccf 57bd afcf 54bd c581 d33c 4c56 49bc
00000210: 4476 ceba 631f 0e3d ecdf cd3c 9422 103d
00000220: 5758 843d 16ec 733d 6175 a43c 5714 373d
00000230: aae7 b23c 11ee 44bd 2806 053d c67f 093b
00000240: 3da8 4d3d 7da2 053c 2110 37bd cf5d b7bc
00000250: 47ac 123d 1e4c 603d 918a b2bc 9d5e 55bb
00000260: 1034 4a3d 9f6a 3dbd 1847 4a3d 3a6a c63a
00000270: 651b 4abd 5b83 4e3d fc8c 3c3d eaab cabc
00000280: 937f 37bd 7b6b 0eba 6198 52bc d9b0 273d
00000290: f15c 7a3d ec4d 4d3d ec61 45bd fd3b b8bc
000002a0: 8519 c23c 7efd 88bd 4bd0 723d f419 db3c
000002b0: 8888 7bbd d962 9a3c cc7e 48bd 2765 4dbd
000002c0: a3ee a6bb b4b9 d33c 94e7 04bd affe d53c
000002d0: 8fb4 0d3d 7029 38bd daf2 1d3c 8041 523d
000002e0: 9f43 193d 5b6b 29bd bc4f 2fbd a45c 3c3d
000002f0: 6957 5c3d f0b2 02bd fb35 21bd a810 2dbd
00000300: 383d 27ba 3c35 683d 4d5b e4bc 31f8 1a3c
00000310: 32d0 3cbd 62cd 5c3c 3099 67bd 0822 843c
00000320: dcf8 32bb 9eee 46bd 449a dabc f538 983c
00000330: 2e99 91bd 1af6 0f3d d8bd 473d 5a2d 193d
00000340: 02fb 4d3d 6877 c6bc b886 14bc 9f03 afbc
00000350: f1e2 4c3d 7307 2e3c baaf 0e3d ab2e ebbc
00000360: a5e7 3bbd 9347 f2ba 6601 8abc 3995 343d
00000370: b874 db3b a3f3 42bc 6dc2 ef3c 92b2 23bd
00000380: 70f0 2fba 08e1 1bbd 61aa 6f3b 461a bdbc
00000390: b837 523d dbe4 ea3c 083b ad3c ff52 793a
000003a0: 13f9 933d 8b2d 73bd e64f 25bd d096 2d3d
000003b0: e986 2fbd d513 a43b 5c8a 99bd e051 8abc
000003c0: c348 26bb 26a6 0ebd d084 76bb d7a6 92bc
000003d0: d0c5 373c a218 183d 0cbd 003d 5971 083d
000003e0: 9e2b 0fbd 93fd 0e3d acea 28bc 7e2d 43bd
000003f0: 1d8a d8bc 6b08 09bb 8098 9bbc 4972 f8bb
-0.0138897905 -0.049371175 0.017774794 0.05046261 0.029862376 0.008797501 0.012923378 0.0028773616
-0.03267576 0.025926657 0.032059107 -0.007006017 0.030513713 0.051847044 -0.050569434 -0.0018157982
-0.04310685 -0.020676017 0.016493162 -0.010335505 0.028654054 0.04248708 -0.002726549 0.03584494
0.030712731 0.05123391 0.024066873 -0.04829943 0.020989986 0.02407723 -0.00021080671 0.0054019517
0.007101607 0.033251386 0.029521717 -0.020423748 -0.022109056 0.00848782 0.03258844 -0.019934775
0.03245243 0.038781397 0.031037372 0.05382715 -0.017088901 0.01589089 0.04614601 0.013667706
-0.010760749 0.0446905 -0.031144721 0.05779106 -0.0057549244 -0.026119659 0.031284217 -0.052972026
0.014009253 0.059610885 0.043227527 0.048849754 -0.043404914 -0.020769404 0.033528384 -0.051161416
0.05664695 -0.03257351 -0.013622731 0.0057434635 -0.043437514 -0.021629032 -0.0068877432 0.035845965
-0.05704885 0.030394189 0.04467252 0.013436102 -0.037111785 0.035986252 0.040634155 0.03795936
-0.034835503 -0.020352602 0.010413711 -0.023019515 0.011016313 -0.032319084 -0.010375191 0.017305113
0.0007196167 0.02563125 -0.0048098755 0.034307785 0.041309617 0.06573008 -0.037073 0.06361644
-0.0010344993 0.019476952 0.019665956 0.057258025 -0.005819952 0.013815377 -0.0049166805 0.022838103
-0.036910824 -0.017982537 -0.045742057 0.014753764 -0.03435823 0.026484566 -0.041153103 -0.041837003
0.0063026734 0.0018741548 0.022444937 0.0005238148 -0.019375548 -0.07302263 -0.0649591 -0.03482196
-0.040024634 -0.011160274 -0.0041205375 0.023722984 -0.038400136 0.008488639 0.015364185 -0.035866387
-0.052687988 -0.051955875 0.025818715 -0.012288641 -0.0015751799 0.0346979 0.025131188 0.035189226
0.06462162 0.05955132 0.020075502 0.044697132 0.021838982 -0.0480786 0.032476574 0.00209807
0.050209273 0.008156416 -0.044693116 -0.022383599 0.035808828 0.05476009 -0.02179459 -0.0032557615
0.049366057 -0.04624426 0.049384207 0.0015137859 -0.04934253 0.05041824 0.04603289 -0.024740178
-0.0447994 -0.0005432886 -0.012853713 0.04094014 0.061123792 0.05012314 -0.04818909 -0.022489542
0.02369381 -0.06688975 0.059280675 0.026745774 -0.061409503 0.018845962 -0.048949048 -0.050145295
-0.0050943657 0.025845386 -0.032447413 0.02612242 0.034596022 -0.044961393 0.00964042 0.051331997
0.037418004 -0.041362148 -0.04280065 0.045986786 0.0537943 -0.03190893 -0.03935812 -0.042252213
-0.0006379667 0.056691393 -0.027875567 0.0094585875 -0.046096988 0.013476701 -0.056542575 0.016129509
-0.0027308976 -0.048567407 -0.026684888 0.018581847 -0.07109295 0.03514681 0.048765033 0.037396766
0.050288208 -0.02422686 -0.009065323 -0.021364031 0.050021116 0.010621893 0.034835555 -0.028708776
-0.04587521 -0.0018484466 -0.01684637 0.044087622 0.0066972636 -0.011898908 0.029267514 -0.03996522
-0.0006711548 -0.038056403 0.003657006 -0.023083817 0.05132267 0.02867358 0.021146312 0.00095109636
0.072252415 -0.059369605 -0.0403594 0.042380154 -0.04285327 0.005007247 -0.07497093 -0.016884744
-0.002537296 -0.03482642 -0.0037615784 -0.017901821 0.011216596 0.037132867 0.03143029 0.03331122
-0.034953706 0.034909796 -0.010309856 -0.047650807 -0.026433045 -0.0020909559 -0.018993616 -0.007581983

network.0.bias f4 [256]
00000000: bc02 5abc 0140 ea3c 2543 50bd 99c3 bebc
00000010: a2d5 15bd ebc1 b9bc 664b 6cbc b924 903c
00000020: 309e 293d ca0d 25bd 3481 f3bc 10f9 953c
00000030: 8364 12ba 7065 b6bc 9e4a ccbc 6e24 5cbd
00000040: 63ef e4bc d885 333b 50f8 41bc 3e12 433d
00000050: 4e78 36bd ab01 3dbd c5c2 a6bc 5600 a13c
00000060: 9f64 5c3d 26ea ffbb 6019 1abb a69f 043c
00000070: 802b 863b 0920 e6bc 49a8 5eb8 28be cf3c
00000080: 05df 983d 4b0e 99bc 09c3 9f3c 396b edbc
00000090: 6477 523c fb5f 623d 7d8b 33bb fd5e f83c
000000a0: 2126 91bc 1244 8fbc 0d58 623c 9f1d 8b3c
000000b0: 09e2 413d c71c 3f3d 8086 8e3b 18e4 03bd
000000c0: a52e 26bd 1c71 1f3d 3d06 1fbd 0a23 ecbc
000000d0: 7652 87bb 9895 9cbb b524 e5bc 9f71 dabc
000000e0: 3a62 bbbc 7d3e a8bc 2d87 7a3d 6bcf 3dbd
000000f0: d7d4 babc 2d6f 333d b85a 703d 8fb0 1bbd
00000100: 3a2c b6bc 6fd2 91bb fec9 33bd 5621 6a3d
00000110: 1a43 fc3c d79e 233c 5d32 e6bc 83e0 7ebd
00000120: 7e5e 3e3d ccfa 56bd f239 9c3c 54ba 4bbd
00000130: 5413 203d 386c a9bb 535e 8dbb 9476 a8bc
00000140: 633a 61bd e373 913c 10b1 193a 0279 033d
00000150: d6bd 7b3d 5424 7f3d 81d9 6fbc 0375 42bd
00000160: fe5b 4fbd b51f 6e3d fbfd 5abd 33af 35bd
00000170: 41b1 153c b832 633c 3ddb 143c 98cb 18bc
00000180: a3bd fc3c 98c2 cc3c ec42 55bd 94b9 b1bc
00000190: 4d3c d0bc 4b7c 86bc 8300 543d 597c d83c
000001a0: a0b0 b03b 2a2c ac3c 920e abbb 18a4 3d39
000001b0: 26f9 8fbb c63f 45bd 3627 c0bc 5c4b 1539
000001c0: af02 ca3c b541 2bbd 781b 1e3d 87eb 553d
000001d0: 7b94 fd3c 6d36 123d 5c89 053d 7106 a53a
000001e0: 5d5c 293d 3a76 f9bc 50eb 493c 83cb 9ebb
000001f0: a49f c43c 8a3a dbbc b743 0ebc f8a8 9d3c
00000200: 929a 31bd 5a98 8fba b6a7 01bd 0ab0 48bc
00000210: b342 8dbc f3ac c93c da21 f73c a019 463d
00000220: 07f7 a63c 88dd 39bd 5a65 f03c 3677 2bbd
00000230: 4260 df3c 1364 fbbc 5616 ca3b 84c1 3ebd
00000240: 4fbb 9bbb db4c 4cbc 5905 163d d98f 6ebc
00000250: c3c4 2bbc d9b6 57bd 4f18 763d 761f 12bd
00000260: 5a97 203d 7369 673c 011e 273d 0656 a7ba
00000270: b24e 713c c41c 14bd 8006 413c 92f7 793c
00000280: ffb1 3fbd 2a0c 7bbd 61f5 96bc f23b 1d3d
00000290: fe76 d33c 5604 1bbd a14a 643d 3cad 07bd
000002a0: dc88 993c 1c0e 1b3c 3919 3a3d fa22 30bd
000002b0: 7cb1 e23c 0f42 48bd 940c 4fbc c919 28bd
000002c0: 98a5 29bd 9f6f b63c 25da 613b d747 e0bc
000002d0: dad5 203d 7a8e fdbc 4dc2 0bbd be81 c1bc
000002e0: ece6 e53c 3e75 42bd b858 ddbc 6cfc 92bc
000002f0: 211c 57bd fe76 37bd 7c10 933c b689 a2bc
00000300: b70d a93c a806 27bb efb9 51bd f3a0 053d
00000310: 5680 a0ba c916 b1bc 25c3 133d 81a2 b3bc
00000320: e7ef 3dbc dc27 163d 1ee7 53bd 06a1 80bd
00000330: 8226 823d caa4 d33b 79ef 72bd be24 3fbd
00000340: 2e01 133d 7416 133d 6e81 2c3d db6e 75bc
00000350: 633b 0abd faa3 c13c b4f0 afbc 83af 83bd
00000360: 726e cbba 55e2 b13b 8d09 61bd ca6f 083d
00000370: 1849 4d3c 8da8 173c 2225 6cbd b9f1 e7bc
00000380: 23d7 ad3c cf7c 16bd b05b 3a3d b15a c8bc
00000390: a8a6 b03c e90d e63c 3cee 6f3d dc08 36bd
000003a0: 2bc9 2dbc 46e5 e5bc dbf1 1abd a29d e73b
000003b0: bd1b 58bd 812c eaba ef1a 8c3a 17a7 96bc
000003c0: 3bc7 69bd 0c92 9a3c 9f9f 813d 1c74 e73c
000003d0: e21d 673d fbfb 07bd 853c 3dbc 99d1 fbbc
000003e0: 6d5e 49bd 9302 71bb da27 a9bc 3ffc 50bd
000003f0: 7aae ba3c 2136 a1bc 58cb 3ebd 1d46 02bc
-0.013306316 0.028594973 -0.050845284 -0.023286628 -0.03658069 -0.022675475 -0.014422273 0.017595636
0.041410625 -0.040296353 -0.029724695 0.018307239 -0.00055844354 -0.022265166 -0.024937924 -0.05374568
-0.02794618 0.002739301 -0.0118389875 0.04762482 -0.044548325 -0.04614417 -0.020356545 0.01965348
0.053806897 -0.007809895 -0.002351366 0.008094704 0.004094541 -0.028091447 -5.3085652e-05 0.025359228
0.074644126 -0.018683573 0.01950218 -0.028981792 0.012845848 0.055267315 -0.0027396374 0.030318731
-0.017718377 -0.017488513 0.013814938 0.016981898 0.047334705 0.046658304 0.0043495297 -0.03219995
-0.040571827 0.03892623 -0.03882431 -0.028825302 -0.004129703 -0.004778575 -0.027971605 -0.026665507
-0.022873987 -0.02053761 0.06116407 -0.046340387 -0.022806568 0.043807197 0.058680266 -0.038010176
-0.022237886 -0.0044501345 -0.043893807 0.057160698 0.030793715 0.009986601 -0.028100187 -0.06222583
0.046476834 -0.052485272 0.0190706 -0.049738243 0.039080933 -0.0051703714 -0.004314223 -0.020564355
-0.054987323 0.017755454 0.0005862871 0.032097824 0.06146034 0.062290505 -0.014639259 -0.047474872
-0.05062484 0.058135707 -0.05346487 -0.044356536 0.009136499 0.013867073 0.009085474 -0.009325884
0.030852145 0.024995133 -0.052065775 -0.021694936 -0.025419379 -0.01641669 0.0517583 0.026426481
0.005392149 0.021017153 -0.005220243 0.00018085574 -0.0043937145 -0.048156522 -0.023456197 0.00014237821
0.024659483 -0.04181071 0.038600415 0.05222657 0.03095459 0.035696436 0.0326017 0.0012590421
0.04134785 -0.030451883 0.012324169 -0.004846038 0.024001904 -0.026761312 -0.008683137 0.01924561
-0.0433603 -0.0010955438 -0.031654082 -0.012249002 -0.017243719 0.024618601 0.030167509 0.04836428
0.020381464 -0.045377284 0.029345203 -0.041861735 0.027267579 -0.030687368 0.0061672134 -0.04657127
-0.0047525535 -0.012469496 0.036626194 -0.014560663 -0.010483923 -0.05266461 0.060081776 -0.035674535
0.03920684 0.014124262 0.0408001 -0.0012766726 0.014728235 -0.036160246 0.011781335 0.015256779
-0.04680061 -0.061290897 -0.018427553 0.038387246 0.025813576 -0.037845932 0.055735234 -0.033124194
0.018742017 0.009463813 0.04543421 -0.043002106 0.027672522 -0.048891123 -0.012637276 -0.041040216
-0.041417688 0.022270022 0.00344623 -0.027378006 0.039266445 -0.030951727 -0.034120847 -0.023621436
0.028064214 -0.047475092 -0.027019843 -0.01794263 -0.05251706 -0.044791214 0.017952196 -0.019841056
0.020636423 -0.0025486145 -0.05120271 0.032624196 -0.0012245278 -0.02161731 0.036074776 -0.021928074
-0.011592842 0.036659107 -0.051734082 -0.06280713 0.06355001 0.0064588534 -0.05931041 -0.0466659
0.035889797 0.035910085 0.04211562 -0.014980043 -0.03374804 0.02363776 -0.02147708 -0.064299606
-0.0015520586 0.005428592 -0.05494075 0.033309735 0.012529634 0.009256494 -0.0576526 -0.028313505
0.02122075 -0.03674012 0.045497596 -0.024457308 0.021563843 0.028082805 0.058576807 -0.044442043
-0.010607044 -0.028063428 -0.037828308 0.007068352 -0.05276083 -0.0017866046 0.0010689179 -0.018390222
-0.057074767 0.018868469 0.063292734 0.028253607 0.056424983 -0.03319929 -0.0115500735 -0.030739592
-0.049162317 -0.0036775216 -0.020648886 -0.05102181 0.022788275 -0.019679131 -0.046580642 -0.007951287

network.2.weight f4 [256]
00000000: 139b 803f 6277 813f dbff 813f 85e8 803f
00000010: 27d6 803f 5f28 7f3f 5d1b 7f3f 690d 7d3f
00000020: 37c8 7e3f 36db 7c3f 4cb0 7d3f 53c2 803f
00000030: 0e74 7b3f 0321 7e3f 6940 7e3f a7a9 7f3f
00000040: 6f33 7f3f ac58 7d3f b65d 803f 4791 7d3f
00000050: 0a49 7d3f 3f00 803f 75cf 813f 3548 7c3f
00000060: 58e6 813f 418b 813f 99ed 7f3f df5d 7d3f
00000070: 5593 803f dd1e 803f e650 803f c82a 7d3f
00000080: 7f28 7f3f 307d 813f 9a29 803f 9458 813f
00000090: 836c 7e3f df88 803f 0f59 803f 4a79 7b3f
000000a0: e309 7d3f debd 7d3f 4c39 803f 989d 7f3f
000000b0: 3363 813f fca1 7d3f 352f 7e3f 182b 7c3f
000000c0: 6095 7a3f daf8 803f 06b7 823f 2346 803f
000000d0: 1ada 7e3f b38c 803f a6df 7e3f 75ae 7e3f
000000e0: 85ab 813f 6d74 803f 0c18 7f3f c72d 7d3f
000000f0: 7224 7f3f 84c9 813f 15d8 803f f7c1 803f
00000100: 8ff9 813f b3cb 803f 5b0d 803f 4331 813f
00000110: 3fcf 7c3f 35c8 813f 7209 7e3f 99c1 803f
00000120: d0af 7e3f 027c 813f 64fc 7f3f a871 7e3f
00000130: b58d 803f 3e74 813f 1272 7e3f a05d 7d3f
00000140: 2861 7f3f 6c52 7f3f 6376 803f 5c87 813f
00000150: b87b 803f a5b7 7d3f a4e6 7d3f cd48 813f
00000160: b633 803f 5a60 7f3f dbb8 7f3f a6dc 7f3f
00000170: 7a63 813f 18e5 7e3f 5cfe 7c3f 45af 823f
00000180: 94f3 7f3f 6156 813f 0b51 803f 5f34 7f3f
00000190: 501d 803f 6a40 7e3f 7b2c 7e3f 4631 803f
000001a0: 9ed3 813f b75f 803f ac70 803f f273 7b3f
000001b0: 86ac 803f 8390 7e3f 9d20 813f a30b 823f
000001c0: 356b 7e3f 7ec7 813f 03d9 7b3f 54aa 7f3f
000001d0: 7bd0 7d3f 9b74 803f 7092 7b3f e1ad 7d3f
000001e0: 4123 7d3f 4a49 803f e0f1 7e3f fa09 7f3f
000001f0: de46 803f 6156 813f eb5b 823f 7a8f 803f
00000200: 7107 7c3f f632 7d3f 2cc2 803f 779e 823f
00000210: 5ada 7a3f 6567 7b3f 981c 813f 2ac6 7c3f
00000220: d17b 7f3f 9458 7e3f b398 7e3f 7e9e 803f
00000230: 03d6 803f 0c66 803f 2b89 7d3f 7614 823f
00000240: e7ec 7f3f 918e 803f d591 813f 2696 803f
00000250: 6d8a 7f3f 51a1 7c3f e95d 803f 7b9b 7f3f
00000260: 05e4 813f a855 813f 2c20 7e3f df3c 7c3f
00000270: 7da2 803f 2328 7f3f 1218 813f 13d3 803f
00000280: 1155 803f 4c1a 803f 4ae1 823f 845c 7f3f
00000290: 73fb 7a3f 630c 813f 6156 803f 4203 7f3f
000002a0: 39cd 813f c09a 7e3f a353 7e3f 4b62 813f
000002b0: f68e 803f c4d1 7d3f 6939 813f 2afb 803f
000002c0: 1599 7d3f 700b 7e3f 0df6 803f 4c1b 803f
000002d0: ff10 803f c8b8 7b3f 779f 803f 38a0 7f3f
000002e0: 4a39 813f f5df 7c3f 85f9 7f3f c825 7f3f
000002f0: 70b1 813f 6469 823f 8053 813f ff00 7e3f
00000300: 7c99 823f a444 7b3f 96b7 7e3f 0cfe 7f3f
00000310: 6748 7d3f 0dea 7e3f e433 7f3f 3402 803f
00000320: b832 803f ea72 7f3f 0572 823f b152 7f3f
00000330: 340d 803f bb20 7e3f 382b 813f 59f8 7f3f
00000340: 6823 813f f8e4 7d3f 9f76 823f a739 7f3f
00000350: 1461 803f 2889 803f babe 7e3f e032 7f3f
00000360: 9680 7c3f 5725 7f3f dfd8 823f caad 7d3f
00000370: 6b9b 803f d52a 803f 912d 7e3f a67e 813f
00000380: 2a7b 7e3f 9d39 803f b5fc 7d3f ef1e 803f
00000390: 7bb2 7e3f af42 803f 5fc9 7e3f a204 843f
000003a0: 7738 7d3f 52a1 7e3f 340d 7f3f e3dd 7f3f
000003b0: 11cf 7a3f 7944 7c3f c632 803f e188 7c3f
000003c0: f6d4 813f 29a9 803f 8511 803f 3f4a 7c3f
000003d0: a895 7e3f 86f4 7f3f 23eb 7d3f dc4f 823f
000003e0: abb5 803f a78c 7f3f 0103 7f3f 0253 803f
000003f0: f36d 803f 40f7 813f 4827 803f 9f4c 803f
1.0047325 1.0114558 1.0156206 1.0070959 1.0065354 0.99670976 0.9965113 0.9884859
0.99524254 0.9877199 0.9909713 1.0059303 0.9822396 0.9926912 0.9931703 0.99868244
0.99687856 0.9896343 1.0028598 0.990498 0.98939574 1.0000075 1.0141436 0.9854768
1.014842 1.0120622 0.9997192 0.9897136 1.0044962 1.0009419 1.0024688 0.98893404
0.9967117 1.0116329 1.0012696 1.0105157 0.99384326 1.004177 1.0027179 0.9823195
0.9884321 0.9911784 1.0017486 0.99849844 1.0108398 0.99075294 0.9929078 0.98503256
0.9788418 1.0075943 1.0212104 1.0021404 0.99551547 1.0042938 0.9956001 0.9948495
1.0130469 1.003553 0.9964607 0.98897976 0.99664986 1.0139623 1.0065943 1.0059193
1.0154284 1.0062164 1.0004076 1.0093158 0.9875373 1.0139223 0.9923316 1.0059081
0.9948702 1.0115969 0.9999449 0.99392176 1.0043246 1.0113599 0.9939281 0.98970985
0.99757624 0.9973514 1.0036129 1.0119433 1.0037756 0.99108344 0.99180055 1.0100342
1.0015781 0.99756396 0.9989144 0.9994606 1.0108483 0.9956832 0.9882562 1.0209738
0.99981046 1.0104486 1.0024732 0.99689287 1.0008945 0.9931704 0.9928662 1.0015037
1.0142705 1.002921 1.0034385 0.98223794 1.005265 0.9943926 1.0088078 1.0159801
0.99382335 1.0139005 0.9837801 0.99869275 0.9914624 1.0035585 0.9827032 0.99093443
0.9888192 1.0022366 0.9958782 0.996246 1.0021627 1.0104486 1.0184301 1.0043786
0.98448855 0.98905885 1.0059257 1.020461 0.9798943 0.9820464 1.0086851 0.98739874
0.99798304 0.9935391 0.9945175 1.0048368 1.0065311 1.0031142 0.99037427 1.0162494
0.9997086 1.0043508 1.012263 1.0045822 0.99820596 0.9868365 1.0028659 0.9984662
1.0147711 1.0104265 0.9926784 0.9853038 1.0049587 0.9967062 1.0085471 1.0064415
1.002596 1.0008025 1.0225003 0.9975054 0.9803993 1.0081905 1.0026361 0.99614346
1.0140754 0.9945488 0.9934637 1.0108122 1.0043628 0.991482 1.0095645 1.0076649
0.9906171 0.992362 1.0075089 1.000833 1.0005187 0.9832883 1.0048665 0.9985385
1.0095608 0.9877923 0.9999011 0.99667025 1.0132275 1.0188413 1.0103607 0.9922027
1.020309 0.9815161 0.9949888 0.9999702 0.989386 0.99575883 0.99688554 1.0000672
1.0015478 0.9978472 1.0191046 0.9973555 1.0004029 0.9926869 1.0091314 0.99988323
1.008893 0.99177504 1.019245 0.99697345 1.0029626 1.0041857 0.99509776 0.99687004
0.98633707 0.9966635 1.0222434 0.99093306 1.004743 1.0013071 0.9928828 1.0116775
0.99406683 1.0017582 0.99213725 1.000944 0.9949109 1.002035 0.9952602 1.0313914
0.98914284 0.99464905 0.9962952 0.9994795 0.9797221 0.9854198 1.0015495 0.9864636
1.0143116 1.0051624 1.0005347 0.9855079 0.9944711 0.9998249 0.99186915 1.0180621
1.0055441 0.99823993 0.9961396 1.0025332 1.0033554 1.015358 1.0011988 1.0023383

network.2.bias f4 [256]
00000000: b48e 5c3c 0ef6 11bc b336 7dbc 866e 14bc
00000010: 1deb 0cbc f8d9 313b 938c bf3b 13de 5cbc
00000020: 6f4b 8e38 9576 ca3b a1d0 383c 19ca ffba
00000030: 66e8 193c 048f 07bc ed5d 1bbc 72ab 76bb
00000040: 96b7 c23c d019 04bc f806 d9ba 20d2 54bc
00000050: 2f9e e3bb 3686 a7b6 84c8 e13b 1bb1 3b3a
00000060: 8723 a23b 5193 19bb 109d 2dbc 1b3e 22bc
00000070: 4f8b 2cbb 0ebc eb3a ce6f 17bc 720b f8ba
00000080: 5bfa d83b 3fa2 e1bb 9036 54bc ecb4 0c3b
00000090: 48f9 fc3b b9dc e6b9 9a60 c4bb 9f16 7f3c
000000a0: 829a 7e3a c4c5 72bc cc34 6ebc 7e04 e93a
000000b0: d8f5 c13b 1a1f 1cbc 5bfb 343c da21 a1bb
000000c0: 028b 02bc d80b bf3a 8701 35bc 43b1 493b
000000d0: b2c8 473c 5b9f 0a3b 4f82 f0ba 6e0e 263b
000000e0: 060e 59bb e82b edbb 6388 413c 5107 1a3c
000000f0: 5f6c 32bc 2e34 50bb a59a 4f3c a2c9 183c
00000100: 7f37 81bc 1dd3 833b 427d 8f3b ab1d 013c
00000110: 82ff a4bb 5ab2 bbbb 5ec4 30bc f896 82bb
00000120: 4eab 18bc 5c70 973a 8252 a43b c11a c8bb
00000130: 03ff be3b 9fb5 923a 5fd7 7dbb 49d0 553c
00000140: 7c59 37bb 2fe4 593c 51c1 d43b 5c15 9b3b
00000150: 9e52 02ba 4cc9 e5b8 9669 803b 1b20 04bb
00000160: 9faa 82bb fba9 963b 6ce5 813b 84ac e2ba
00000170: 7bc8 dc3b cd72 773b cf96 a83a 0d6f b4bb
00000180: 8b8b 31bb 59dd fe3a 7f83 5837 f3cf c8bb
00000190: 6534 1fbc c7fa 63b9 3f5b b73b 4bbc 1ebb
000001a0: 9692 a93c 77ca b9bb 975a c4bb 210b bd3b
000001b0: fc71 723c 9eff d1ba eb92 0f3c 3b78 bb3a
000001c0: c20a be3b 57cf 523a 9e1f 0abc 0277 4cbc
000001d0: c17c b83b 798b fe3b 6b3e 5e3a f653 693c
000001e0: ca52 5d3a 961c 6dbb ffde 123c 0e61 9dbb
000001f0: 0f94 f8bb fb3d e83a 92cc 353c 6dfd 563c
00000200: b915 d43b b454 4fbc 8776 5ebc dc67 94bc
00000210: 9876 91bb ec7a 843b 74b3 98ba 6342 323c
00000220: 8670 68ba 8565 5839 70ba e5ba d0ea a7b9
00000230: 2c46 2a3c 4389 dc3b 2661 cc3b c096 6b3a
00000240: c5be b6bc 9a47 00bc 5e55 2b3c 5122 0f3b
00000250: 813f 2b3c 817d 393c 86bc d1ba 2107 6dbc
00000260: 8fd3 0a3c db0c 62ba 97e8 e93b 65e8 0bba
00000270: d409 e6bb 2397 f4bb 572b 1e3c 1ac9 293a
00000280: 5c45 56bc ff68 eb3a a484 0cbc a611 8c3b
00000290: 7bcc 1cbc cb36 363b bfef 0dbc 7a06 6ebb
000002a0: 6170 9f3b 56e1 303c 2f01 2e3c 802e c93b
000002b0: e19c 263b 1318 8ebb 54bd 553b fde1 21bb
000002c0: 5926 2dbb b84a 36bc d3b8 54bc 805f 263c
000002d0: 05e4 e7bb 50cb ac3c 97e7 e83b 3e41 633c
000002e0: 88ee 823c 79e9 82bc ee78 083c dce0 01bc
000002f0: 0980 b83b ae0e 5dbc fda4 bf3b 7ab9 febb
00000300: 81eb b53b 9587 b23b 8881 1abc e7c1 283c
00000310: 2332 0fbb 8228 153b 051c 0ebc b3df 413c
00000320: 3ff3 05bc 648a acbc e313 183a fac7 173c
00000330: 0cf0 0e3c 3c19 163c 94d6 12bc 83fb f23b
00000340: 6ea9 40bc 7a80 6e3c 02c5 143b 9672 863c
00000350: db96 39bb 0456 d0ba 1d36 90ba fd18 1c3c
00000360: 8fc1 aabb fdc0 bc3b 3ee1 babc 16c2 39bb
00000370: 7d7e cc3b f960 34bc cc5f cfbb 3653 4f3c
00000380: 1686 ccba 6a42 8a3c be98 1e3c bc4a 9bbb
00000390: 68e3 843c 63f4 45bb ec0c 00bb 0c93 bfbb
000003a0: eb91 bbbb c620 5239 0e43 423a e088 8cbc
000003b0: b740 373c ee75 203b 8465 a0ba 958e f03b
000003c0: e664 ffbc 6841 3b3a b519 143b 55c3 14ba
000003d0: a518 35bc c8fc adbb a111 61bb bd39 a9bb
000003e0: 359d 47b9 d591 33bb b944 2a3c b58f 023b
000003f0: 7bd4 41bc 8336 52bc e4f6 5bbb e849 983c
0.013461757 -0.008908762 -0.015454936 -0.009059554 -0.008600977 0.0027137976 0.005845615 -0.013480681
6.785138e-05 0.006178687 0.01128021 -0.0019515186 0.009393787 -0.008273844 -0.009482843 -0.003763881
0.023769181 -0.008062795 -0.0016557863 -0.012989551 -0.006946347 -4.992612e-06 0.0068903584 0.00071598747
0.004948083 -0.0023433755 -0.010596529 -0.009902502 -0.0026328152 0.0017985122 -0.009242965 -0.0018924309
0.0066216416 -0.0068857963 -0.012952462 0.0021470143 0.0077201463 -0.0004403347 -0.005992961 0.015569358
0.00097123545 -0.014817659 -0.014538955 0.0017777828 0.0059191994 -0.0095289 0.011046256 -0.0049173655
-0.007967712 0.0014575673 -0.011047727 0.0030775822 0.012193846 0.0021152112 -0.0018349382 0.002533819
-0.003311993 -0.0072379 0.011812302 0.009401158 -0.0108900955 -0.0031769383 0.0126711475 0.009325417
-0.015773533 0.0040229694 0.0043789456 0.007880609 -0.0050353417 -0.0057280483 -0.010789005 -0.003985282
-0.009318186 0.0011553871 0.0050147185 -0.006106705 0.0058287396 0.0011193043 -0.0038733108 0.013050147
-0.002797692 0.013299032 0.0064927717 0.004732771 -0.00049714174 -0.000109570654 0.003918837 -0.0020160738
-0.003987625 0.0045979 0.003964117 -0.0017293845 0.0067377663 0.0037757636 0.0012862327 -0.0055064023
-0.002709123 0.0019444629 1.290522e-05 -0.006128305 -0.009717082 -0.00021741829 0.005595594 -0.0024221118
0.02069978 -0.0056698876 -0.0059922445 0.005769149 0.014797684 -0.0016021614 0.008763055 0.0014302799
0.0057996223 0.00080417603 -0.00843039 -0.012479546 0.005630106 0.0077680913 0.0008477929 0.014241209
0.00084428175 -0.0036180369 0.008964299 -0.0048028296 -0.0075860093 0.0017718667 0.011096137 0.013121945
0.006472316 -0.012654472 -0.013578064 -0.01811593 -0.0044391863 0.0040429737 -0.0011650161 0.010880086
-0.0008866865 0.00020637184 -0.0017526876 -0.0003202767 0.010392707 0.00673023 0.006237167 0.0008987002
-0.022307763 -0.007829571 0.010457365 0.0021840523 0.010452152 0.011321426 -0.0016001619 -0.014467032
0.008473291 -0.00086231314 0.0071383226 -0.00053370587 -0.0070202146 -0.007464306 0.009653888 0.0006476805
-0.01307806 0.0017960368 -0.008576546 0.004274565 -0.009570236 0.0027803655 -0.008663117 -0.0036319778
0.0048656915 0.010795912 0.010620399 0.0061395764 0.0025423097 -0.004336366 0.003261407 -0.002470135
-0.0026420562 -0.011126213 -0.012983519 0.010154605 -0.0070767426 0.02109304 0.007107686 0.013870535
0.015982881 -0.015980469 0.008329613 -0.007927146 0.0056304974 -0.013492269 0.0058485256 -0.0077735754
0.005551756 0.0054482915 -0.009430297 0.010300136 -0.0021849952 0.002275974 -0.008673673 0.011833119
-0.00817567 -0.021062084 0.0005801303 0.009263987 0.008724224 0.00916129 -0.008962292 0.0074152364
-0.011759145 0.014556998 0.0022700434 0.01641206 -0.0028318677 -0.0015894775 -0.0011002455 0.009527442
-0.0052110623 0.0057603107 -0.022812482 -0.0028344444 0.0062406645 -0.011009448 -0.0063285585 0.012654116
-0.0015603926 0.016877372 0.009679971 -0.0047391336 0.016221717 -0.003020548 -0.0019538952 -0.005846387
-0.005724182 0.0002003937 0.00074105046 -0.01715511 0.011184863 0.0024484354 -0.0012237285 0.007341216
-0.031176042 0.000714323 0.002259833 -0.00056748587 -0.011053239 -0.005309675 -0.0034342783 -0.0051643536
-0.00019036683 -0.0027400155 0.010392361 0.0019922082 -0.011830444 -0.012830379 -0.0033563906 0.018589929

network.2.running_mean f4 [256]
00000000: 1a14 e13e 3b45 d93e 5bee bc3e 799c cc3e
00000010: ac10 9f3e e460 b73e c350 8b3e 023d 8f3e
00000020: 3859 a73e 2ff8 d73e 91b3 ea3e c4c9 b83e
00000030: 9def e73e bc27 af3e cfd5 d73e ce81 873e
00000040: 0b6a 8c3e f9b2 903e 2091 ae3e 3091 c43e
00000050: 291b 8b3e 8bd2 053f e296 8f3e 1596 7e3e
00000060: 99ee ed3e 26d0 af3e 58b2 883e c823 b83e
00000070: 67a6 ac3e d75d d03e 2032 0d3f ceaf bb3e
00000080: 0830 e53e fc06 f23e 4061 ac3e 8aa0 a83e
00000090: 5204 ca3e 70ac a83e bb3a b03e 6dc4 a63e
000000a0: 637e a83e 36fd d53e 8f53 ed3e 43e7 883e
000000b0: a97e d53e b46e c53e 9fad 9a3e 94c3 5c3e
000000c0: a145 893e 6f12 d73e 2a05 a73e 6887 cf3e
000000d0: 309e 873e bd6b 863e bcf2 cc3e 4d8d ad3e
000000e0: d987 9e3e 63ec ab3e ef5c 9d3e 0d16 963e
000000f0: f5a7 a43e 328e ca3e c388 093f af9e 7e3e
00000100: d039 a63e 2e8f ae3e 4561 923e 1365 ad3e
00000110: 78e6 ae3e f621 cd3e 89c9 8c3e a96d f63e
00000120: 2745 a23e da0a d83e a82f c83e bc38 133f
00000130: ca41 b13e e9c6 d93e 089b c63e badf 953e
00000140: c08f 683e dd65 de3e 912b 8e3e 0110 983e
00000150: 6194 a23e 9dc3 983e 852f be3e 1687 963e
00000160: ee28 f33e adb3 ee3e 5a16 9f3e 7568 db3e
00000170: 3c9c e43e 29a8 a63e 7cec 523e bb51 d23e
00000180: d073 993e fa1b ac3e 0c4b a23e df1c a03e
00000190: 5c9e bf3e 6853 ab3e 7937 a13e d819 b63e
000001a0: 651e 043f e027 ae3e 982a b13e 7279 d83e
000001b0: 42eb b43e 0637 c33e 1ce9 893e 67c2 963e
000001c0: fa97 bb3e 1a10 8e3e 49af d73e a387 ec3e
000001d0: d75d bc3e 0c32 aa3e ff37 843e 8109 f73e
000001e0: 8001 ad3e 1816 a33e ea2d c53e 5032 803e
000001f0: 33fa 953e f0ad bd3e f67f d33e e78e cf3e
00000200: f0fb 843e 2c0b c93e 6738 a63e 39b9 a53e
00000210: fd41 953e 4990 b03e e39a d03e 30a0 903e
00000220: 11ca 993e f4f8 d33e e2ca a03e 4348 983e
00000230: 2dc0 9a3e ae26 a93e 4532 9f3e b881 a23e
00000240: 154d 923e a8af 9b3e a503 d73e 1675 913e
00000250: e996 913e 5e53 8d3e 7ff2 0a3f fb71 bb3e
00000260: 07d7 953e 1c7a 9c3e 2154 8d3e 481e c73e
00000270: 6bcb 7a3e e8ae 9d3e 4740 cc3e 2093 c13e
00000280: a0b2 733e 4129 823e 869a b33e 6396 a73e
00000290: e473 db3e 1adf 993e 3073 9f3e 9cac 963e
000002a0: 0d1c bc3e 9478 d03e 639b ab3e e9c9 993e
000002b0: 014d f73e ea89 aa3e f56e 9f3e d1cf b83e
000002c0: bd37 603e d83f ba3e f460 b33e e7e7 a73e
000002d0: bef6 a23e 03ad de3e 6144 673e aff2 fe3e
000002e0: 94f2 ab3e 5c55 393e e5f0 8d3e f80c 9d3e
000002f0: 642d c13e 63af 983e b240 a23e 1dd2 703e
00000300: ed09 bb3e d617 b63e 5abd b23e 5b8b b93e
00000310: 2e57 9b3e 41da a23e d825 a23e cd4e ab3e
00000320: e56f ab3e 1458 073f 0c5f 903e 84b7 a43e
00000330: 9bd0 9e3e cabd ae3e f922 a33e b83f 953e
00000340: 0232 b33e f4b4 9c3e 64aa c23e 2418 b53e
00000350: c05e a33e a24a b13e 7720 cc3e 2e89 4e3e
00000360: 27ed ab3e 07bc bc3e 4619 913e 0f89 033f
00000370: 40c6 8a3e c70f e23e 462a b03e 6341 aa3e
00000380: c2ee c03e b39e 983e f796 063f c817 e43e
00000390: 12ce 8b3e ab8b af3e 11a6 9f3e 8f81 ca3e
000003a0: 9bcd a63e d935 b63e efac dc3e d5e8 973e
000003b0: 8e39 cc3e fa78 db3e a5b3 a03e 2ec8 903e
000003c0: ab02 d43e 7340 cf3e fffd ab3e be40 943e
000003d0: 6cc3 c33e 7145 903e b7c0 8a3e 57e7 a13e
000003e0: aff9 e73e ffc7 5a3e 9854 e53e 7c5b c33e
000003f0: 8889 ef3e c62c 9e3e 46e6 a23e e838 7b3e
0.4396065 0.4243563 0.369006 0.3996313 0.31067407 0.3581611 0.27210054 0.27976233
0.32685256 0.42181537 0.45840123 0.36091435 0.45299998 0.34210002 0.4215531 0.2646622
0.27424654 0.28261545 0.34095097 0.3839202 0.2716916 0.5227439 0.28044802 0.24861939
0.46471098 0.34338492 0.26698565 0.359648 0.33720705 0.40696594 0.5515461 0.36657566
0.44763207 0.47270954 0.33667946 0.32934982 0.3945642 0.3294406 0.34419808 0.32571736
0.32908925 0.41794747 0.46352813 0.2673894 0.41698197 0.38561022 0.30210587 0.21558982
0.26810935 0.4200625 0.32621127 0.40532994 0.26487875 0.26254073 0.40028942 0.33896866
0.3096302 0.33578786 0.30734965 0.29313698 0.3215939 0.3956161 0.53724307 0.2486522
0.32465982 0.34093612 0.28589836 0.33866176 0.3416021 0.40064973 0.2749751 0.4813054
0.31693384 0.4219578 0.3909886 0.57508445 0.34620506 0.4253457 0.38790154 0.29272252
0.22711086 0.4343709 0.27767614 0.2969971 0.3175383 0.2983674 0.3714563 0.29399937
0.47492164 0.46621457 0.3107174 0.42853132 0.44650447 0.3255017 0.20598024 0.4107798
0.2997117 0.33615094 0.3169788 0.31272027 0.37425506 0.3346207 0.31487635 0.35566592
0.5160888 0.34014797 0.3460281 0.42280155 0.35335737 0.38127917 0.2693566 0.29445192
0.36639386 0.2774666 0.4212592 0.46197233 0.36790344 0.33241308 0.25823972 0.48249438
0.33790207 0.31852794 0.38511592 0.25038385 0.2929245 0.37046766 0.41308564 0.40538713
0.25973463 0.39266336 0.32464907 0.32367876 0.29151908 0.3448508 0.4074317 0.28247213
0.30036977 0.41400874 0.31404787 0.2974263 0.30224743 0.33037323 0.3109304 0.31739593
0.28574434 0.30407453 0.41994968 0.28409642 0.28435448 0.27602667 0.5427627 0.36610398
0.29265615 0.30561912 0.27603248 0.3889029 0.2449166 0.30797505 0.3989279 0.3780756
0.23798609 0.254221 0.3507883 0.32731923 0.42861855 0.30053025 0.3114257 0.29428566
0.3674015 0.40716994 0.33516988 0.30036858 0.48300937 0.33308345 0.3113934 0.3609605
0.21896262 0.36376834 0.35034907 0.32794115 0.31828874 0.43491372 0.22584678 0.49794528
0.3358351 0.18098968 0.2772285 0.30673957 0.37729943 0.2982131 0.31689984 0.23517652
0.3653101 0.3556506 0.3491009 0.36239132 0.3033995 0.3180714 0.31669497 0.33458558
0.33483806 0.5286877 0.28197515 0.3217126 0.31018528 0.34129173 0.3186262 0.29150176
0.3499909 0.30606806 0.38020623 0.3536998 0.31908226 0.34627253 0.3986852 0.20169517
0.3357937 0.36862203 0.28339595 0.5138101 0.27104378 0.44152662 0.34407252 0.3325301
0.37682158 0.29808578 0.52574104 0.44549394 0.27305657 0.34286246 0.31181386 0.3955197
0.3257874 0.35587958 0.43100688 0.29669824 0.3988766 0.42865735 0.31387058 0.28277725
0.41408285 0.40478858 0.3359222 0.28955644 0.38235033 0.2817798 0.27100155 0.3162181
0.4530768 0.21365355 0.44791102 0.38155735 0.46784616 0.30893534 0.3181631 0.24533427

network.2.running_var f4 [256]
00000000: cbf0 0f3f 4ef2 c23e e4bc c83e 6790 da3e
00000010: f6ee 823e 1841 8d3e da83 183e 5f45 4d3e
00000020: 038c a63e e298 133f c911 2d3f 5bf5 933e
00000030: 8ee5 113f a411 6a3e b509 f33e 3f1a 373e
00000040: 7054 9c3e 7958 313e c09d bf3e f774 643e
00000050: 3dca 083e 3382 1e3f 0087 433e f993 0d3e
00000060: ccf4 033f db0d d93e ea18 533e d527 803e
00000070: b507 8a3e f099 a83e 2b83 153f 3e27 a03e
00000080: 0534 913e 2430 443f dbe8 633e 7d45 cb3e
00000090: 6e82 cf3e 57e4 903e 61cc 9b3e dc8e 2a3e
000000a0: 4ede 6e3e de86 033f 1581 183f ea55 073e
000000b0: 2bcf bb3e 0291 8c3e 4946 693e 18db dc3d
000000c0: 1948 1d3e 5b8c a33e 5047 833e ed13 bd3e
000000d0: 5b04 053e eb43 183e 06d3 e03e ddc0 923e
000000e0: cbc7 403e f836 873e f246 633e 7ab2 783e
000000f0: bbe6 6f3e 4ca9 d23e 8394 233f b3af 693e
00000100: 6c99 a83e 344b b63e ce8d 543e ae03 503e
00000110: b433 5f3e 5082 db3e 2a4d 5c3e 0658 2e3f
00000120: 9e0c 293e 8ae9 ff3e 6e1b 853e 4766 893f
00000130: f341 763e aa0a c03e e13b da3e 5eda 3b3e
00000140: 9dac d83d 7556 c13e 1f18 523e 88d9 463e
00000150: d1e7 413e a899 553e fe7a d13e dfb7 463e
00000160: 1dae 023f 6f3f df3e 453a b13e 0f2e f13e
00000170: 2596 d83e b884 903e ea94 e53d 4cd0 b83e
00000180: b6a7 373e 744c 633e 3426 713e 6b0d 403e
00000190: efa8 ac3e e684 b53e 0b9c 313e f099 8b3e
000001a0: 319f 043f f0e9 513e 1755 613e 68f3 a53e
000001b0: bde8 993e 7cb3 a83e dd17 333e 6791 533e
000001c0: 9bee b03e c76c 4c3e 3e15 f83e c9da 1f3f
000001d0: 268e 4e3e d4ba 443e 5562 163e a89d 163f
000001e0: dc7e a33e fe96 903e b7e1 c63e 2afb 013e
000001f0: 9e8f 1c3e 8340 a93e 72e8 f23e 319f b23e
00000200: 0da2 2f3e b9a6 743e 0b25 9c3e 33c7 873e
00000210: d631 713e b84f 483e b97f f23e 7f76 f53d
00000220: 041b 5d3e c739 b23e b4b3 713e b9bf 493e
00000230: 4bad 373e 0f86 403e cb2f 443e ba4d 873e
00000240: ab77 5a3e b50e 233e 1ce7 0a3f 2cdd 103e
00000250: f6b6 113e 48d4 303e d422 173f 7ff2 af3e
00000260: c288 503e 9bb3 473e 2d71 413e 0d89 b03e
00000270: 085d f43d 0451 413e ff5b b73e 3146 ce3e
00000280: c380 133e 2403 1a3e 5b53 c93e 9c84 823e
00000290: b911 b83e cac7 843e 8081 1d3e b38d 453e
000002a0: 21b3 7b3e 3bb5 923e 9cc0 af3e 0ffd 6f3e
000002b0: 9c52 0a3f 74c4 533e 5a60 3a3e 7e5d 8d3e
000002c0: 5101 f83d b731 d63e ff7e 7b3e e929 5a3e
000002d0: 1945 513e 2121 033f 6309 bd3d a8be 153f
000002e0: 5574 8e3e 196d d83d 2b80 5e3e 0cf7 8f3e
000002f0: db9d b33e c7b7 803e 3234 4e3e eaaf 083e
00000300: eef3 a13e fdcb be3e dac5 b33e 357a ae3e
00000310: 8191 4c3e 0ca6 843e bbe2 483e d11a a93e
00000320: a54e 7f3e 668a fd3e ca43 693e cd65 913e
00000330: 4245 413e fc76 683e 55b5 983e e54d 453e
00000340: 5564 a53e df33 8d3e 7ab4 bb3e 6a19 9c3e
00000350: c69c 9a3e 55bf b93e edcb b53e 35ce e83d
00000360: dbb6 4f3e 95f9 ac3e fb89 a53e 3d6a 093f
00000370: 285a 153e 684c c03e c24e c73e 3e3e 9f3e
00000380: 7185 9c3e 3f12 933e 1283 da3e ac5b 163f
00000390: bc41 1b3e f2e6 bf3e 1645 793e 7266 f63e
000003a0: 4db2 8f3e 94f9 8a3e 851c 0b3f 5fcf 463e
000003b0: 9731 c73e ff33 0c3f ec15 af3e 57de 383e
000003c0: 0f26 b83e be85 9c3e d824 3f3e d1fc 7b3e
000003d0: bbd9 7d3e 0c91 143e 8df6 163e 9cdd b73e
000003e0: 5b1d 223f 34ca e03d df2c e73e f1ea cd3e
000003f0: 5a26 283f 83e4 a03e 7452 6a3e e3e8 0c3e
0.56226796 0.3807549 0.39206612 0.42688295 0.25572938 0.27588725 0.14894047 0.20045994
0.32528695 0.57655156 0.67605263 0.2889813 0.569909 0.22858292 0.47468343 0.17881106
0.3053317 0.17318906 0.3742504 0.22310244 0.13358398 0.6191742 0.19094467 0.13825978
0.51545405 0.42393383 0.20614973 0.2503039 0.26959005 0.32929945 0.5840327 0.3127994
0.2836 0.76635957 0.22256796 0.39701453 0.40529197 0.2829921 0.30429366 0.16656059
0.2332699 0.51377666 0.59571964 0.13216367 0.36681494 0.27454382 0.22780718 0.10783976
0.15359534 0.3194302 0.25640345 0.36929265 0.12989943 0.14869659 0.43910998 0.28662768
0.18826215 0.26409125 0.22195032 0.24286833 0.2342786 0.41144788 0.63898486 0.2282093
0.32929552 0.3560425 0.20757219 0.20313904 0.21797067 0.42872858 0.21513811 0.68103063
0.1650872 0.49982864 0.2599749 1.0734338 0.24048595 0.37508136 0.4262381 0.18345019
0.10579798 0.37761274 0.20517014 0.19418919 0.18936087 0.20859396 0.40914148 0.19406079
0.51046926 0.43603083 0.3461477 0.47105452 0.4230205 0.28226256 0.11210044 0.36096418
0.1793507 0.22197133 0.2354973 0.18755119 0.33722636 0.35452956 0.17344682 0.27265882
0.51805407 0.20499396 0.22005115 0.32412267 0.30060378 0.32949436 0.17489572 0.20660935
0.34557042 0.1996337 0.48453707 0.62443215 0.20171413 0.19211894 0.14685948 0.58834314
0.31932724 0.28240198 0.38844082 0.12693468 0.1528916 0.3305703 0.47442967 0.34887078
0.17151661 0.23891725 0.30497012 0.26519164 0.23554167 0.1956166 0.4736307 0.11985492
0.21592337 0.34809706 0.23603708 0.19702043 0.179372 0.1880114 0.19158857 0.26426488
0.21334712 0.15923579 0.54258895 0.1414687 0.1422995 0.17268479 0.5903752 0.34364697
0.20364669 0.19502108 0.1889083 0.3447956 0.11931807 0.18878561 0.35812375 0.40287927
0.14404587 0.1504026 0.39321408 0.25491798 0.3595102 0.25933677 0.15381432 0.19292335
0.24580051 0.28653893 0.34326637 0.23436378 0.540323 0.2068041 0.18200818 0.2761039
0.12109626 0.41834804 0.24560164 0.2130505 0.20436515 0.51222426 0.09230306 0.58494043
0.2782313 0.10567684 0.2172858 0.2811817 0.35081372 0.2514021 0.20137098 0.13348356
0.31631416 0.37265006 0.35111886 0.34077612 0.1997738 0.25907934 0.19617741 0.33028272
0.24932344 0.49519652 0.22779766 0.2839798 0.18874076 0.22701639 0.29825845 0.19267996
0.3230311 0.27578637 0.3666113 0.3048814 0.30197734 0.36278787 0.35507146 0.11367456
0.20284598 0.33784166 0.32331833 0.5367773 0.14585173 0.37558293 0.38927275 0.31102175
0.30570558 0.28724858 0.42678124 0.5873363 0.15161794 0.37480885 0.2434276 0.48125035
0.2806572 0.27143538 0.5434039 0.19415043 0.38905022 0.5476684 0.34196413 0.18053566
0.35966536 0.30570787 0.18666399 0.2460816 0.24790089 0.14508456 0.14742489 0.35911262
0.6332604 0.10976067 0.4515142 0.4021831 0.6568352 0.3142434 0.22883016 0.13760714

network.4.weight f4 [128, 256]
00000000: 2c9b bcbc 8804 3dbd 99c8 123d 5e0f 8dbb
00000010: 20d2 78bd 272f 58bc 1dac 663d bb35 cc3c
00000020: 9f2f 62bd 19de f1bc 9d0f eb3b c18e 83bb
00000030: 8885 3fbd 48dd 2a3a d507 0f3c 4a57 a33d
00000040: dd8a 24bd 2341 6a3d 3069 14bd 3895 753d
00000050: f809 45bd c62c 32bc fc7d c0bb e236 463c
00000060: f4e3 913c e9db 76bd 3795 de3c 292d 87bd
00000070: 7295 1cbc f7d2 41ba c7ec 49bd 14bd d93c
00000080: 69ec 323d 212c 0b3d 25d2 2fbd 9a7e 4f3d
00000090: b6a4 a5bc f810 5fbd 6b5e 303d 5d37 8f3c
000000a0: 401c 7b3d e37f ac3c 4ef4 b03c e48d 223d
000000b0: 71f9 6b3d 13c0 99bb 420d 9f3c 58ef a3bc
000000c0: 794f 35bd 0cda 883c 30a4 223d 90d5 33bb
000000d0: 0b96 9bbd 196f 863c 3245 173d 14a3 053d
000000e0: 9173 f2bc c699 57bd d89a 483d a6cf 783d
000000f0: 66be 41bd 8068 eebc 21a8 2c3b 7a83 d13c
00000100: db0f 29bd fcf0 203d 0c68 973c a255 143d
00000110: 17bb 313c 122e 91bc ad12 5c3d 7cf6 c4bc
00000120: ceac c5bb 51d7 80bd ac3a 6fbc 7663 7c3b
00000130: 13db 62bc cfb2 4d3d a7dd 82bc 1eb9 f73a
00000140: 413c 733c efe4 c83a 9c5b e03c 44cf 1e3d
00000150: cb28 95bd a8d5 b0bc cc45 12bd f18b cb3c
00000160: cc09 993d 3b19 913c 31db 193c 9d4a 35bd
00000170: 5739 373d b7d8 58bd 0aef 32bd eeb3 44bc
00000180: aacf 93bb 6455 02ba 8c17 a33c 911d b1bc
00000190: fac8 8c3c b93c c7bc a543 203d 5fde 1e3c
000001a0: dbfa 84bd 7aff 133d 4a66 f5bc 852c 39bd
000001b0: 867c 733d 35eb 8a3d d128 dfbb f968 03bd
000001c0: 3735 e93c f8e0 49bb ff79 94bc 172a 103d
000001d0: 9775 4e3d 78de 65bd 0684 57bc a64b 90ba
000001e0: 087c eabc 52a5 aebc 4d33 e2bc 607a 3c3d
000001f0: a93f 0ebd 139c 823c 3c0d 923c 0fac 3abd
00000200: 295f 84bd 4eac 17bd 4dc6 2fbd ee18 55bd
00000210: 6077 27bc 2b0f 863d 6557 d83b cb0d 803d
00000220: 2f97 90bc bc0b 233d e09f 463d ef30 6a3d
00000230: afd3 e5bc 1b1c 5abd 3ff1 2abd f8f1 3abd
00000240: bd80 f13c ba2e fbbc 585a 673d 86b9 d8bc
00000250: 5f71 28bc 1068 12bd 3277 f0bc 6502 843c
00000260: 3f36 2539 ca83 a03b d7e1 063d d71d 503c
00000270: a3fb 5b3c 61b3 833d badd a33d 9d24 3f3c
00000280: 0850 893d bfaf 023d f16b d63c be53 42bc
00000290: 0fc2 393d 6795 84bd 6b85 133d 7ec3 febc
000002a0: db41 44bc d914 bbba 10c3 80bc 901f 973c
000002b0: 0ec9 04bd 80c0 bfbc ee9b b4bc eb4c 123c
000002c0: f706 44bd f8b1 b8bb 184a a53a 30ef 1c3d
000002d0: f76f dcbc 7faf d93c 1e6a ffba 5f12 daba
000002e0: ceca 173d 27bb 92bb aa84 38bd fefb 6a3d
000002f0: af0c 4cbc 75ca 003d 3606 0dbd 54a0 523d
00000300: ee54 dbbc 243e 79bc 23d9 69bd bd40 8fbc
00000310: 812c 81bd e134 68bb ed1a 93bc 77d3 8c3c
00000320: fac5 333d ebd7 dcbc 8d88 8a3d 78e9 583d
00000330: f396 1abd ae76 c8bc e2ee 12bd dcd5 d5ba
00000340: d1bb 69bd 61c5 8abc dabe cd3c 61d9 61bd
00000350: b13d 41bd 5b57 cebc d42e 1dbd e3a1 21bd
00000360: d6e5 36bb 4ede 0c3d b44c aa3c e548 d6bc
00000370: b54b c93c 5c85 43bb 8776 b03c 4e52 bcbc
00000380: ad0a 90bc 67fa 3f3c b942 073d 18ea 0c3d
00000390: b9fe 1bbd 04a9 89bc 577d 0fbd 6700 2fbd
000003a0: 0798 893d b487 0d3d 7e9d e6bb 5dbd 503c
000003b0: f2f7 0d3d bb46 563c 26f6 dd3c c12a f43c
000003c0: 18b7 e7b9 0c09 99bc a686 13bd 4604 a73c
000003d0: cfae 0dbd c489 e03c 5dfb 923b 1afa 81bd
000003e0: a7b3 4dbc aa97 513d d56a 113c 69bc 6fbd
000003f0: 2fb9 4dbd fc4c 5c3d b507 af3c ff69 19bd
-0.02302321 -0.0461469 0.035835836 -0.0043048104 -0.060747266 -0.013194836 0.056316484 0.024927964
-0.055221196 -0.02952485 0.007173492 -0.0040148203 -0.046758205 0.0006517959 0.008729895 0.079756334
-0.040171493 0.057191025 -0.036233127 0.05995676 -0.04810521 -0.010874933 -0.0058743935 0.012098046
0.017808892 -0.060268316 0.02717076 -0.066004105 -0.009557115 -0.0007393802 -0.049298074 0.026579417
0.04368249 0.03397763 -0.04292502 0.050657846 -0.020220142 -0.054459542 0.043058794 0.017482454
0.06130624 0.021057075 0.021600869 0.0396861 0.057610933 -0.0046920865 0.019415502 -0.020011589
-0.044265244 0.016705535 0.039707363 -0.0027440526 -0.07596978 0.016410397 0.036931224 0.032626227
-0.029596122 -0.052636884 0.048975796 0.060744904 -0.04730072 -0.029102564 0.002634533 0.025575388
-0.041274887 0.03929232 0.01848223 0.03621448 0.010847828 -0.017722163 0.053728748 -0.024043314
-0.006032563 -0.06291068 -0.014601391 0.0038511432 -0.013846177 0.050219353 -0.015974833 0.0018899774
0.014845909 0.0015327017 0.027387433 0.038771883 -0.07283171 -0.021586254 -0.035711095 0.024847003
0.07472572 0.017712226 0.009390638 -0.04426061 0.044732418 -0.05294105 -0.043684997 -0.012005789
-0.0045108395 -0.00049718306 0.019908689 -0.021620544 0.017185677 -0.024320947 0.03912701 0.009696572
-0.064931594 0.036132313 -0.029956002 -0.045208473 0.059444927 0.067831434 -0.0068102856 -0.03208253
0.028467758 -0.0030804258 -0.018124579 0.03519639 0.05040511 -0.056120366 -0.013154035 -0.0011008873
-0.028623596 -0.021319065 -0.027612353 0.046015143 -0.03472868 0.015943563 0.017828576 -0.045574244
-0.06463463 -0.037029557 -0.042913724 -0.052025728 -0.010221332 0.06545862 0.006602215 0.06252631
-0.017650215 0.039806113 0.048492312 0.057175573 -0.02805504 -0.05324946 -0.041733976 -0.045640916
0.029480333 -0.03066193 0.056482643 -0.026455652 -0.010280936 -0.035743773 -0.029353712 0.016114423
0.00015755834 0.004898523 0.03293022 0.012702427 0.013426694 0.06430698 0.08001275 0.011666444
0.06704718 0.031905886 0.026174517 -0.011860786 0.045351084 -0.06473809 0.03601591 -0.031099077
-0.011978592 -0.0014273181 -0.015718013 0.018447667 -0.032418303 -0.02340722 -0.02204701 0.0089294715
-0.047858205 -0.00563645 0.0012610583 0.038314044 -0.026908858 0.02657294 -0.0019486581 -0.0016637555
0.037058644 -0.0044778767 -0.045048393 0.057369225 -0.012454196 0.031443078 -0.03442975 0.051422432
-0.026773896 -0.015212569 -0.057091843 -0.017486924 -0.063073166 -0.003543191 -0.017957175 0.017190678
0.043889977 -0.026958426 0.06764326 0.05295703 -0.037741613 -0.024470653 -0.035872348 -0.0016314345
-0.05706388 -0.01693982 0.02511542 -0.05513895 -0.047177974 -0.025188139 -0.038374737 -0.039461028
-0.002790799 0.034391694 0.020788528 -0.026157806 0.024572233 -0.0029834127 0.021540893 -0.022988465
-0.017583216 0.011717415 0.033022616 0.034402937 -0.03808472 -0.016804226 -0.035031643 -0.042724993
0.0671845 0.034553245 -0.0070378175 0.01274046 0.034660287 0.013078387 0.027094912 0.029805543
-0.0004419617 -0.018681072 -0.036017083 0.02038778 -0.03459054 0.027409442 0.0044855312 -0.06346531
-0.0125550395 0.05117003 0.008875568 -0.05852929 -0.050225433 0.053784356 0.02136598 -0.0374546

network.4.bias f4 [128]
00000000: f17b 81bd 9144 64bc 56a0 d63c ec58 37bd
00000010: 375f e93c 68f3 4e3d d323 35bd 33dd 86bc
00000020: f9c0 d3bb f8cc 8b3d 6069 a83b ddc1 5d3d
00000030: cc1b 343c ce1e 3a3d 41e7 dbbc cac0 733c
00000040: 36ae 5ebc aedf 7dbd 0e56 533d d139 823d
00000050: 76a8 463d 14b1 57bc 630e 85bc 90c4 28bb
00000060: 64cd 2cbc 7b18 48bd 96c4 55bd 0da9 f8bc
00000070: 4a83 163d 49db 5bbd 2854 26bb 534f 973d
00000080: 47fc 1b3d 1e0c 2fbd 1f2f 43bd 1179 dfbc
00000090: 2489 81bd 7b4c a83c 4f9d da3c d441 303d
000000a0: e965 49bd 5cfe b7bb 9646 b7bc d319 1b3d
000000b0: 9b87 263d 44e4 14bd 7dfc 423c cb36 313d
000000c0: 79b2 b13c 103d 343d f583 7d3d ac6b c8bc
000000d0: 5954 ed3c a166 34bd aef9 61bd f6f0 36bd
000000e0: fe59 11bd 5394 083c 8ba9 913b cc27 76bc
000000f0: b219 943d 0a7e 48bd 64b8 46bd 53f2 033c
00000100: 07db 17bd 68a6 0e3d 2ac3 303c 0739 b7bc
00000110: 3114 11bd 929f 84bd b1b5 0bbd f9e8 b03c
00000120: bfbb c73c 7bf4 47bd 2ff9 723d d427 11bc
00000130: d7da 8cbb 1cfc 7ebd 9ded 363d ab7f cfbc
00000140: 85a6 0cbd 3956 363c 8abd 873d 3f7b cd3b
00000150: 7c1a 7f3c 5562 fbbc 695d 49bd 4130 583d
00000160: 0a21 11bc 0796 ff3c bc91 24bd 6ff1 3ebd
00000170: d016 513d 919e 183d 6157 8a3c 0f84 07bd
00000180: 2aed 6a3c 111c b1bc c473 823c 1968 413b
00000190: 47ca 273d 9cc8 8b3d 5e1c 87bd 674a 09bd
000001a0: dad5 263c 28cd 8f3c b810 49bd 144a f23c
000001b0: da7c e4bc 8a92 6b3d 209f 193d beb5 543d
000001c0: 230e 08bd 2574 64bc cd6f 973d 6d0e 083d
000001d0: 7638 f43c a5fd 9dbb 581c 81bd a696 043d
000001e0: 5c0e c4bc d0c3 13b9 68cf 543d 0abf cf3c
000001f0: 03e5 d4bc 510b b1bc 0205 fe3a 50c6 253d
-0.06322468 -0.013932363 0.026199501 -0.044762537 0.028487785 0.0505251 -0.044223618 -0.016462898
-0.006462213 0.06826204 0.005139515 0.05413996 0.010992955 0.045439534 -0.026843669 0.014877507
-0.01359134 -0.061980896 0.05159574 0.06358684 0.0485005 -0.013164777 -0.016242212 -0.0025751926
-0.010547016 -0.04885147 -0.052189432 -0.030354047 0.0367463 -0.053675923 -0.002537975 0.07388177
0.038082387 -0.042736165 -0.04765236 -0.027279409 -0.063249856 0.020544281 0.026686339 0.04303153
-0.049169455 -0.005615039 -0.022372525 0.037866425 0.040656667 -0.036350504 0.011901018 0.043265145
0.021691548 0.044003546 0.061893422 -0.024465404 0.028970884 -0.044043187 -0.055169754 -0.044663392
-0.035486214 0.0083361445 0.00444526 -0.015024137 0.072314635 -0.048948325 -0.048515692 0.00805338
-0.037074115 0.034826666 0.010788718 -0.02236606 -0.035419647 -0.06475748 -0.03410882 0.021595465
0.024381517 -0.04881714 0.05931967 -0.008859593 -0.0042985487 -0.06225215 0.0446602 -0.025329432
-0.034338493 0.0111289555 0.066279486 0.0062707956 0.015570279 -0.030686537 -0.04916135 0.052780394
-0.008857975 0.031199468 -0.040178046 -0.046616968 0.051047146 0.037260596 0.016887369 -0.033084925
0.014338771 -0.021619828 0.015924342 0.002951151 0.04096439 0.068253726 -0.065972075 -0.03351822
0.010182822 0.01755388 -0.04908821 0.029576339 -0.027891565 0.057512797 0.03750527 0.051931135
-0.033216607 -0.013943707 0.07394371 0.033216882 0.029812079 -0.0048214965 -0.06304234 0.032370232
-0.023932628 -0.00014091958 0.05195561 0.02535965 -0.025988108 -0.021611841 0.0019380155 0.04047233

network.6.weight f4 [128]
00000000: 46c2 7d3f 1c0c 7f3f c4a7 803f 7bf6 823f
00000010: 0255 7f3f dfcb 7f3f a6ed 7f3f 100c 7a3f
00000020: c3a9 803f d376 7e3f 940a 803f ffa7 813f
00000030: 1ee2 813f 7a84 813f 87d3 803f 76a0 7e3f
00000040: c87f 7d3f d115 803f b6b9 7c3f 6c8e 7d3f
00000050: e872 823f aca0 7e3f 9158 7f3f 26a4 803f
00000060: 7fb3 793f 1b1f 7a3f b02a 7e3f 2789 7e3f
00000070: 8d37 823f 372a 7f3f 98cd 7c3f 9c5b 7c3f
00000080: c0bd 7e3f 1da6 7f3f ea91 803f 2593 7f3f
00000090: 0aa4 7e3f 97f6 803f 9943 7b3f 0ab1 7e3f
000000a0: 7b01 813f 2fb5 803f 08c1 7c3f cd66 7e3f
000000b0: a64c 813f 506d 833f 4960 803f 89fe 7c3f
000000c0: e325 813f d8ea 783f b0fd 7f3f 5609 803f
000000d0: 98de 803f c223 843f e4ca 7c3f 42e8 7b3f
000000e0: 28c2 813f 4b4a 813f f53f 7d3f 74ae 813f
000000f0: baab 7e3f 7c73 803f aa36 813f ebe3 803f
00000100: d058 813f 5426 823f b729 7e3f c974 803f
00000110: 0f37 813f fe46 813f 07f2 7c3f 318b 7d3f
00000120: c7d9 7b3f a1ef 7b3f ef98 813f c53f 813f
00000130: bfc4 7f3f 3061 7f3f 9ad5 7e3f 318b 7f3f
00000140: 0dfc 7d3f 8313 803f 41b1 803f b113 823f
00000150: dcb1 7d3f 44f6 7b3f 2728 7f3f a02a 7f3f
00000160: 4457 803f d443 7f3f f713 803f 464a 813f
00000170: 6a37 7d3f a5af 7c3f 5315 813f e822 803f
00000180: ca68 7b3f 95ca 7b3f 6daf 813f cd46 7a3f
00000190: de5f 803f 0565 7e3f 9557 803f e178 833f
000001a0: c155 7f3f dd89 833f ed00 7e3f 7a05 823f
000001b0: 7fed 7d3f 6f4b 833f 428c 813f 4582 803f
000001c0: 5a7b 823f d2e2 7d3f 68f2 7e3f 2e55 7e3f
000001d0: 6566 843f 94f5 813f 72e8 823f 5e49 7d3f
000001e0: b4e8 823f e60f 803f d941 7c3f c0ea 803f
000001f0: f97e 7e3f b0bd 7c3f 5905 843f 7a77 803f
0.9912456 0.9962785 1.0051198 1.023147 0.99739087 0.9992046 0.99972 0.97674656
1.0051807 0.9940006 1.0003228 1.0129393 1.014713 1.0118554 1.0064553 0.99463594
0.99023104 1.0006658 0.9872087 0.99045444 1.0191317 0.99463916 0.99744517 1.0050094
0.97539514 0.97703713 0.99283886 0.9942803 1.0173203 0.9967379 0.9875121 0.98577285
0.99508286 0.99862844 1.004453 0.998339 0.99469054 1.0075253 0.9815002 0.9948889
1.0078577 1.0055293 0.9873204 0.9937561 1.0101516 1.0267735 1.0029384 0.9882589
1.0089687 0.97233343 0.9999647 1.0002849 1.006793 1.0323412 0.98747087 0.9840127
1.0137377 1.0100797 0.98925716 1.0131364 0.99480784 1.0035243 1.0094807 1.0069555
1.0105228 1.0167947 0.992824 1.003564 1.0094928 1.009979 0.98806804 0.99040514
0.98379177 0.9841252 1.0124797 1.0097586 0.99909586 0.9975767 0.9954468 0.99821764
0.99212724 1.0005955 1.0054094 1.0162259 0.99099517 0.98422647 0.9967064 0.99674416
1.0026631 0.9971287 1.0006093 1.0100791 0.9891268 0.9870551 1.0084633 1.0010653
0.9820677 0.9835599 1.0131661 0.97764283 1.0029256 0.99372894 1.0026728 1.0271264
0.99740225 1.0276448 0.9922016 1.0157921 0.99190515 1.0257396 1.0120928 1.0039755
1.0193894 0.99174225 0.9958863 0.99348724 1.0343748 1.015307 1.0227187 0.98940074
1.0227265 1.0004852 0.98537976 1.007164 0.99412495 0.9872694 1.0314132 1.0036461
