models/10s30s_next_day_mlp_fold2.pth (torch, 474167 bytes, 19 tensors)

network.0.weight f4 [256, 286]
000000 d7 12 1d 3d 67 72 be bc 71 a9 0e bd 9c 93 b2 3c
       0.038348045 -0.02324791 -0.03482956 0.021798901
000010 df c6 b2 3c 0f 70 59 bd be 2d ee 3b 90 ff 3f 3c
       0.021823345 -0.053085383 0.0072686365 0.011718646
000020 89 9b 01 bd 9c b1 43 3d 6d 99 25 3d 45 ae f8 3c
       -0.03164247 0.047776803 0.04042952 0.030356536
000030 fe f8 7b 3d 21 eb ff 3c e1 1a 34 3d d0 75 23 bd
       0.061516754 0.031240048 0.043970946 -0.039907277
000040 3a 00 2a bd 23 a9 dd bc fc 8c 83 3c 7c c2 15 bd
       -0.041504122 -0.02705819 0.016058438 -0.036562428
000050 df 01 0e bd b3 ad f9 bc df 6a 38 bd 15 e8 a4 3c
       -0.034669753 -0.030478334 -0.045023795 0.020130197
000060 90 be f2 3b 9d a0 d6 3b b1 ba a9 3b 10 cc 6a 3d
       0.0074079707 0.0065499083 0.005179726 0.057323515
000070 6b 29 61 bd f9 60 80 bd b7 e5 20 3d 3f 4f 01 bd
       -0.05497114 -0.06268496 0.039281573 -0.031569716
000080 f2 d8 2e 3d 71 66 01 3d 11 49 e3 3c 0e 71 af 3b
       0.042687364 0.031591836 0.027744802 0.0053540533
000090 66 d2 87 bd f8 0e 39 bd 49 1f 2c bc 7e a2 2d bd
       -0.06631927 -0.04518029 -0.010505506 -0.042391293
0000a0 a4 ee e6 3c e8 7b 79 bd bd fc 12 3b 82 35 8a bb
       0.028189965 -0.06090918 0.0022428476 -0.0042178044
0000b0 77 f1 15 bd 55 eb 51 3d d0 89 d9 bc 42 97 b6 3c
       -0.036607232 0.05124982 -0.026554972 0.022288922
0000c0 3d a3 12 3d 8b 8c 47 3c 5e 0b b2 3c d3 b5 85 3c
       0.035800207 0.012179504 0.021733936 0.016322052
0000d0 e2 d3 2a bc 01 90 90 bc 91 27 36 bc b5 8a 85 3c
       -0.010426493 -0.017646791 -0.011117832 0.016301492
0000e0 21 fa 42 bd 8c ec 7f bd fb 8d 85 bd 43 b0 44 bd
       -0.047601823 -0.062481448 -0.06521221 -0.04801966
0000f0 1d a9 10 3c c2 5e 0c 3d 88 f2 f8 bc be 10 95 bc
       0.008829382 0.034270056 -0.030389085 -0.01819646
000100 4d 07 8f 3b c7 9c 05 bd 40 9c 57 3d 08 1f 10 bc
       0.004364884 -0.032620218 0.052639246 -0.008796461
000110 b1 1f 1b 3c f1 8b cd ba bc 57 62 3c 94 13 81 3c
       0.009468005 -0.0015681965 0.013814863 0.015756406
000120 3e 72 3d 3c cf 3e 2a 3d 59 06 1e bd 57 9f 54 3d
       0.011562882 0.041563805 -0.038580272 0.05190977
000130 39 a9 10 3c 93 4e b9 3c 7a 78 3b bb c6 d3 f4 bc
       0.008829408 0.022620475 -0.0028605745 -0.029886138
000140 e5 a2 18 bd 1e 13 b0 bc 38 e0 1f bd 38 d2 bc 3c
       -0.037264723 -0.02149349 -0.03903219 0.023049459
000150 7c cf 6d bc 76 8c 94 3c c1 ad 07 3d d8 76 1f bd
       -0.0145148 0.018133383 0.03312469 -0.038931698
000160 d8 74 66 3d 67 3c 5b 3d 72 15 d3 3c 29 a9 15 bd
       0.056263775 0.0535244 0.025767062 -0.036538277
000170 e8 74 1a bd 72 f3 22 bd 20 02 cf 3a 71 b2 b8 bb
       -0.037709147 -0.03978295 0.001579348 -0.0056365062
000180 46 fc 51 3d 30 95 42 bd e6 75 53 3d f1 ed a0 bc
       0.051265977 -0.047505558 0.05162611 -0.01964471
000190 c5 d2 d3 bc 2f bb 8f 3b ba 82 29 bc 18 fb 6d 3c
       -0.025857339 0.0043863277 -0.010346109 0.014525197
0001a0 71 5b 54 3d 96 d5 6b ba 95 fa 58 3d 67 54 cf 3c
       0.051845018 -0.00089963654 0.05297335 0.0253088
0001b0 12 d4 01 3d 0f c1 66 bd 64 83 03 3b 53 2a 84 bc
       0.031696387 -0.05633646 0.0020067329 -0.016133463
0001c0 12 c4 dd bc 35 06 54 bd a0 9f 04 bd d0 79 1f bd
       -0.027071033 -0.051763732 -0.032378793 -0.03893453
0001d0 b3 ff cf 3b c6 55 f9 3c 5f 38 02 bc 07 8c 84 bc
       0.0063476204 0.030436408 -0.00794801 -0.016180051
0001e0 55 9a 76 bd 3e d4 3b 3d c2 e7 18 3d 5c b2 25 3d
       -0.060205776 0.045856707 0.037330396 0.0404533
0001f0 13 91 e8 3c f0 eb 3f bd c9 12 81 bd 85 08 b5 bc
       0.02838949 -0.046855867 -0.06302411 -0.022098789
000200 7b 8c d3 3c 4a 62 32 bd 2c cd cf 3c 5e ce 06 3d
       0.025823822 -0.043550767 0.025366388 0.03291165
000210 02 76 05 bd b4 7b 48 bd 64 50 e0 bb fb 1b a7 bc
       -0.032583244 -0.048946097 -0.006845521 -0.020399084
000220 3d 1b 6d bc e2 3d f4 bb 26 4a 71 3c 1c 13 fe 3c
       -0.014471826 -0.007453666 0.014727151 0.031014971
000230 4f da 3d bd db 65 68 3d 10 c9 a4 bc f8 6c 30 bd
       -0.046350773 0.056737762 -0.020115405 -0.04307267
000240 44 9e 51 3d 88 40 b0 3c 0c b8 3b bd 81 97 20 bd
       0.051176324 0.021515146 -0.045829818 -0.039206985
000250 95 58 b4 3c 60 22 e0 bc 59 0b 67 bd 3a 74 a3 bc
       0.022014895 -0.027360141 -0.056407306 -0.019952882
000260 f1 d9 39 bd 97 0a 47 3d 90 0f 2f 3d a3 4b 6c 3d
       -0.04537386 0.048594084 0.04273945 0.05768932
000270 69 26 eb bc 1a 6d 15 3c ae 1c 88 3c 21 2b cf bc
       -0.028704839 0.00912025 0.016615238 -0.02528912
000280 16 57 e2 bc c8 e7 75 bd cb d2 0d 3b ed a6 87 bd
       -0.027629416 -0.060035497 0.0021640535 -0.066236354
000290 46 0d 27 3d b9 22 19 3d 90 45 02 bd 9a 57 13 bd
       0.040784143 0.03738663 -0.03180462 -0.035972215
0002a0 ca 9d 49 bd 95 7c e4 bb 78 b9 66 ba 35 ee 20 bd
       -0.049222745 -0.006972859 -0.00088014407 -0.039289672
0002b0 2c 42 24 3d 1e 4b 97 bc 13 5b 90 3b 62 bd 27 ba
       0.04010217 -0.018468436 0.004405388 -0.00063987647
0002c0 97 32 12 bc 15 d9 df 3b 64 1b f2 bc 19 f7 8d 3c
       -0.008923194 0.006831298 -0.029554076 0.01732974
0002d0 e0 d4 36 3d 13 f5 32 bd bc 15 22 3d ee 5b f6 bc
       0.044636607 -0.043690752 0.03957151 -0.030073132
0002e0 b0 ae 93 bc ba 7d 06 bd d5 8a f4 bc d3 07 e2 3c
       -0.018027633 -0.032834746 -0.029851357 0.027591622
0002f0 2e 0d 5f 3d 85 a3 4a bc de a7 11 bc 8e 5d c5 3b
       0.05445593 -0.012368088 -0.00889012 0.0060231155
000300 fc b3 7b bd b4 72 be bc 52 af 9c bb 2b 20 ad 3c
       -0.061450943 -0.023248054 -0.004781642 0.021133503
000310 78 67 27 bb da c5 f9 bc 6a 68 8f bd 1c 0d d8 bb
       -0.002554385 -0.03048985 -0.07002337 -0.0065933596
000320 01 40 13 bc 14 a8 a3 bc 63 92 e0 bc ce 81 8f bb
       -0.008987428 -0.019977607 -0.027413553 -0.0043794876
000330 d5 a7 4b bd 19 c3 6f 3b 7b a4 8f 3c a9 0a 62 3d
       -0.049720604 0.0036584793 0.017534485 0.055185948
000340 ae 08 00 3d 5e de 04 bd 71 98 3f bc 82 91 8e 3c
       0.031258278 -0.03243863 -0.01169406 0.017403368
000350 19 fb 35 bd b3 be 18 3d a0 fc 98 bb a5 29 84 bd
       -0.04442892 0.03729124 -0.004668787 -0.064532556
000360 ee 98 3f bb 66 03 c7 3c bd 6c 24 3d 23 46 eb bc
       -0.002923544 0.024293613 0.040142763 -0.028719967
000370 60 aa ae bc 54 2c 7f bc 8d 7a 31 3d 41 91 2e bc
       -0.021321476 -0.0155745335 0.043329764 -0.010654748
000380 c8 f5 89 3c 3c 1a 77 bd 33 c8 5a bd c3 5c 37 bc
       0.01684083 -0.060327753 -0.05341358 -0.01119155
000390 1e f2 5f 3d ba 86 8d 3c 1c 72 8b 3c 27 06 14 3d
       0.05467426 0.017276157 0.017022185 0.03613868
0003a0 e3 4f 0d 3b 51 96 e7 3c 4c c5 07 3d 2e 44 04 3d
       0.0021562509 0.028269919 0.03314714 0.032291584
0003b0 05 ce c1 bc d0 4b 11 3d 98 09 ca bc 27 95 44 3d
       -0.023657808 0.03547269 -0.024662778 0.047993805
0003c0 a6 6b 78 bd c2 d2 ac 3c 73 51 27 3d ae 4c 9a bc
       -0.060649537 0.02109659 0.04084916 -0.018835392
0003d0 98 5b e8 3c 77 ba 8b 3c 21 f1 aa 3c f6 73 96 bc
       0.028363988 0.017056687 0.020866932 -0.018365841
0003e0 77 3f d5 bc 50 62 c5 3c f8 31 b1 bc 49 7d f8 ba
       -0.026031239 0.02409473 -0.021630272 -0.0018958236
0003f0 5f 23 2e bd e9 4e 55 bc 56 ca 94 3c 0c e4 a0 3b
       -0.0425142 -0.013019302 0.018162888 0.004909998

network.0.bias f4 [256]
000000 d6 08 3d bd be 4f 49 bd f0 2e 61 bd 75 cf d1 3c
       -0.046151005 -0.049148314 -0.054976404 0.025611619
000010 ab 24 7d bc c2 5a 22 3d a1 25 54 3d 3a 67 02 bd
       -0.015450637 0.039637335 0.0517937 -0.031836726
000020 cf 15 e2 bc 38 f9 33 bd e2 3d 80 3d 5b 04 f6 3c
       -0.02759829 -0.043938845 0.06261803 0.030031374
000030 02 5c 42 3c 23 b3 0a bd d9 53 39 3d 0f 73 a0 3c
       0.011862757 -0.033862244 0.04524598 0.019586114
000040 39 bf f2 bc 13 7d 0d bd 47 70 14 bd 43 c3 44 bd
       -0.029632198 -0.03454311 -0.03623989 -0.04803778
000050 46 c9 1d 3c 03 fc 29 3d cc 85 3d 3b 82 97 2d bd
       0.009630507 0.041500103 0.002891886 -0.042380817
000060 98 24 10 bb 75 03 47 bd 8d 48 a5 bc 8d 4e 10 3d
       -0.0021994468 -0.04858728 -0.020176196 0.03523116
000070 06 dc 1c 3d 7c 6d 0c bd 45 f6 b8 3b ab 28 4e bd
       0.03829577 -0.0342841 0.005644592 -0.050331753
000080 3a 5c 63 bd 9b 49 7b 3c b1 48 80 3c 3c 21 03 bd
       -0.055507876 0.015337373 0.015659662 -0.032014117
000090 cf 94 55 3d 5d c9 78 bc 0e 63 2d bc 89 95 d4 bc
       0.052143868 -0.0151847275 -0.0105826985 -0.02595021
0000a0 cc 26 0f 3c 2d bf 55 3d 81 b9 0f bd 9c d3 9b 3c
       0.008737277 0.052184273 -0.03508902 0.019021802
0000b0 3c 2b ec 3b c6 45 df bc c5 84 69 3d 17 e9 b3 3c
       0.0072073024 -0.02725495 0.057011385 0.021961732
0000c0 78 5f 35 3d f1 2c 52 bd 8a 4e 3a 3c b7 58 73 3d
       0.0442805 -0.05131239 0.011371264 0.059410777
0000d0 2e dd 3e 3c 76 ee 4b bd d5 84 0a bc 98 cd 00 3d
       0.011649413 -0.04978796 -0.008454521 0.03144607
0000e0 ce 92 1d bd 40 0a 62 3d dd c6 9a bc 12 16 25 bc
       -0.038470082 0.055185556 -0.018893654 -0.010076063
0000f0 17 42 fd bc 52 fe 7f 3d b9 6c 39 3d dd 4b 66 3c
       -0.030915303 0.062498398 0.0452697 0.014056173
000100 67 bc e5 3c 71 4f d4 bc b8 b7 6d bd 25 2f 53 bd
       0.028043939 -0.025916787 -0.058036536 -0.051558632
000110 64 f8 a8 3a f1 40 57 3b d3 f3 ab 3c 1e af 58 bd
       0.0012891409 0.0032845105 0.020990288 -0.05290138
000120 11 cb da bb 24 a8 7a bd f6 09 2a 3d 0c 15 77 3d
       -0.0066770394 -0.061195508 0.041513406 0.060322806
000130 9d b9 a6 bc ce ec c9 bc b9 d8 bb bb ec e7 81 3d
       -0.02035218 -0.02464905 -0.0057326225 0.06343064
000140 c2 ad f1 bc 94 5f 66 bd 8d 4f 1b bd 75 6e be 3c
       -0.0295018 -0.056243494 -0.037917662 0.02324603
000150 e8 41 39 3d 24 75 03 3d fb 80 56 bb ea 5a 34 bd
       0.04522887 0.032094136 -0.0032730687 -0.044032015
000160 fa 9a d9 3c 0e 0a 12 3d ff 20 9c bc 04 77 65 3b
       0.026563156 0.03565412 -0.019058703 0.0035013566
000170 ad 0f 8a bb e4 3c 3e bc f3 e1 e3 bc 8e cd dc 3c
       -0.0042132945 -0.011611197 -0.027817702 0.026953485
000180 2b 0d 00 3b b8 a9 c8 3c 69 a7 72 3d c6 9a a3 bc
       0.0019539099 0.02449499 0.059241686 -0.019971263
000190 74 b4 24 3d ea e3 28 3d 95 42 02 bd ee c6 0d 3d
       0.040211156 0.04123298 -0.03180178 0.034613542
0001a0 64 9f 91 3d 71 0b 79 bd cd 9c 0d 3d ac 31 35 3d
       0.071104795 -0.060801927 0.034573365 0.044236824
0001b0 88 20 36 3c b7 0f d9 bc f0 77 70 3c 52 46 25 bc
       0.0111161545 -0.026496751 0.014677033 -0.010087566
0001c0 df c3 3b 3c c9 15 3d 3d c5 73 ee bc 41 a5 d0 3b
       0.0114602735 0.046163354 -0.029107938 0.006367356
0001d0 d8 5d 04 bd f5 58 c8 3c 25 68 05 3a 4a 62 00 bd
       -0.03231606 0.02445648 0.0005089066 -0.031343736
0001e0 63 cd 21 bd 03 4f b4 3c ee 0b 66 bd 7f 46 0f bd
       -0.039502513 0.022010332 -0.05616372 -0.03497934
0001f0 3a 23 d6 3c 2b 90 61 3c af 11 aa bc 0b bd c5 bc
       0.026139844 0.0137672825 -0.020760385 -0.024137994
000200 1d b5 a8 3c 63 b0 f1 3c 92 95 b9 3c 5f b8 0f bd
       0.020594174 0.029503053 0.022654328 -0.03508794
000210 ef d0 1e bc a1 77 5b 3b 06 90 7a bc 90 f3 14 bd
       -0.009693368 0.0033488052 -0.015293127 -0.03636509
000220 0c 15 91 bc 66 5b 52 bd 1b 5b b4 bc ac ba 6b 3d
       -0.017710231 -0.051356696 -0.022016099 0.05755107
000230 5e 17 18 3d 73 3c 41 bd 5c d9 21 3d f6 62 3c 3c
       0.03713166 -0.04717679 0.03951393 0.0114982035
000240 4c f9 05 3d 2b e9 18 3d 62 72 6c 3d 2d 74 03 bd
       0.03270845 0.03733174 0.05772627 -0.032093216
000250 eb 30 6d 3c 62 00 1f 3d da 7c 96 3c 6a ff b8 3c
       0.014476995 0.038818724 0.01837008 0.022582728
000260 5e 0f 87 3c 0f 4c 11 bc 98 f9 a3 bc 3b 8d 38 3d
       0.01648682 -0.008868231 -0.020016477 0.045056563
000270 1a 97 a8 3c 1b 1c 3c bd 5c 19 52 bc 6e 93 03 bd
       0.020579863 -0.04592524 -0.012823429 -0.03212302
000280 e1 7c 5c 3d 81 bc bf bc c9 ce 76 3d 78 96 ee bc
       0.05383003 -0.023405315 0.0602558 -0.029124483
000290 12 aa 7e 3c 0b e4 d1 3c ae be 14 bd 62 b5 08 3c
       0.015543478 0.025621435 -0.03631466 0.008344026
0002a0 d0 b2 42 3c 07 33 2c 3d 97 e4 81 bd 4a 3d ba bc
       0.011883453 0.04204085 -0.06342428 -0.022734303
0002b0 5d e0 59 3c 2d ae f2 bc 94 5f 75 bc 8f 1b 28 bd
       0.013298121 -0.02962407 -0.014976401 -0.041041907
0002c0 25 44 27 bd 37 63 e9 3c 70 d1 16 3c 13 e9 e5 3c
       -0.040836472 0.028489692 0.009205207 0.02806524
0002d0 b0 77 32 3c 91 ce f4 bc d3 05 c1 3b 4f c8 88 3d
       0.010892794 -0.029883655 0.005890587 0.06678831
0002e0 42 2b ea 3c f5 bb 8b bd e2 69 1e 3d b4 50 73 bd
       0.02858508 -0.06822959 0.038675196 -0.059403136
0002f0 b5 7f 79 3c c4 9a 06 bd 9d 60 13 bc be fa b0 bc
       0.015228202 -0.03286244 -0.008995202 -0.021603938
000300 55 05 fa 3c 6b f5 49 3d 05 fd 85 3d 09 f3 63 3c
       0.03052012 0.049306314 0.065424 0.013912925
000310 a1 b7 c4 bc 50 98 3e bd fc de 6e bc ed e1 2a 3d
       -0.024013342 -0.046531975 -0.014579531 0.041719366
000320 cc 95 b4 3c 52 3b e6 bc 32 96 81 bc d6 39 ad bb
       0.022044085 -0.028104458 -0.015818689 -0.0052864356
000330 ff ce ab 3c af d5 2a 3c 53 b1 33 bd e4 a0 8e 3d
       0.020972727 0.010426923 -0.04387028 0.06964281
000340 ef fd 39 3d ce 09 10 bd 33 1b b8 3c f3 c2 3b bd
       0.045408186 -0.0351656 0.022473907 -0.045840215
000350 91 00 65 bc f1 73 56 3d f6 b9 14 3c 8a e2 e8 3c
       -0.013977186 0.052356664 0.00907754 0.028428335
000360 42 cb 23 3d 54 08 f4 bc f3 1a c5 bc 94 ab 9b 3c
       0.039988764 -0.029789127 -0.024060702 0.019002713
000370 fe d8 1d bd 1c ed 47 bd 74 48 d8 bc bd 63 17 3d
       -0.038537018 -0.04881011 -0.026401736 0.036960352
000380 87 c8 c3 bc 80 02 92 bc ef a2 57 3d ff 04 f2 3c
       -0.02389933 -0.017823458 0.05264562 0.029543398
000390 81 46 19 3d 1e 5b f7 bc 68 7c 09 bc c4 bb 9e 3a
       0.037420753 -0.030194815 -0.008391477 0.0012110402
0003a0 e0 9f 52 bc 43 c9 5b bd 74 11 35 3d 44 ec 00 bd
       -0.0128555 -0.053658735 0.044206098 -0.03147532
0003b0 1e 00 e1 3b 56 52 ff bc 50 40 41 bc e1 6b 76 3d
       0.006866469 -0.03116719 -0.011795118 0.060161475
0003c0 9d 27 2b 3d 38 d6 f4 bc c8 ea c9 bc d6 5c 2a 3b
       0.041785825 -0.029887304 -0.024648085 0.0025995276
0003d0 df a2 15 3d 82 4f 4e 3d a2 d5 dd 3c 58 eb b9 3c
       0.03653228 0.050368793 0.027079407 0.022695228
0003e0 05 cf 3e 3d c9 dc fd 3c bc fe fa bc e9 d9 c6 3c
       0.046584148 0.030989068 -0.030639045 0.02427383
0003f0 92 4c c0 3b 15 c5 94 bb a4 a1 94 3c 41 48 55 3d
       0.005868503 -0.0045400956 0.018143483 0.05207086

network.2.weight f4 [256]
000000 86 38 80 3f 68 fe 7c 3f 7b f6 80 3f 89 d9 7e 3f
       1.001725 0.98825693 1.007522 0.9955068
000010 53 bb 7c 3f 2b c2 7b 3f ed 89 81 3f 46 3f 7d 3f
       0.98723334 0.9834315 1.0120217 0.9892467
000020 28 dc 80 3f f1 a7 7f 3f c9 56 7a 3f 5d 7b 80 3f
       1.0067186 0.99865633 0.97788674 1.0037647
000030 3d 9e 7d 3f 8f 16 80 3f 67 23 80 3f 2b 2c 7f 3f
       0.9906958 1.0006884 1.0010804 0.9967677
000040 7f 07 81 3f 28 6b 7c 3f d9 95 81 3f 07 e5 7d 3f
       1.0080413 0.9860101 1.0123855 0.99177593
000050 d3 ec 80 3f d1 a9 7f 3f 59 50 7e 3f cd b7 7f 3f
       1.0072273 0.99868494 0.9934135 0.9988983
000060 b2 52 7f 3f 18 9a 7d 3f 8f 05 83 3f 01 ee 7d 3f
       0.9973556 0.99063253 1.0236071 0.9919129
000070 f6 6c 7f 3f e6 bb 80 3f 4f f3 7d 3f d1 0a 7f 3f
       0.99775636 1.0057342 0.99199384 0.9962588
000080 89 4d 7c 3f 6c 10 82 3f f3 70 7f 3f e4 2b 7b 3f
       0.9855581 1.0161262 0.9978172 0.98113847
000090 a7 3e 80 3f 20 10 7f 3f d5 a9 81 3f 68 56 7f 3f
       1.001912 0.9963398 1.0129954 0.9974122
0000a0 e7 c1 81 3f 67 d5 80 3f 26 2d 80 3f 04 ef 7f 3f
       1.0137299 1.0065125 1.0013778 0.99974084
0000b0 65 78 7f 3f 10 e8 81 3f ca ad 7e 3f 0d e8 80 3f
       0.9979308 1.0148945 0.9948393 1.0070816
0000c0 3a c7 7f 3f 1d 89 81 3f ca 9c 7c 3f 00 f6 81 3f
       0.9991337 1.0119969 0.9867674 1.0153198
0000d0 48 64 80 3f 37 a9 7d 3f b9 df 7e 3f 7d da 7d 3f
       1.0030603 0.99086326 0.99560124 0.9916151
0000e0 f8 7f 82 3f ee 85 7e 3f a6 a0 7d 3f 49 2b 80 3f
       1.0195303 0.9942311 0.99073255 1.001321
0000f0 42 6f 82 3f 19 cc 7f 3f b6 cc 7c 3f 8c 8c 82 3f
       1.0190203 0.99920803 0.98749864 1.0199142
000100 d5 cb 80 3f d0 36 80 3f c6 51 7e 3f b2 7e 7b 3f
       1.0062205 1.0016727 0.99343526 0.98240197
000110 81 8d 7f 3f 20 8d 7c 3f 1a 05 7f 3f 9f c5 7f 3f
       0.9982529 0.9865284 0.9961716 0.9991092
000120 8f 16 80 3f 6a a4 7d 3f e5 aa 81 3f 7e 49 80 3f
       1.0006884 0.99079 1.0130278 1.0022428
000130 2a 36 7f 3f b1 3b 81 3f 9b ec 7d 3f 57 06 80 3f
       0.9969202 1.0096341 0.99189156 1.0001935
000140 29 ba 80 3f a0 3d 7c 3f 28 28 80 3f d7 c5 7c 3f
       1.0056812 0.9853153 1.0012255 0.9873938
000150 54 0b 82 3f ee 67 7f 3f 3c 5b 80 3f d6 e2 80 3f
       1.0159707 0.9976796 1.0027843 1.0069225
000160 43 66 81 3f 5b ba 7e 3f 0e 77 7f 3f 2c 70 7e 3f
       1.0109333 0.99503106 0.9979104 0.9938991
000170 1f c8 7e 3f 80 e9 7e 3f db 44 81 3f 84 88 82 3f
       0.9952411 0.9957504 1.0099138 1.0197911
000180 66 09 7d 3f 73 67 7f 3f b5 d5 7d 3f fe 58 7d 3f
       0.98842466 0.99767226 0.99154216 0.98963916
000190 be 9d 80 3f 6e dd 80 3f f0 56 82 3f 18 e4 82 3f
       1.0048139 1.0067575 1.0182781 1.0225859
0001a0 35 a2 80 3f 2c 2a 80 3f ef 7c 7b 3f c1 e5 81 3f
       1.0049502 1.001287 0.9823751 1.014824
0001b0 38 17 80 3f bc 19 81 3f 21 cc 7f 3f c3 c0 7d 3f
       1.0007086 1.0085979 0.9992085 0.99122256
0001c0 59 8c 81 3f 41 fd 7e 3f 3d 6b 7d 3f ec 55 7d 3f
       1.0120956 0.99605185 0.9899176 0.9895923
0001d0 ae 14 7b 3f ad 02 80 3f 1b 39 81 3f e6 e6 7e 3f
       0.9807843 1.0000817 1.0095552 0.99571073
0001e0 ac c4 80 3f b2 ee 7f 3f 7e 10 7c 3f f5 2e 7d 3f
       1.006002 0.99973595 0.98462665 0.98899776
0001f0 7c c9 7b 3f c9 64 81 3f b0 0b 7f 3f e7 b6 7d 3f
       0.98354316 1.0108882 0.9962721 0.9910721
000200 f0 fb 7e 3f cf a7 7a 3f ab 65 7d 3f 75 a3 7b 3f
       0.99603176 0.97912306 0.9898326 0.9829629
000210 49 d4 80 3f 8e f4 7f 3f 67 97 7f 3f 35 52 7f 3f
       1.0064784 0.99982536 0.99840397 0.9973481
000220 fc 8a 7b 3f aa 0d 82 3f 2d 56 80 3f 64 91 7f 3f
       0.9825895 1.016042 1.0026299 0.99831223
000230 78 ca 7c 3f 91 10 7e 3f 2a a8 7e 3f 21 26 7f 3f
       0.9874644 0.9924403 0.9947535 0.99667555
000240 19 96 80 3f ca 3b 80 3f a0 63 7e 3f de 42 7e 3f
       1.0045806 1.0018246 0.99370766 0.9932078
000250 42 0a 80 3f af b9 7f 3f 7b 3b 81 3f 52 a2 80 3f
       1.000313 0.99892706 1.0096277 1.0049536
000260 32 65 81 3f 93 b3 80 3f b1 4f 7c 3f 9f 3b 81 3f
       1.0109007 1.0054802 0.985591 1.009632
000270 45 a5 7f 3f 3b c8 7e 3f 24 25 7e 3f f0 47 80 3f
       0.99861556 0.9952428 0.9927542 1.0021954
000280 8f e8 81 3f 39 57 7e 3f 36 d4 80 3f 23 bf 7e 3f
       1.0149096 0.9935184 1.0064762 0.995104
000290 d6 2f 80 3f 9f c6 80 3f d1 fe 80 3f 29 16 80 3f
       1.0014598 1.0060614 1.0077764 1.0006763
0002a0 f6 cf 80 3f cc 6e 81 3f 6c 74 79 3f 41 e4 7b 3f
       1.0063465 1.0111938 0.9744327 0.9839516
0002b0 d0 8b 7e 3f fc fa 80 3f c1 ae 81 3f 28 4e 80 3f
       0.99432087 1.0076594 1.0131456 1.0023851
0002c0 ed 90 7f 3f a7 17 7d 3f 03 53 7f 3f 6f 9b 80 3f
       0.99830514 0.98864216 0.9973604 1.0047435
0002d0 e9 45 7d 3f d3 5a 7e 3f 41 37 82 3f 46 c3 81 3f
       0.989348 0.99357337 1.0173112 1.0137718
0002e0 0f bd 7e 3f 53 57 7d 3f 69 63 7f 3f 9c a4 7f 3f
       0.9950723 0.9896137 0.9976106 0.9986055
0002f0 7a cb 80 3f 4a 2b 80 3f 15 77 7e 3f c4 b3 7c 3f
       1.0062096 1.0013211 0.99400455 0.987118
000300 2d ef 7b 3f bf 87 80 3f 45 08 80 3f eb 53 7d 3f
       0.9841183 1.0041426 1.0002524 0.98956174
000310 b7 d4 7e 3f de 0e 80 3f 15 93 81 3f bd 7f 7e 3f
       0.9954333 1.0004537 1.0123011 0.99413663
000320 d3 10 82 3f 1f d2 7c 3f 02 80 80 3f b4 4f 80 3f
       1.0161384 0.9875812 1.0039065 1.0024323
000330 78 8c 80 3f 7d b1 80 3f 39 66 80 3f 29 41 80 3f
       1.0042868 1.0054165 1.0031196 1.0019885
000340 49 63 80 3f e9 cb 81 3f 57 3a 80 3f bf 98 81 3f
       1.00303 1.0140353 1.0017804 1.012474
000350 65 c4 81 3f f3 13 81 3f 7f 03 7f 3f 9c 08 82 3f
       1.013806 1.0084213 0.9961471 1.0158877
000360 13 4e 81 3f cd 41 7f 3f 02 40 80 3f da c1 7f 3f
       1.0101951 0.9970978 1.0019534 0.9990517
000370 ae 58 80 3f a6 2f 82 3f 9f d8 80 3f 2a 6e 80 3f
       1.0027063 1.0170791 1.0066108 1.0033619
000380 d2 91 80 3f 9f d9 81 3f 0b 80 7d 3f f8 82 7d 3f
       1.0044501 1.0144538 0.99023503 0.9902797
000390 9b ad 80 3f 7b 0d 80 3f 06 42 81 3f 1d fd 7c 3f
       1.005298 1.0004114 1.0098274 0.9882372
0003a0 35 52 80 3f 72 24 80 3f 53 95 80 3f b3 c5 81 3f
       1.0025088 1.0011122 1.004557 1.0138458
0003b0 10 12 7f 3f 79 74 81 3f bf 65 81 3f c2 bd 80 3f
       0.99636936 1.011367 1.0109175 1.005791
0003c0 50 5d 80 3f 8f 9d 7f 3f ff 78 80 3f 04 88 81 3f
       1.0028477 0.9984979 1.0036925 1.0119634
0003d0 58 51 82 3f 75 32 7e 3f 32 9b 80 3f fc c8 81 3f
       1.0181074 0.9929574 1.0047362 1.013946
0003e0 7f f6 7f 3f 90 56 81 3f 1c 30 7e 3f 2a a6 7f 3f
       0.999855 1.0104542 0.9929216 0.9986292
0003f0 86 02 80 3f d9 c7 7f 3f 84 96 7f 3f 73 08 80 3f
       1.000077 0.9991432 0.99839044 1.0002578

network.2.bias f4 [256]
000000 be ec 07 3b 6d f8 c2 3b 36 8a 59 3c e1 76 e8 bb
       0.0020740475 0.005950025 0.013277581 -0.0070942496
000010 c0 1f a6 3b c2 ea 6e 3b c1 34 88 3b 49 35 43 3b
       0.005069703 0.0036455845 0.0041566794 0.00297864
000020 a0 32 cb bb 3c 9c 0d bc 3c ab 22 3a c8 f9 52 bb
       -0.0062011033 -0.008643206 0.00062053255 -0.0032192338
000030 35 07 2c bc a8 29 1d bc c0 ba 83 bb b0 6f 7c bc
       -0.010499765 -0.009592451 -0.004020065 -0.015407488
000040 a6 27 ff bb 4d c7 21 3c 39 16 a5 3b e3 50 13 bc
       -0.007786709 0.009874177 0.0050380495 -0.008991453
000050 a7 9a 6d bc fc ca 2c bb 63 fb dc bb 66 9f 2e bb
       -0.014502204 -0.0026366105 -0.006743835 -0.0026645302
000060 0b dd 16 3b a0 2f 81 bc ee 7b 6d 3b 9f a9 ab 3c
       0.0023019935 -0.01576978 0.0036237198 0.020954905
000070 eb 7e 43 3b a8 d8 02 3b 22 50 03 3c d9 67 f2 bb
       0.0029830288 0.0019965563 0.008014711 -0.0073976335
000080 73 de 09 3c 56 1b 9d 3c 8c 03 83 3a 6a 8d d7 3b
       0.008414852 0.019178074 0.0009995564 0.006578137
000090 54 10 f4 3a 0d 09 cb bb d6 d6 60 3c 3c 7d c6 3a
       0.0018620589 -0.0061961473 0.013723096 0.0015143524
0000a0 11 c9 bd bb b0 64 f6 3b b3 96 6d 3c 14 55 79 bc
       -0.0057917912 0.007519327 0.0145012615 -0.015218038
0000b0 3c 7e dc ba e2 b9 03 bc 71 4c 7f 3c 7b bf 1f 3c
       -0.0016822289 -0.008039923 0.01558219 0.009750242
0000c0 ea 61 3d bc 75 97 8b 3b dd 06 c4 ba a9 e2 a5 b7
       -0.011558989 0.0042599984 -0.0014955659 -1.977508e-05
0000d0 d6 d0 57 3b cd 62 84 bb f4 d5 a2 3a 9f d3 5c bc
       0.0032930872 -0.0040400983 0.0012423382 -0.013478189
0000e0 d3 51 52 3c be f7 2e bb cc 3f b8 ba 57 a4 fa bb
       0.012836891 -0.0026697959 -0.0014057099 -0.0076489854
0000f0 a0 ce 5c bc a8 36 85 3a 8b 02 72 3c b1 6c 97 bb
       -0.013476998 0.0010163384 0.014771114 -0.0046211113
000100 11 78 5f 3c 6e 34 0d bb f4 12 92 bb da b9 52 3b
       0.013639466 -0.0021546143 -0.004457826 0.0032154233
000110 bf d9 29 bb d9 d8 65 3c 0e 71 31 3c 35 12 86 bb
       -0.002591714 0.014028751 0.010830177 -0.004091526
000120 fd 9d ce 3b e0 37 a7 bb 16 7b a1 bb 99 c8 80 bc
       0.0063054548 -0.0051030964 -0.004928003 -0.015720652
000130 bc 85 3f bb 25 a2 c4 3b 0d 92 8c bb 4a 8b a0 3b
       -0.0029224 0.0060007744 -0.0042898715 0.004899417
000140 21 42 1d bc a8 dc 76 bb 97 02 98 bb a8 86 66 bc
       -0.009598286 -0.0037668142 -0.0046389806 -0.0140701905
000150 9b f6 93 bc 6e f7 85 ba 1c 9d 2d 3b 43 8d e0 bb
       -0.018061927 -0.0010220835 0.002649135 -0.006852777
000160 65 a1 9d b9 f9 39 a3 3b 80 32 2d bb ca 29 ab 3c
       -0.00030065622 0.004981276 -0.0026427805 0.02089395
000170 ff 57 d6 3b da 31 61 bb ae 2d 54 bb bd 23 c9 bb
       0.0065412517 -0.003436199 -0.003237586 -0.0061382935
000180 43 d4 1f bb 2b aa cf ba 58 93 a5 b9 df 8b 41 bc
       -0.0024387992 -0.0015843561 -0.00031581032 -0.011813133
000190 58 5a c2 3b cd 47 9b bc 00 ef d2 3b 3d d2 0b 3a
       0.00593118 -0.018955136 0.0064371824 0.0005333757
0001a0 88 99 32 3c 83 76 3e bb 15 e8 d1 bb d6 6e 99 ba
       0.0109008625 -0.0029062338 -0.00640584 -0.0011706005
0001b0 f7 60 44 3b a0 79 0f 3c d2 27 17 3c c2 26 0f 3c
       0.0029965022 0.008757025 0.0092258025 0.008737268
0001c0 69 d9 64 bb 81 e2 6a 3b 12 cb 99 3c 31 46 02 3c
       -0.0034919626 0.0035840573 0.01877359 0.007951305
0001d0 7b 57 0a bc 79 dd ad 3b 64 d7 ad bb 23 1c 41 ba
       -0.0084437085 0.0053059426 -0.0053052176 -0.00073665584
0001e0 de e8 09 bc 69 4d c3 3b fe 98 2c 3b 40 2a 9e 3b
       -0.008417336 0.0059601557 0.0026336308 0.004826814
0001f0 62 fa 90 bb 51 f1 c0 3a e6 1b f7 3b e2 c2 1e 3c
       -0.004424379 0.0014720355 0.0075411675 0.009690018
000200 af 6c 43 bb e7 b1 32 bb 22 7c 26 3c c3 d5 c2 3a
       -0.002981942 -0.0027266683 0.0101614315 0.0014864731
000210 58 7a d6 3b 09 5d a6 bb d1 6b 0f bb d4 c0 ef 3b
       0.006545346 -0.0050770086 -0.0021884332 0.007316688
000220 15 ca a6 3c 99 97 84 3b 69 63 97 3c e1 70 1d bc
       0.020360032 0.004046392 0.01848002 -0.009609432
000230 db 48 f0 39 dc f8 86 39 aa 55 80 3b b5 76 16 3c
       0.0004583065 0.00025743886 0.003916462 0.009183575
000240 45 65 f3 3a bf e9 0d bb 42 e2 0c 3a ea d5 96 3b
       0.0018569609 -0.0021654216 0.0005374291 0.0046031373
000250 e9 1f 9a bb ac 19 d7 3b 61 da 4a bc 6d 4f 71 3b
       -0.004703511 0.0065643396 -0.012381167 0.0036821023
000260 18 8b c2 bb d6 a7 12 3c 36 bf 8c bb e6 1f ee ba
       -0.0059369914 0.008951148 -0.004295255 -0.0018167465
000270 16 79 d6 3a 36 ed 39 3c 31 35 9a 3c 69 c3 8a 3c
       0.0016362991 0.011348059 0.018824192 0.016938882
000280 d3 22 8d 3b 1d 6d 81 bb 90 3f 59 39 a4 ef 83 3c
       0.00430713 -0.003949775 0.00020718412 0.01610548
000290 ba 61 3d bb 3c 35 9d 3b af c9 02 bb dd 0a 02 3c
       -0.002889736 0.004797606 -0.0019956639 0.00793716
0002a0 da 1b 8a 3b e3 5b 0b bc 59 c1 ca 3b 2b 2c 2b 39
       0.004214746 -0.008505794 0.0061875996 0.00016324285
0002b0 b2 55 ed 3b a8 dd 31 bc dd 45 54 3b dd f8 e4 3b
       0.0072428817 -0.01085607 0.0032390275 0.0069876746
0002c0 d5 4b c0 3b d1 f1 41 3c 9d 74 b8 bb b0 cd d1 bb
       0.005868415 0.011837439 -0.0056291358 -0.0064026937
0002d0 f0 8c 1e bc e2 e0 dc bb 28 13 53 3b 15 74 86 3b
       -0.009677157 -0.0067406753 0.0032207463 0.0041031935
0002e0 9f 6e af bb 60 48 b4 3b dc ca 16 3b 3a b3 ac ba
       -0.0053537632 0.005501792 0.0023009097 -0.0013175972
0002f0 15 2c 1f bc 20 75 8e 3c d5 ee 6b bc 47 d1 a2 bc
       -0.0097151 0.017389834 -0.014400204 -0.019875182
000300 62 84 84 bb f3 0d 1e bc 3e 5f c2 bb f5 5f 76 3c
       -0.0040441016 -0.00964688 -0.005931764 0.015037526
000310 b6 a9 be bb ae 45 8d bc 02 33 16 3c c6 03 f6 ba
       -0.005818571 -0.01724514 0.009167435 -0.0018769435
000320 5d 6b 82 bb cf 50 28 bb 5e 09 2c 3c 9a 9e 34 3c
       -0.003980084 -0.0025682931 0.01050028 0.011024142
000330 6a b6 15 3c ad 15 13 bb a7 d0 2f bc a1 91 55 bc
       0.009137729 -0.002244334 -0.010730899 -0.013035209
000340 d0 14 57 3b c3 ab 2d 39 d2 3f 1b 3a e9 41 9c bb
       0.0032818802 0.00016562552 0.0005922291 -0.0047685993
000350 47 70 b9 3b 29 40 27 3c 37 5f 7f 3c cb 52 5a 3c
       0.0056591365 0.010208168 0.015586666 0.013325403
000360 ae 05 22 bb cf 00 34 bc 8c 4e 49 3c 1a 97 40 3c
       -0.0024722624 -0.010986521 0.012286793 0.011754775
000370 5f cd ca bb da 8a 9f 3c 9a b7 4e bc 43 50 cb 3c
       -0.006189033 0.01947539 -0.012617016 0.024818545
000380 c3 33 a4 bb 30 1b fe bb b0 b5 31 bc 8d 11 97 ba
       -0.0050110533 -0.007754706 -0.01084654 -0.0011525616
000390 cb a5 79 bc d4 3c a6 bb 3b cc f7 3a dc 0b a0 bc
       -0.015237282 -0.0050731692 0.001890547 -0.019536905
0003a0 02 1f e8 ba 17 a3 2b 3c 6f 4e a4 bb 4c 66 69 bc
       -0.0017709436 0.010475895 -0.005014233 -0.014245581
0003b0 81 b8 33 3c 64 5c 36 ba aa 0c 23 3c 3b c9 d0 bb
       0.010969282 -0.00069565163 0.00995175 -0.006371645
0003c0 da 49 84 38 cb ea 5b 3b 2f 49 35 3c 99 6c 97 bb
       6.3080064e-05 0.0033556696 0.011064812 -0.0046211
0003d0 4d 53 5a 3c 26 c3 9f 3b 3e 72 3a 3c 82 49 40 bb
       0.0133255245 0.0048755584 0.0113797765 -0.002934069
0003e0 7f e9 0b 3c e8 43 ac bb ea 25 23 bc 60 c8 94 bb
       0.0085395565 -0.0052571185 -0.00995777 -0.004540488
0003f0 5f e6 1a 3c 16 65 b6 ba 41 8b 74 ba c0 99 e8 bb
       0.009454339 -0.0013915624 -0.0009328612 -0.0070984066

network.2.running_mean f4 [256]
000000 e9 3c 99 3e b9 4a c5 3e df 94 69 3e a1 21 c9 3e
       0.29929283 0.3853357 0.22810696 0.3928347
000010 96 a4 a2 3e 21 7e 9f 3e 22 70 db 3e 35 43 ac 3e
       0.31766194 0.31150916 0.42858988 0.33645025
000020 54 3f aa 3e 18 70 aa 3e 57 a5 8c 3e 69 59 a1 3e
       0.3325144 0.33288646 0.27469894 0.31513527
000030 ac 20 89 3e 67 d6 f2 3e 4e 88 94 3e 76 c7 92 3e
       0.2678274 0.474292 0.29010242 0.28667802
000040 bb 65 da 3e e9 8d 8b 3e 5e 70 d9 3e b8 8a 80 3e
       0.4265574 0.27256706 0.42468542 0.25105834
000050 e8 48 ad 3e b3 05 81 3e a9 1a 84 3e 0c 8a 8e 3e
       0.33844686 0.2519966 0.2580159 0.27839696
000060 dc c5 c8 3e 78 5e 83 3e d7 22 cc 3e af 4f aa 3e
       0.39213455 0.2565801 0.3987033 0.3326392
000070 4e 2f cc 3e b5 6b f0 3e 58 c3 b0 3e d6 c4 9d 3e
       0.3987984 0.46957174 0.34524035 0.30814236
000080 7a 9f 98 3e eb 01 b6 3e 90 7f 75 3e fe 67 9b 3e
       0.2980917 0.35548338 0.23974442 0.30352777
000090 54 b8 a8 3e c5 5c a9 3e 9f 4f bc 3e 8a 4a af 3e
       0.3295313 0.3307859 0.36779496 0.34236556
0000a0 f6 4c b5 3e 2c 36 96 3e 87 16 a7 3e 51 ae 82 3e
       0.3541028 0.29338205 0.32634374 0.25523618
0000b0 35 fd c0 3e c9 1d a7 3e 03 f8 b1 3e 0c 4d a4 3e
       0.37693182 0.32639912 0.3475953 0.32090032
0000c0 f9 53 a9 3e ce 3d b3 3e 1b f5 b8 3e e9 df ea 3e
       0.3307188 0.3500809 0.361245 0.45873955
0000d0 9e 45 91 3e b1 72 a2 3e ba cb f6 3e 42 c7 c4 3e
       0.28373426 0.31728128 0.48202306 0.38433272
0000e0 97 8d f0 3e 2c a4 b0 3e b8 72 b7 3e 06 e2 b7 3e
       0.46983024 0.34500253 0.3582971 0.3591463
0000f0 58 9d d0 3e 7e de b5 3e 8c 3d da 3e f3 c7 c2 3e
       0.40745044 0.3552131 0.42625082 0.38043174
000100 45 61 a8 3e 8e d8 99 3e 64 a0 82 3e 88 d3 95 3e
       0.3288671 0.3004803 0.25512993 0.29262948
000110 cb 28 81 3e c4 e0 87 3e f7 37 ce 3e 04 12 67 3e
       0.25226435 0.2653867 0.40277073 0.22565466
000120 8f 4d ad 3e 00 26 ae 3e 3f 61 fd 3e 6a 20 c8 3e
       0.33848235 0.34013367 0.49488255 0.3908723
000130 89 f6 97 3e 85 2c 8a 3e 99 fc 88 3e 7d fc eb 3e
       0.2968028 0.2698709 0.26755217 0.4609107
000140 02 18 a6 3e 7c d0 79 3e 1d 82 9a 3e 27 30 91 3e
       0.32440192 0.24395937 0.30177394 0.2835705
000150 06 fc cd 3e de 42 84 3e a7 a2 af 3e 0e d5 c5 3e
       0.4023134 0.25832266 0.3430378 0.3863911
000160 ab 99 d0 3e ae 8b 9c 3e 78 cf a7 3e b5 6b ac 3e
       0.4074224 0.30575317 0.32775474 0.33675924
000170 e4 99 80 3e dd 76 9d 3e 26 84 a8 3e a1 7f b7 3e
       0.2511741 0.30754748 0.3291332 0.3583956
000180 72 27 b7 3e 59 f0 aa 3e a1 cc a8 3e f5 35 95 3e
       0.35772282 0.33386496 0.3296862 0.29142728
000190 2c 71 92 3e b3 53 c5 3e 06 0d 8c 3e 78 e5 e5 3e
       0.28601968 0.3854042 0.27353686 0.44901633
0001a0 c2 d6 8d 3e 6c c1 8e 3e 07 4e 5b 3e c0 73 e8 3e
       0.2770291 0.27881944 0.21416484 0.4540081
0001b0 42 a5 a8 3e 1f a9 c5 3e 92 78 8f 3e 78 2e 98 3e
       0.32938582 0.38605592 0.28021675 0.29722953
0001c0 19 9b d6 3e b8 0b bf 3e cb 80 8f 3e e1 f6 cf 3e
       0.41915205 0.37313628 0.2802795 0.4061804
0001d0 d0 91 ba 3e 1e b1 b7 3e b5 ec c0 3e 25 f1 c0 3e
       0.3643937 0.35877317 0.37680593 0.3768398
0001e0 a2 74 c3 3e b6 1f a7 3e 06 b2 7e 3e 16 57 ba 3e
       0.3817492 0.3264138 0.24872598 0.36394566
0001f0 17 e0 8e 3e ed da f1 3e 60 bd e7 3e 33 12 96 3e
       0.27905342 0.4723734 0.4526167 0.2931076
000200 f3 25 88 3e b3 3e 86 3e 37 c6 9a 3e bd c6 8b 3e
       0.26591453 0.2621971 0.3022935 0.27300063
000210 0f 59 c3 3e f2 07 98 3e 38 81 a9 3e 06 1c b0 3e
       0.38153884 0.29693562 0.331064 0.3439638
000220 80 f0 b4 3e ad 06 b7 3e 5b f3 07 3f a7 b1 9c 3e
       0.35339737 0.3574728 0.53105706 0.30604288
000230 c7 26 7d 3e 3f ed 7c 3e ed 08 6f 3e 99 5b a1 3e
       0.24721824 0.24699877 0.23343249 0.31515196
000240 f3 d5 be 3e 32 ff 92 3e d6 47 ac 3e ff 01 88 3e
       0.37272605 0.28710324 0.33648556 0.26564023
000250 64 c7 d7 3e 82 ed 89 3e b0 91 ca 3e 29 25 b7 3e
       0.4214431 0.26939017 0.39564276 0.35770538
000260 e7 f9 c5 3e 47 41 aa 3e 3b d8 d6 3e 07 1d c3 3e
       0.38667223 0.33252928 0.41961846 0.38108084
000270 d5 07 91 3e 34 bb c3 3e 37 74 97 3e 6e c7 9d 3e
       0.28326288 0.38228762 0.29580852 0.30816215
000280 34 7a a2 3e 33 5c 76 3e ef 60 b4 3e 12 a0 a4 3e
       0.3173386 0.24058609 0.35230204 0.32153374
000290 e5 96 95 3e 74 2b f0 3e 6b 5a 91 3e a8 cf af 3e
       0.29216686 0.46908152 0.28389296 0.34338117
0002a0 7a 0d b5 3e 66 b0 98 3e 58 1e 40 3e cb 9c c1 3e
       0.35361844 0.2982208 0.18761575 0.37814936
0002b0 00 8a 81 3e d0 fe d3 3e f0 b0 c6 3e 62 a1 cd 3e
       0.25300598 0.41405344 0.38806868 0.40162188
0002c0 62 a2 a2 3e 9d ec c5 3e d5 01 8e 3e 46 97 a3 3e
       0.31764513 0.38657084 0.27735773 0.3195135
0002d0 02 aa c7 3e 55 04 80 3e f3 80 bb 3e 87 af b0 3e
       0.38996893 0.25003305 0.36621818 0.34508917
0002e0 69 ec a6 3e e6 9d 85 3e ff 80 f7 3e f3 b3 50 3e
       0.32602242 0.2609703 0.48340604 0.20381145
0002f0 32 5a b6 3e 06 99 86 3e 73 36 a2 3e 75 8b 83 3e
       0.3561569 0.26288623 0.31682166 0.25692335
000300 2a dd 77 3e d2 70 ea 3e d4 e0 c7 3e 2a b6 f8 3e
       0.24205461 0.457892 0.39038718 0.4857648
000310 71 56 9e 3e d8 6b c2 3e a3 b0 a5 3e c6 9b c3 3e
       0.30925325 0.37972903 0.32361326 0.38204783
000320 31 25 9f 3e db b0 92 3e a6 1d cc 3e aa e3 aa 3e
       0.31083062 0.28650555 0.3986637 0.3337682
000330 7e 7b 87 3e 3e 9e b0 3e 72 a6 d9 3e 4e b8 b7 3e
       0.26461405 0.3449573 0.425098 0.358828
000340 5b 55 c6 3e 56 24 bb 3e b7 5a b9 3e 81 a0 98 3e
       0.38736996 0.3655116 0.36202022 0.29809955
000350 e7 55 9e 3e 24 f1 e1 3e 99 e8 93 3e cc c8 a3 3e
       0.30924913 0.44129288 0.28888395 0.31989133
000360 10 93 d2 3e 0b ce 9f 3e 73 30 b7 3e b5 2c 91 3e
       0.41127825 0.31211886 0.3577915 0.2835442
000370 a4 bb c9 3e cb 17 a7 3e 68 97 c4 3e 95 09 f8 3e
       0.3940097 0.3263534 0.38396764 0.4844481
000380 0a d6 9f 3e 7e 07 8a 3e 50 4c 83 3e ef e7 ac 3e
       0.31217986 0.2695884 0.2564416 0.337707
000390 bf 6b d9 3e 3c 33 86 3e c8 31 84 3e da a5 8c 3e
       0.42465016 0.26210964 0.2581923 0.27470285
0003a0 70 9c b7 3e dd d0 45 3e 34 a1 b0 3e 8a 7a 04 3f
       0.3586154 0.19317956 0.34497988 0.5174948
0003b0 bb f8 bc 3e 26 9a aa 3e da 31 a3 3e 91 7a b7 3e
       0.36908516 0.3332073 0.3187397 0.35835698
0003c0 c6 69 89 3e bb ac 9c 3e fa 6b e1 3e 12 ea aa 3e
       0.2683851 0.30600533 0.44027692 0.33381706
0003d0 a2 f6 d2 3e b6 d7 d4 3e 0f c0 90 3e 44 90 f3 3e
       0.4120379 0.41570824 0.2827153 0.47571003
0003e0 2e 03 8d 3e aa 02 b6 3e f2 28 9d 3e 8b 22 8e 3e
       0.27541488 0.35548908 0.306953 0.2776073
0003f0 78 59 72 3e 98 05 9f 3e 48 92 cc 3e 51 2c bf 3e
       0.23666942 0.31058955 0.39955354 0.37338498

network.2.running_var f4 [256]
000000 e7 e1 6f 3e ae c3 ac 3e 39 ec 01 3e 70 a3 bc 3e
       0.23426019 0.33743042 0.12687768 0.36843443
000010 3c a3 89 3e c2 eb 36 3e 01 8f b4 3e af ec 64 3e
       0.2688235 0.17863372 0.35265353 0.22355913
000020 80 21 a1 3e 3c d0 80 3e 4b 67 0c 3e de ef 47 3e
       0.3147087 0.2515887 0.13711278 0.19525096
000030 2c 0c 78 3e 88 9c cd 3e 0d bb 2f 3e 1c e0 1d 3e
       0.24223393 0.40158486 0.17161198 0.15417522
000040 ec d9 a7 3e 39 f3 1c 3e 29 53 ce 3e e3 d4 2f 3e
       0.3278345 0.15327157 0.4029782 0.17171054
000050 45 d3 85 3e 3f 7a 12 3e f8 7e 19 3e bf ca 65 3e
       0.26137748 0.14304446 0.14989841 0.22440623
000060 ba 36 06 3f b4 36 33 3e 99 11 d3 3e fd ac 49 3e
       0.52427256 0.17501336 0.41224363 0.19694896
000070 93 0a e3 3e b4 52 14 3f 92 ed 8e 3e 0e 91 85 3e
       0.44344005 0.57938695 0.27915627 0.2608723
000080 09 5a 3c 3e c4 29 b4 3e 76 07 1c 3e 12 52 2f 3e
       0.1839372 0.35188115 0.15237221 0.17121151
000090 b3 5a 6a 3e 24 eb 66 3e 75 69 9e 3e ef ed be 3e
       0.22886162 0.22550637 0.30939832 0.37290904
0000a0 0f c1 cc 3e d3 d7 4b 3e 00 fd 88 3e a5 81 13 3e
       0.39991042 0.19906549 0.26755524 0.14404924
0000b0 78 c9 a0 3e e8 db 93 3e 41 36 75 3e f9 fb 6e 3e
       0.31403708 0.28878713 0.23946477 0.23338307
0000c0 98 95 77 3e db c0 88 3e 84 4f af 3e f2 e0 dd 3e
       0.24178159 0.26709637 0.34240353 0.43335682
0000d0 48 bc 3b 3e 67 1b 9f 3e 6b 0c f3 3e d5 6b ba 3e
       0.18333542 0.31075594 0.47470412 0.36410394
0000e0 a5 00 14 3f ac 41 4b 3e 38 cb 82 3e f0 95 ab 3e
       0.57813483 0.1984927 0.2554567 0.3351283
0000f0 5f fe df 3e 92 eb 71 3e 3b 25 eb 3e 1d 02 b3 3e
       0.43748757 0.23625019 0.45926842 0.3496255
000100 e1 10 62 3e 6f 6e 45 3e 32 37 1c 3e db 0f 6d 3e
       0.22076751 0.19280408 0.1525543 0.2315058
000110 45 09 3b 3e b9 85 05 3e a4 b2 b4 3e 87 9b 3c 3e
       0.18265255 0.13039292 0.35292542 0.18418704
000120 b0 f5 84 3e 10 ee d2 3e 34 c2 d4 3e 41 2e 9f 3e
       0.25968695 0.41197252 0.41554415 0.31089976
000130 62 ed 9a 3e cc 90 64 3e 1e 37 2a 3e 40 c7 12 3f
       0.30259234 0.2232086 0.16622588 0.5733528
000140 44 ea 6e 3e b8 01 18 3e 60 f9 33 3e 83 36 31 3e
       0.23331553 0.14844406 0.17575598 0.17305951
000150 f2 68 b8 3e 0c 1e 1a 3e 34 9d 8a 3e dc a1 95 3e
       0.36017567 0.15050524 0.2707306 0.2922505
000160 be 33 98 3e 14 2f 2d 3e 28 87 68 3e 23 72 5f 3e
       0.29726976 0.1691249 0.22707808 0.21820883
000170 e5 3d 1e 3e 9c 10 28 3e 91 05 9d 3e d5 76 e5 3e
       0.15453298 0.16412586 0.3066831 0.44817224
000180 2e a0 ae 3e bc 96 88 3e 52 d1 58 3e df 3a 53 3e
       0.34106582 0.266775 0.211736 0.20627926
000190 73 6c 16 3e 2e d9 bd 3e fa 23 6b 3e 22 9d 1e 3f
       0.14689808 0.37079757 0.22962943 0.61958516
0001a0 57 c3 07 3e 75 cf 2f 3e ff dc ca 3d dc 7a 01 3f
       0.1325811 0.17168982 0.09905433 0.50578094
0001b0 47 dc 8c 3e 1e 9d fc 3e ec 76 40 3e ee ab 4a 3e
       0.27511808 0.4933862 0.18795365 0.19792148
0001c0 19 ba 04 3f 15 f4 97 3e a5 19 44 3e bc 4c b0 3e
       0.5184646 0.29678407 0.19150408 0.34433544
0001d0 cb 39 a9 3e 2b d3 b1 3e 0a 68 a5 3e cc 71 ad 3e
       0.33051905 0.3473142 0.32305938 0.33875883
0001e0 8d a9 d1 3e 1b 16 80 3e 63 8d 09 3e 97 fe bd 3e
       0.4094967 0.25016865 0.13432841 0.371083
0001f0 e1 03 42 3e 8c a0 1f 3f cb 6a 25 3f c1 23 38 3e
       0.18946792 0.6235435 0.6461608 0.17982389
000200 57 11 3a 3e a3 c4 f1 3d d9 33 3a 3e 48 29 5f 3e
       0.18170677 0.118050836 0.18183841 0.21793091
000210 ae 6a c0 3e 20 6c 8c 3e f0 77 95 3e a3 3a 9b 3e
       0.3758139 0.27426243 0.29193068 0.30318174
000220 96 31 8b 3e 2b 2c ab 3e 3c 49 22 3f 3e d7 16 3e
       0.2718627 0.33432135 0.63392997 0.14730546
000230 aa 32 0b 3e da d8 17 3e 83 81 e2 3d 9b de 4e 3e
       0.13593546 0.14828816 0.11059859 0.20202105
000240 ed bf 95 3e 46 81 0c 3e 17 3d 56 3e db 14 64 3e
       0.2924799 0.13721189 0.20921741 0.2227358
000250 7a f3 1d 3f fb a3 3a 3e 85 33 ce 3e 75 3a 86 3e
       0.6169964 0.18226616 0.4027368 0.26216474
000260 1c 88 92 3e e9 d4 59 3e 77 ad d7 3e 54 eb a0 3e
       0.28619468 0.21272625 0.4212453 0.3142954
000270 f0 30 4a 3e c5 19 c1 3e c8 cd 43 3e 28 bf 78 3e
       0.1974523 0.37714973 0.19121468 0.2429167
000280 7b 1b 90 3e 91 a6 03 3e 1b be 46 3e 22 06 72 3e
       0.28145966 0.12856509 0.19408457 0.23635152
000290 d5 28 25 3e 90 86 f3 3e 46 55 53 3e e1 60 81 3e
       0.16128857 0.475636 0.20637998 0.25269225
0002a0 0d c3 91 3e de 91 58 3e 3b ce c7 3d 80 be b3 3e
       0.28469124 0.21149394 0.09756132 0.35106277
0002b0 97 a5 1c 3e 65 ef f3 3e 95 4c 72 3e 47 7a bc 3e
       0.15297543 0.4764358 0.23662026 0.3681204
0002c0 12 ad 61 3e 94 43 e3 3e bb 6d 03 3e 90 ba 95 3e
       0.22038677 0.44387496 0.12834828 0.29243898
0002d0 d6 c3 89 3e 45 f2 49 3e 8c 31 a9 3e 85 c2 a1 3e
       0.26907223 0.19721325 0.33045614 0.3159372
0002e0 5a 75 79 3e 2b 96 0a 3e 2b 33 0b 3f fb d5 e3 3d
       0.24361172 0.13533847 0.5437495 0.11124798
0002f0 b4 24 9c 3e db c0 4f 3e 6c e9 70 3e d9 2a 2f 3e
       0.30496752 0.20288412 0.23526543 0.17106189
000300 77 6a e6 3d 42 ed ed 3e 41 ed a5 3e 04 f2 fe 3e
       0.11250775 0.46470076 0.32407573 0.49794018
000310 a8 9f 3f 3e 30 18 93 3e 48 6d 58 3e a6 68 a2 3e
       0.18713248 0.2872939 0.21135437 0.31720465
000320 f0 ea 55 3e ed 05 87 3e e5 68 cc 3e a4 40 6e 3e
       0.20890403 0.2637171 0.39923778 0.23266846
000330 ec 34 1b 3e 53 61 73 3e 0c 44 0d 3f 4c 97 66 3e
       0.15156907 0.23767595 0.55181956 0.22518653
000340 b2 f3 88 3e 29 b0 ba 3e e1 4e 66 3e 57 94 ae 3e
       0.26748425 0.36462525 0.22491027 0.3409755
000350 2f b1 65 3e 1c 65 10 3f 1b 93 3e 3e be 53 7d 3e
       0.22430871 0.5640428 0.18610804 0.24738976
000360 93 62 b8 3e aa ea 92 3e ed c8 b3 3e 9c ab 35 3e
       0.36012706 0.2869466 0.35114232 0.17741245
000370 bf cb ac 3e 7a 33 79 3e 32 5c b9 3e dd e3 d9 3e
       0.33749196 0.24336043 0.36203152 0.42556658
000380 ac f5 97 3e b6 c8 4e 3e 0f 1e 43 3e bd c9 62 3e
       0.2967962 0.20193753 0.19054435 0.2214727
000390 6e 49 e1 3e db ae 48 3e 13 f7 02 3e 40 93 02 3e
       0.44001335 0.19597952 0.12789564 0.12751484
0003a0 f0 5d 96 3e f5 63 e3 3d 9b bf 64 3e 75 4e 0f 3f
       0.29368544 0.1110305 0.22338717 0.5597909
0003b0 23 56 8e 3e a5 c6 c3 3e 10 c8 62 3e 7d 08 73 3e
       0.27800092 0.3823749 0.2214663 0.23733707
0003c0 41 c1 2d 3e 36 a4 62 3e 46 d1 f2 3e d7 bc 83 3e
       0.16968252 0.22132954 0.47425288 0.2573001
0003d0 6c 22 ae 3e 4e c6 ce 3e 15 f3 3d 3e 0a cb ff 3e
       0.34010637 0.4038567 0.1854976 0.49959594
0003e0 af 35 19 3e af 20 99 3e 71 9c 3a 3e e5 d2 51 3e
       0.14961885 0.29907748 0.1822374 0.20490606
0003f0 e9 7a 09 3e 37 3d 4b 3e dc 30 b8 3e f0 8c 7b 3e
       0.13425793 0.1984757 0.35974777 0.24565482

network.4.weight f4 [128, 256]
000000 c3 96 b2 bb e1 3b 73 bc ba 11 db 3b 2d aa b4 bc
       -0.005450101 -0.014845819 0.006685463 -0.022053802
000010 d0 ed c5 3c dd 32 98 bb e7 ef a7 bb ff 54 cf 3c
       0.02416125 -0.0046447353 -0.005125034 0.025309084
000020 53 70 16 3d e3 fb 01 bc b5 3a 57 bd e3 88 3f bc
       0.036728214 -0.00793359 -0.05254622 -0.011690351
000030 30 9d 3b 3c 5a 2e 26 bd a9 57 10 bc 02 7f b3 bb
       0.011451051 -0.040571548 -0.008809962 -0.005477787
000040 1b 0e 3b bd 72 18 27 bd ee d7 43 bd 2f c9 7d bc
       -0.04566775 -0.040794797 -0.04781335 -0.01548986
000050 80 a3 4b bb 7a 2c 22 bd 3d f6 2c 3c bd 5d 98 3c
       -0.0031072795 -0.039593197 0.010556755 0.018599385
000060 2f 7b 0d bc 80 e2 77 bd 72 6d 97 3c fb bc 41 bd
       -0.008635326 -0.06051874 0.018484805 -0.047299366
000070 33 63 b8 bc 6b c7 2a bd a1 bd 3c bd 9f 9a 6d 3d
       -0.02250824 -0.041694086 -0.04607928 0.058008786
000080 d4 b1 9a 3c d4 b7 6e bc c1 8f f7 bc cd d2 c5 3b
       0.018883623 -0.014570195 -0.030219914 0.0060370923
000090 bb f9 f4 bc 75 66 0c bd 9e e6 88 bd f0 d3 29 3d
       -0.029904237 -0.0342774 -0.06684612 0.041461885
0000a0 4a 35 65 3d a3 c5 54 3d 3e ef eb 3b f6 bd 30 3d
       0.055959024 0.051946294 0.0072001508 0.04314991
0000b0 18 5b 06 3c ed b2 71 3c ad 39 eb ba da 07 28 3a
       0.008200429 0.014752132 -0.0017946266 0.00064098614
0000c0 27 90 1d 3d a7 1d 2b bd f9 bb ac bb 1a 83 2a bd
       0.038467553 -0.041776326 -0.0052714315 -0.041628934
0000d0 28 ee db 3b 1f b5 a1 3c e7 6c be 3c 16 a1 18 3d
       0.00671174 0.019739686 0.023245288 0.037263
0000e0 81 72 1e 3c 90 23 79 3d f6 44 7d 3d de c8 7a bd
       0.009670855 0.06082493 0.061833344 -0.061226718
0000f0 8d ca 84 bd 04 3e 72 bd 69 ed 1a 3d 46 ed 27 bd
       -0.06483946 -0.059141174 0.03782407 -0.040997766
000100 37 25 58 3d f3 56 35 bc 00 ef 46 bd 25 8d 35 bd
       0.052769866 -0.011068094 -0.048567772 -0.04432406
000110 60 3b 58 ba e5 03 8c 3c 3e e3 48 3d 98 47 4c 3d
       -0.00082485937 0.0170917 0.04904484 0.049872965
000120 60 f8 f3 bc 70 2c 19 bd a9 97 08 bd 73 ae 81 3d
       -0.02978152 -0.037395895 -0.03334776 0.06332102
000130 56 98 25 bd 4e af 2d 3c bf 67 ab bc 78 47 6e 3d
       -0.040428482 0.010600878 -0.020923493 0.058173627
000140 b2 df 87 bd 49 1f 4b bd 93 98 3c bd 43 d4 11 3d
       -0.06634463 -0.049590383 -0.046043944 0.03560282
000150 9d c1 b8 bb 36 55 97 3d 1b 8b 38 bd d1 5b 2b 3a
       -0.005638315 0.073892996 -0.045054536 0.0006536814
000160 a7 20 cf bb b4 1b c0 bb 6e 85 3e 3c f4 99 97 bb
       -0.006321031 -0.0058626775 0.011628492 -0.004626507
000170 b8 ca b5 3b df e0 19 bd 4c 3b 60 3d 39 2f 4e 3c
       0.0055478476 -0.03756797 0.05474405 0.012584501
000180 05 e9 55 bd e1 08 65 bd e5 2b 41 3c d8 7f 90 3c
       -0.052224178 -0.05591667 0.01179025 0.017639086
000190 ca 2c 1e bd 4a 92 30 bb 55 aa c7 bc cc d6 96 3d
       -0.038616933 -0.0026942664 -0.024373213 0.07365188
0001a0 e7 81 69 3c 95 ef 48 bd 61 12 05 bd dc a9 3d bd
       0.014252163 -0.04905661 -0.03248823 -0.04630457
0001b0 e6 f3 2d bb fc 9f 5c 3c 81 15 27 bd 07 06 87 bd
       -0.002654308 0.013465878 -0.040791992 -0.065929465
0001c0 2c 6d 5a 3d 32 9b 34 3d 34 f4 ea 3c b5 64 ae 3a
       0.05332677 0.04409332 0.028680898 0.001330516
0001d0 f4 52 81 bd 82 75 5e 3a 03 f5 e3 bc b3 b9 6f 3d
       -0.0631465 0.0008486138 -0.027826792 0.058526706
0001e0 df 0f de 3c b6 44 43 3d 95 e1 64 bd b8 a8 55 bd
       0.027107177 0.04767295 -0.055879194 -0.052162856
0001f0 72 c8 3a 3d d1 0c 1c bd a6 aa 32 bc b3 e8 20 bc
       0.045601316 -0.03809816 -0.010904944 -0.009821105
000200 b3 67 3b bc a6 9c 25 3d 89 f9 a0 3c 50 a2 90 bb
       -0.011438298 0.040432595 0.019650238 -0.0044138804
000210 2e 25 7e bc 2a 69 1a 3d 51 7f 40 bd 14 52 c9 bb
       -0.015511794 0.03769795 -0.04699642 -0.0061438177
000220 57 b8 5e bd fa 46 70 bc 77 7a 17 3d da d2 44 3d
       -0.05437502 -0.01466536 0.036982026 0.048052646
000230 e5 a4 98 39 29 96 00 3d be c4 f8 3b 92 a3 31 3d
       0.00029114555 0.031393204 0.007591813 0.043368883
000240 b5 cd 8c bc 0c dc 3c bd 2b 86 11 3d cf 29 53 bd
       -0.017187933 -0.04610829 0.035528343 -0.051553544
000250 0a 7a 28 3d ca 44 5b bc 13 b9 8d ba 9c 96 6f bd
       0.04113201 -0.0133831 -0.0010812603 -0.05849324
000260 43 dc a4 3c 68 c0 8a bc 2d 81 3a 3d c5 67 92 bc
       0.02012456 -0.01693745 0.045533348 -0.017871747
000270 ef c6 40 bd 94 61 90 bb ac 9b 99 3b 99 01 54 3d
       -0.047064718 -0.0044061635 0.004687747 0.051759336
000280 75 f5 92 3d 2a bc 67 3d 18 44 aa bc 57 e5 45 3d
       0.071757235 0.05657593 -0.020784423 0.04831442
000290 70 2a 75 bd 58 dd 89 bb 0c dc 9f bc ad dc 82 3b
       -0.059854925 -0.0042072944 -0.019514106 0.0039935918
0002a0 4c 27 0c 3c 84 20 3b 3c 70 1a 33 bc 33 3b 35 3a
       0.008554291 0.011421327 -0.010931596 0.00069134234
0002b0 cc 5b 58 bc 6c 03 47 3d 20 16 0a bd d0 21 08 3d
       -0.01320548 0.048587248 -0.033712506 0.03323537
0002c0 5b d4 64 bd d3 24 ac bb ba 85 7e bd 8d 5a 87 3c
       -0.05586658 -0.005253413 -0.06213925 0.01652267
0002d0 a2 77 2a bd d4 4a 0b bd b3 05 29 3d 31 cf 6b bd
       -0.041617997 -0.03400691 0.0412652 -0.05757064
0002e0 7e 44 fa bc c9 dc ed 3c e3 04 2d 3d 87 df 0d 3d
       -0.030550238 0.029035943 0.04224099 0.034637
0002f0 30 1e c7 3c d9 c2 92 3d 8f 91 8e bb 3c 88 01 3d
       0.024306387 0.071660705 -0.004350848 0.031624064
000300 63 ef 77 3d cf 45 6f 3b 84 18 07 3d 7c e3 64 bd
       0.06053103 0.0036510115 0.032982364 -0.05588101
000310 53 69 4e bd 3e 04 1b 3a 15 6f c5 bc 69 b3 ed 3c
       -0.050393414 0.0005913413 -0.02410082 0.029016213
000320 17 73 4a 3c e9 39 f6 bc fe 01 1c bd 82 f7 ce 3c
       0.012356541 -0.03005691 -0.038087837 0.025264505
000330 b8 6f 0e bd c3 a7 42 bc c5 70 99 3c ee 4a 0d bd
       -0.034774512 -0.011880818 0.01873053 -0.034495287
000340 81 d1 79 3c e9 c3 1f 3d c4 02 78 3c 7f 45 5c 3d
       0.0152477035 0.039005194 0.015137378 0.053777214
000350 ff 5b 7c bd bf ea d0 3c 8f a1 d1 3c 9f 77 40 3d
       -0.06161117 0.02550256 0.025589732 0.04698908
000360 e1 9d 7d bd cb 1d 8c bb 81 3f bf 3c 18 b6 55 bd
       -0.061918143 -0.0042760125 0.02334571 -0.05217561
000370 03 0b d0 3c 64 64 ef bc a7 ae 27 3d f4 28 15 3d
       0.025395876 -0.029222675 0.040938046 0.03641601
000380 17 71 61 bb 82 b8 4a bd c2 fa ac 3c 19 14 40 bd
       -0.0034399682 -0.049492367 0.021115664 -0.046894167
000390 e5 8c 1b bb d1 c8 ee b9 38 c4 05 bd 96 81 55 3c
       -0.0023735103 -0.00045544517 -0.032657832 0.013031384
0003a0 0a 57 7a bd 59 9c d7 ba 00 b6 4d bd 15 a9 d2 bc
       -0.061118163 -0.0016449793 -0.050222397 -0.02571539
0003b0 fa a8 09 3d fd 22 1c 3c 2f 7d 4c bd f7 3d a4 bb
       0.033608414 0.009529826 -0.049924072 -0.0050122696
0003c0 27 e5 b1 bc 71 fd a0 bb e4 1c 94 3d da d7 59 bd
       -0.021715714 -0.004913025 0.07232073 -0.053184368
0003d0 30 89 0c 3d 1b 14 03 bd 29 3c 19 3c b8 6d c3 bc
       0.03431052 -0.032001596 0.009352722 -0.023856029
0003e0 93 06 bc 3c 04 20 41 3d 5e 84 2c 3d 41 86 3b 3d
       0.022952354 0.047149673 0.042118423 0.04578233
0003f0 68 90 11 3d 16 c9 09 3d a4 9b ba bc 18 2c 43 bd
       0.035538107 0.033639036 -0.022779293 -0.047649473
