models/10s30s_direction_mlp_fold5.pth (torch, 449874 bytes, 20 tensors)

network.0.weight f4 [256, 262]
0	0xbc9aca3e	-0.018895265
1	0xbd47f861	-0.048820857
2	0xbc38c567	-0.011277533
3	0x3d1372ca	0.035998143
4	0xbc96709e	-0.018364247
5	0x3d0a6c81	0.033794884
6	0xbd057968	-0.032586485
7	0xbd153a4f	-0.03643256
8	0xbc1055ab	-0.008809487
9	0x3cdd9fee	0.0270538
10	0xbbaab6e6	-0.0052097915
11	0xbb3238b9	-0.0027194454
12	0xbd03c6d4	-0.03217204
13	0xbc019942	-0.007910075
14	0xbc8cdc80	-0.017194986
15	0x3ca9da2f	0.02073392
16	0x3cccd788	0.025005117
17	0x3c4836e3	0.012220117
18	0x3bd5e6e7	0.00652777
19	0xbbe93ef0	-0.0071180984
20	0x3d5b729f	0.053576108
21	0x3b8562be	0.004070609
22	0xbce2d806	-0.027690899
23	0x3cfc1e10	0.030776054
24	0xbd07ceda	-0.033156253
25	0xbd6f6ce8	-0.05845347
26	0x3cc287cf	0.0237464
27	0x3d2c9ce8	0.042141825
28	0xbccae38e	-0.02476671
29	0x3d2478bd	0.040154207
30	0x3d177a4c	0.036981866
31	0xbd0a2482	-0.033726223
32	0xbbd51090	-0.0065022185
33	0x3d384739	0.0449898
34	0x3d1648bb	0.036690455
35	0x3d1387f7	0.036018338
36	0x3cd7f3d6	0.026361387
37	0xbb83de4b	-0.004024302
38	0xbd47820f	-0.048708018
39	0x3b18a747	0.0023293064
40	0x3c1db1d0	0.009624913
41	0x3d27b440	0.040943384
42	0xbd84d455	-0.064858116
43	0xbc053a3b	-0.008131559
44	0x3b421b03	0.002961815
45	0xbd6b4e53	-0.057447743
46	0xbb06348a	-0.0020478093
47	0x3c6bef6e	0.014400346
48	0xbcfdada7	-0.030966593
49	0x3a12c925	0.0005599431
50	0x3c822135	0.015884975
51	0x3d603769	0.054740343
52	0xbcfef1a5	-0.031121084
53	0x3d72f931	0.05931968
54	0xbd5ab0aa	-0.053391136
55	0xbc540842	-0.012941422
56	0xbd8b6600	-0.06806564
57	0xbd2210a4	-0.03956665
58	0xbd2291db	-0.03968988
59	0x3d8c0883	0.06837561
60	0x3d380720	0.04492867
61	0xbd3a8458	-0.04553637
62	0x3d55e58e	0.052220874
63	0xbd195eea	-0.037444033
64	0x3d8abc29	0.0677417
65	0xbd009dc7	-0.03140047
66	0x3c2406ab	0.010011355
67	0x3d8423b8	0.06452125
68	0x3d507166	0.050889395
69	0x3d7f3f42	0.062316187
70	0xbd520d9b	-0.051282506
71	0x3c923fb2	0.017852638
72	0xbc5862e0	-0.013207167
73	0xbc9dc7c3	-0.019260293
74	0xbca51a2f	-0.020154087
75	0x3d283461	0.041065577
76	0xbc76dce9	-0.0150673175
77	0xbcd56dd4	-0.026053347
78	0xbcde2a37	-0.027119739
79	0xbd091311	-0.03346545
80	0xbd70f29e	-0.058825128
81	0x3d5bc5bb	0.053655367
82	0x3c718058	0.014740072
83	0x3d78a992	0.06070859
84	0xbc2ec1f9	-0.010666364
85	0x3d17120e	0.036882453
86	0xbc2c5f30	-0.010520741
87	0x3cf5ff24	0.030028887
88	0x3d137d42	0.036008127
89	0x3d643433	0.055713844
90	0xbd558b08	-0.052134544
91	0xbd5fd6db	-0.05464826
92	0xbd0f7b5d	-0.035029758
93	0xbd74ed1f	-0.05979645
94	0x3d596c07	0.05308154
95	0xbd2dcd44	-0.042432085
96	0x3d1640a7	0.03668275
97	0xbd4ab496	-0.049488626
98	0x3b951a6d	0.0045502693
99	0xbd56d19b	-0.05244599
100	0x3c59d038	0.013294272
101	0x3d158091	0.036499564
102	0x3b813c02	0.003943921
103	0x3d67ccac	0.056591675
104	0xbd4ed909	-0.05049995
105	0x3d32f23b	0.04368804
106	0x3d3a0e39	0.04542372
107	0xbd35699f	-0.04429018
108	0xbd0f4e6e	-0.034986906
109	0xbcec8b6b	-0.028875073
110	0x3c3e2bbf	0.01160711
111	0x3c621ad2	0.01380034
112	0x3d278d3c	0.040906176
113	0x39870654	0.0002575392
114	0x3bec02c4	0.007202478
115	0xbd2b055a	-0.04175315
116	0xbcd1c701	-0.025607588
117	0x3c8a645f	0.016893564
118	0xbd6e8f62	-0.05824221
119	0x3cc3f0ff	0.023918627
120	0x3bd465e7	0.0064818743
121	0xbd816f14	-0.063200146
122	0xbd1c1372	-0.038104482
123	0xbc8ea77e	-0.01741385
124	0x3c67c8ca	0.014146993
125	0x3cad526a	0.021157462
126	0x3b3bc671	0.0028652216
127	0x3d770e2b	0.060316246
128	0xbd5623f2	-0.052280374
129	0xbc582ae5	-0.013193821
130	0xbd1df194	-0.038560465
131	0x3c2846dc	0.0102708
132	0x3c8551ad	0.016274298
133	0x3d0ca149	0.0343335
134	0x3d564da3	0.052320134
135	0x3d7fcbb2	0.06245012
136	0xbc406cc9	-0.011744686
137	0x3d08c615	0.03339203
138	0x3bd850cf	0.00660143
139	0xbd2d7f5b	-0.042357784
140	0x3d28ade4	0.04118146
141	0xbd263165	-0.04057445
142	0x3d92bda9	0.07165081
143	0xbd02e3cb	-0.03195552
144	0xbc8b642c	-0.01701554
145	0xbb91bef5	-0.0044478127
146	0x3cae4247	0.021271838
147	0x3b844894	0.0040369723
148	0xbd48dcb9	-0.049038623
149	0x3ca1eb56	0.019765537
150	0x3b211a37	0.0024582276
151	0xbc02cc33	-0.007983255
152	0x3d51f296	0.05125674
153	0xbcc22f74	-0.023704268
154	0x3b0a215b	0.002107701
155	0xbd04432c	-0.032290623
156	0x3d6d29a8	0.057901055
157	0x3cdb3cdc	0.026762418
158	0xbac1b3b0	-0.0014778282
159	0x3b453229	0.0030089712
160	0xbbf82da1	-0.0075737988
161	0xbd5167db	-0.051124435
162	0x3cfef7d7	0.031124039
163	0xbd4ae92b	-0.049538773
164	0x3d0abf46	0.03387382
165	0x3d6011bc	0.054704413
166	0x3bd10f3d	0.0063799904
167	0xba9e15b4	-0.0012060911
168	0x3d772ad6	0.060343586
169	0xbcff0a4a	-0.031132836
170	0xbb434896	-0.0029797903
171	0xbd0ce891	-0.03440148
172	0x3c59acf6	0.013285866
173	0xbd5bef84	-0.053695217
174	0xbd1ecc86	-0.038769267
175	0xbc0e9c1f	-0.008704214
176	0xbc40712c	-0.011745732
177	0xbd1261ee	-0.035737924
178	0xbc9ca54a	-0.019121785
179	0xbc8686d9	-0.016421722
180	0x3da32f7c	0.07968041
181	0xbd190336	-0.037356578
182	0x3d402a04	0.04691507
183	0x3cd239e4	0.02566237
184	0xbd011e09	-0.031522784
185	0xbd6d7fa7	-0.057983067
186	0xbd6a200b	-0.057159465
187	0x3d4d2795	0.050086576
188	0x3d6984f0	0.057011545
189	0xbd12052e	-0.03564947
190	0x3d2cd9c2	0.042199858
191	0xbc68f8b4	-0.014219452
192	0xbd0b19d8	-0.033960193
193	0x3d6f510b	0.058426898
194	0xbc9cc927	-0.019138886
195	0x3d2f3ca8	0.042782456
196	0xbc49b2b5	-0.0123106735
197	0x3d5b9828	0.053611904
198	0xbc682ed8	-0.014171325
199	0x3d2ed9ba	0.04268811
200	0x3d070575	0.03296419
201	0xbd2b096a	-0.041757025
202	0xbccd33d0	-0.02504912
203	0x3ce2055e	0.02759045
204	0xbd1fb0ce	-0.038986973
205	0x3c59d01a	0.013294244
206	0xbce7778c	-0.028255247
207	0x39c7711e	0.00038040517
208	0xbd672abe	-0.056437247
209	0x3d157255	0.03648599
210	0x3cd82419	0.0263844
211	0xbd00922b	-0.031389397
212	0xbbdbabd2	-0.006703832
213	0x3d08701c	0.03331004
214	0x3cd35590	0.025797635
215	0xbcace1e4	-0.021103807
216	0x3d39c2f7	0.04535195
217	0x3d456202	0.04818917
218	0x3ce03ec0	0.027373672
219	0xbd0fbee2	-0.03509415
220	0xbc5fde47	-0.013663835
221	0x3d81de8e	0.06341277
222	0xbba21ef5	-0.004947538
223	0x3cfe75b5	0.031061986
224	0xbd3d4d8b	-0.04621653
225	0xbbc758d4	-0.006083587
226	0xbd3eb597	-0.046559896
227	0xbd259eb7	-0.040434565
228	0xbcf95d6f	-0.03044006
229	0xbb48db67	-0.0030648352
230	0x3d1a5b77	0.037684884
231	0xba891db8	-0.0010461127
232	0xbd8c88f5	-0.0686206
233	0xbcc10412	-0.023561511
234	0x3c65718e	0.014004124
235	0xbd44ec39	-0.048076842
236	0xbc5b0da1	-0.013369949
237	0xbd29e842	-0.041481264
238	0xbcd5ad2d	-0.026083553
239	0x3d2e5844	0.042564645
240	0xbc4369bc	-0.0119270645
241	0xbbc6de89	-0.0060690087
242	0xbd29edbb	-0.041486483
243	0xbc6c8310	-0.014435545
244	0x3d440acc	0.04786186
245	0x3d07fbc1	0.033199076
246	0xbd1d210a	-0.038361587
247	0xbd50d292	-0.050982065
248	0xbd031f91	-0.032012526
249	0xbd67d755	-0.05660184
250	0x3d5f257f	0.05447912
251	0xbd4cdc4b	-0.050014775
252	0xbd405cae	-0.046963386
253	0x3d2abc98	0.041683763
254	0x3d49f026	0.04930129
255	0xbd31c53f	-0.043401

network.0.bias f4 [256]
0	0xbbf0cc49	-0.0073485714
1	0x3d16036d	0.03662436
2	0x3d063959	0.032769535
3	0x3d132569	0.03592435
4	0xbccafdb7	-0.024779184
5	0x3cb47b59	0.022031473
6	0xbd5b07a1	-0.053474072
7	0xbd25d75e	-0.040488593
8	0x3b977496	0.0046220524
9	0x3cb0ee9c	0.021598153
10	0xbcef8ae2	-0.02924103
11	0x3ce884e0	0.028383672
12	0x3d702df2	0.058637567
13	0xbc88487d	-0.016636128
14	0xbd7a0874	-0.061043218
15	0xbd4c0126	-0.049805783
16	0x3d56b403	0.052417766
17	0x3d2c1d35	0.04202004
18	0xbc81d811	-0.015850099
19	0xbcbb7008	-0.02288057
20	0x3d3a5e82	0.045500286
21	0x3cf3a161	0.029740037
22	0x3d4b67b7	0.049659457
23	0x3d2c211b	0.04202376
24	0xbd541643	-0.051779043
25	0xbcd7c4ea	-0.026339013
26	0x3b8593d8	0.0040764622
27	0x3a996184	0.0011702036
28	0xbcab4a77	-0.020909531
29	0xbd00aa5d	-0.03141247
30	0x3d11e4b3	0.035618495
31	0xba0db658	-0.00054058945
32	0x3d28558b	0.041097205
33	0x3d5d6797	0.05405387
34	0x3cd49dce	0.025954153
35	0xbac244aa	-0.0014821489
36	0x3d61b57e	0.055104725
37	0xbcce200e	-0.02516177
38	0xbd7c7a1e	-0.061639898
39	0x3ca1e54b	0.019762656
40	0x3c9f0734	0.019412614
41	0x3cd483f9	0.025941836
42	0xbd6bee1b	-0.057600122
43	0x3d64951a	0.055806257
44	0xbd1f72fd	-0.03892802
45	0xbc33bf39	-0.010970884
46	0x3b701057	0.0036630833
47	0xbaae9847	-0.0013320529
48	0x3c6493c5	0.013951247
49	0xbb1ecb89	-0.0024230203
50	0x3d6c77cc	0.057731435
51	0xbb88741c	-0.004164232
52	0x3cd88aa4	0.026433297
53	0x3d744d03	0.059643757
54	0xbd08647e	-0.03329896
55	0xbd00d939	-0.03145716
56	0x3d83f694	0.064435154
57	0x3cdf1925	0.02723367
58	0x3ccff656	0.025386017
59	0xbbfa26be	-0.007634013
60	0xbba1ec11	-0.0049414714
61	0xbbe378c6	-0.0069418876
62	0xbbf09776	-0.0073422743
63	0x3ca37600	0.019953728
64	0x3d00f086	0.03147938
65	0x3cbf65f7	0.02336405
66	0x3ca77a98	0.0204442
67	0xbd0b0d1f	-0.03394806
68	0x3c1f6c25	0.0097303735
69	0xbcffe071	-0.031234952
70	0xbd7ee4ad	-0.0622298
71	0xbd010935	-0.03150292
72	0x3d4b901b	0.049697977
73	0xbd7a9027	-0.06117263
74	0xbd3fcd56	-0.046826683
75	0xbd6547ce	-0.05597668
76	0xbcb7bf15	-0.022429982
77	0x3d20fe66	0.039305113
78	0x3c259592	0.010106461
79	0xbd1b218f	-0.0378738
80	0xbb273dde	-0.0025519053
81	0xbbf5eaf6	-0.007504816
82	0xbc8cb143	-0.017174369
83	0x3d48528a	0.04890684
84	0x3d63ed24	0.055646077
85	0x3b5732c1	0.0032836648
86	0xbc30c77a	-0.010789746
87	0xbd1a56f8	-0.037680596
88	0xbd82e3b6	-0.06391089
89	0x3ba2a72c	0.004963776
90	0x3c9955e1	0.018717708
91	0xbb283135	-0.0025664095
92	0xbd5cab48	-0.053874284
93	0xbd0703de	-0.032962672
94	0x3b0366e3	0.002005034
95	0xbd283fa8	-0.041076332
96	0xbc91bf91	-0.017791541
97	0xbd42936c	-0.047503874
98	0x3d48a656	0.048986755
99	0xbbddab58	-0.0067648105
100	0xbd488eb3	-0.048964214
101	0x3d292c13	0.041301798
102	0x3d84e512	0.06489004
103	0xbd5a89a2	-0.053353913
104	0x3c61fab6	0.013792684
105	0xbb929dce	-0.004474378
106	0xbc8d01cc	-0.01721277
107	0xbcdb16af	-0.026744215
108	0xbd4027f5	-0.046913106
109	0xbcd613d1	-0.026132496
110	0x3bef3bb1	0.007300817
111	0xbcc20b5c	-0.023687057
112	0xbcc65bcd	-0.024213696
113	0xbd03faa5	-0.032221455
114	0x3d5f9438	0.05458471
115	0x3cc00b71	0.023442956
116	0x3d2749e2	0.040841945
117	0x3c8435b8	0.016138896
118	0xbd57bd16	-0.05267056
119	0x3d61d0da	0.055130817
120	0xbcbd6265	-0.023118207
121	0xbcab7eec	-0.020934545
122	0xbcca9a32	-0.02473173
123	0x3d565e1a	0.052335836
124	0x39352b23	0.00017277575
125	0x3c7d0a7e	0.015444396
126	0xbc4c7dbe	-0.012481151
127	0x3d678c54	0.05653031
128	0x3c4ca012	0.012489336
129	0x3af09aa0	0.0018356629
130	0xbd72963f	-0.059225317
131	0xbd8c619c	-0.06854555
132	0x3d2fdeea	0.042937197
133	0x3cb35743	0.021892196
134	0xbd8210cf	-0.06350862
135	0xbb29368a	-0.0025819861
136	0x3d5e9237	0.05433866
137	0xbd17ed37	-0.03709146
138	0xbc06d237	-0.00822883
139	0x3b8e7b76	0.004348214
140	0xbcc79e94	-0.024367608
141	0x3d8568a2	0.06514098
142	0xbcb32c24	-0.021871634
143	0x3cf96552	0.030443821
144	0x3b2a9cd5	0.002603342
145	0x3c0864cb	0.008324812
146	0xbd7c85b0	-0.06165093
147	0xbc833279	-0.016015278
148	0xbc595c6d	-0.013266665
149	0xbb22b9b6	-0.002482993
150	0x3d3f282e	0.046669178
151	0x3c1f05cf	0.009705975
152	0xbd1297dc	-0.035789356
153	0xbad5e38c	-0.0016318425
154	0xbccf7f00	-0.025329113
155	0xbd06803e	-0.032837145
156	0xbc883a69	-0.016629415
157	0xbcc18a4d	-0.023625517
158	0xbcec253d	-0.02882635
159	0x3d36ad8b	0.044599097
160	0xbcbf4d94	-0.023352422
161	0xbd08f1ba	-0.033433653
162	0x3d0d4932	0.034493633
163	0xbcb1f29d	-0.021722132
164	0x3c6807a6	0.01416198
165	0xbd41ebd7	-0.047344055
166	0xbc069bb3	-0.0082158325
167	0x3cc8bdcf	0.02450457
168	0x3d6cb012	0.0577851
169	0xbd599533	-0.053120803
170	0xbc6fe526	-0.014642036
171	0xbd42f663	-0.047598254
172	0xbd57789b	-0.052605253
173	0xbd2de7cd	-0.04245739
174	0x3d3aa50d	0.04556756
175	0x3c63984c	0.013891291
176	0xbcfa067e	-0.030520674
177	0x3cb3f3e8	0.02196689
178	0xbc0842af	-0.00831668
179	0x3b90c609	0.004418139
180	0x3d0abc49	0.03387097
181	0xbd404fc8	-0.046951085
182	0xbd6d2460	-0.057896018
183	0xbd248b83	-0.04017211
184	0xbd69111b	-0.05690108
185	0x3ca9b9ec	0.020718537
186	0x3bb5d099	0.0055485484
187	0xbd0af60e	-0.033926062
188	0xbd0c7b4c	-0.034297273
189	0x3d13edc4	0.036115423
190	0xbc05dc96	-0.008170268
191	0xbb067be2	-0.0020520617
192	0x3d6262b7	0.055269923
193	0xbcbb59a4	-0.022869892
194	0xbd125c17	-0.035732355
195	0x3d4817cc	0.04885082
196	0x3d766214	0.06015213
197	0x3d008863	0.03138007
198	0xbc9d4663	-0.019198602
199	0x3d402456	0.046909653
200	0x3b15668a	0.0022796714
201	0xbc1db536	-0.009625724
202	0x3c469cc2	0.012122335
203	0x3d7295a1	0.05922473
204	0xbc053560	-0.008130401
205	0xbcb2134c	-0.021737717
206	0xbd0642c1	-0.032778505
207	0xbd3f100b	-0.04664616
208	0xbbeb0570	-0.007172279
209	0x3cacabb8	0.021077976
210	0x3ca2a086	0.019851934
211	0xbcad8a87	-0.021184219
212	0x3c43b6c6	0.011945432
213	0xbcdfd9fb	-0.02732562
214	0x3cb627ed	0.022235835
215	0xbc3ae8e8	-0.011408068
216	0x3bcee8d4	0.0063143764
217	0xbd4f6fe0	-0.0506438
218	0x3d58af66	0.052901648
219	0x3c9ae6f1	0.01890895
220	0xbd5cf8a9	-0.05394808
221	0xbc808aa7	-0.015691115
222	0x3d4eab0e	0.0504561
223	0xbd834aba	-0.06410737
224	0xbd10a879	-0.035316918
225	0x3d03fade	0.032221667
226	0x3ccce835	0.025013069
227	0x3c00c86f	0.007860287
228	0xbd4df719	-0.05028448
229	0x3c712f7b	0.014720793
230	0xbc2926d1	-0.010324196
231	0xbcd7d72d	-0.026347721
232	0xbc647fbf	-0.013946473
233	0xbbae828d	-0.0053256215
234	0x3d5fc1db	0.054628234
235	0x3c3c0ef9	0.011478179
236	0xbcf3b335	-0.029748539
237	0x3befef21	0.0073222076
238	0xbbf6d61d	-0.0075328485
239	0xbcb9f113	-0.022697961
240	0x3d09e5ab	0.033666294
241	0x3d604bf2	0.054759927
242	0x3d2fbcaa	0.042904533
243	0xbb93040b	-0.004486566
244	0x3cc99e14	0.02461151
245	0x3b06d09f	0.0020571125
246	0xbd710bdc	-0.0588492
247	0xbd3bc00d	-0.04583745
248	0x3cc545b2	0.024081085
249	0x3c9b82ad	0.01898321
250	0xbba3813d	-0.0049897716
251	0x3c84c020	0.016204894
252	0x3c230faa	0.009952465
253	0xbd8a96ae	-0.06767021
254	0x3c9ed3e8	0.019388154
255	0xbd285434	-0.041095927

network.2.weight f4 [256]
0	0x3f8096ac	1.0045981
1	0x3f8291e2	1.020077
2	0x3f8069ee	1.0032327
3	0x3f7adec9	0.97996193
4	0x3f7d3848	0.98914003
5	0x3f81768c	1.0114303
6	0x3f8201c9	1.0156795
7	0x3f7d54fe	0.9895781
8	0x3f7dacb8	0.9909167
9	0x3f80a1e1	1.0049402
10	0x3f7d0c82	0.9884721
11	0x3f7ffec2	0.99998105
12	0x3f8000d0	1.0000248
13	0x3f81b497	1.0133237
14	0x3f7c2eee	0.9850911
15	0x3f806004	1.0029302
16	0x3f7dbbda	0.99114764
17	0x3f8240b6	1.0175998
18	0x3f80f927	1.0076035
19	0x3f7d2472	0.98883736
20	0x3f807bfa	1.0037835
21	0x3f80f93a	1.0076058
22	0x3f807955	1.0037028
23	0x3f811ec2	1.0087512
24	0x3f81b888	1.013444
25	0x3f81f10f	1.015169
26	0x3f7f88fd	0.998184
27	0x3f7ff26d	0.9997929
28	0x3f816140	1.0107803
29	0x3f7ec160	0.99513817
30	0x3f7de4e2	0.9917737
31	0x3f7b6d04	0.9821322
32	0x3f804d30	1.0023556
33	0x3f8106d8	1.0080214
34	0x3f810ce5	1.008206
35	0x3f7eb9c4	0.99502206
36	0x3f7d61a0	0.9897709
37	0x3f7fb949	0.998921
38	0x3f7f1fb2	0.9965774
39	0x3f7dce09	0.9914251
40	0x3f7c583b	0.9857213
41	0x3f7f782c	0.9979274
42	0x3f813524	1.0094342
43	0x3f81270d	1.0090042
44	0x3f8071bf	1.0034713
45	0x3f804c55	1.0023295
46	0x3f80c3c4	1.0059743
47	0x3f826214	1.0186181
48	0x3f801137	1.0005254
49	0x3f80b96f	1.005659
50	0x3f7f7903	0.99794024
51	0x3f7e1549	0.9925123
52	0x3f7c22a6	0.9849037
53	0x3f7ea7ac	0.99474597
54	0x3f80a9c3	1.0051807
55	0x3f81ab7f	1.0130461
56	0x3f8054c4	1.0025868
57	0x3f7ce6a2	0.9878942
58	0x3f816230	1.010809
59	0x3f7e5a5e	0.9935664
60	0x3f7eacc8	0.99482393
61	0x3f80509c	1.00246
62	0x3f7e357c	0.9930036
63	0x3f7e585d	0.9935358
64	0x3f80430d	1.0020462
65	0x3f7baf17	0.9831404
66	0x3f8029bd	1.0012738
67	0x3f7ef350	0.99590015
68	0x3f7bb34d	0.98320466
69	0x3f8065b5	1.0031039
70	0x3f7ffecb	0.9999816
71	0x3f7f71d1	0.99783045
72	0x3f80e5d7	1.0070142
73	0x3f7f78b9	0.99793583
74	0x3f7f1541	0.99641806
75	0x3f7fc786	0.99913824
76	0x3f817cc5	1.0116202
77	0x3f814bb4	1.0101228
78	0x3f7de215	0.991731
79	0x3f806e3b	1.003364
80	0x3f7f8f5f	0.9982814
81	0x3f80d043	1.0063556
82	0x3f7d32dc	0.9890573
83	0x3f805e93	1.0028862
84	0x3f802f82	1.0014498
85	0x3f80b22f	1.0054377
86	0x3f812f4e	1.0092561
87	0x3f7ee7cd	0.9957245
88	0x3f7e5e78	0.993629
89	0x3f7f5d13	0.99751395
90	0x3f7f210c	0.996598
91	0x3f8028d3	1.0012459
92	0x3f7f8190	0.9980707
93	0x3f80a6b7	1.0050877
94	0x3f831b32	1.0242674
95	0x3f8237bf	1.0173262
96	0x3f7d29e2	0.98892033
97	0x3f7f4d76	0.9972757
98	0x3f809359	1.0044967
99	0x3f7f5acf	0.9974794
100	0x3f7dccb1	0.9914046
101	0x3f80927a	1.0044701
102	0x3f7de175	0.99172145
103	0x3f8070ee	1.0034463
104	0x3f819f4b	1.0126737
105	0x3f7e44f9	0.99323994
106	0x3f7d6d3c	0.98994803
107	0x3f7d81f6	0.9902643
108	0x3f816f53	1.0112098
109	0x3f81c1c4	1.0137258
110	0x3f7e765c	0.9939935
111	0x3f8156ab	1.0104574
112	0x3f801b91	1.0008413
113	0x3f81a6e9	1.0129062
114	0x3f8138f5	1.0095507
115	0x3f80e8df	1.0071067
116	0x3f801d25	1.0008894
117	0x3f82b127	1.0210313
118	0x3f7fa200	0.9985657
119	0x3f7eb15d	0.99489385
120	0x3f80a2cd	1.0049683
121	0x3f820ba1	1.0159799
122	0x3f7ddcab	0.9916484
123	0x3f7f6069	0.99756485
124	0x3f816729	1.0109607
125	0x3f7d1581	0.9886094
126	0x3f804e1b	1.0023836
127	0x3f808377	1.004012
128	0x3f7d1ebf	0.9887504
129	0x3f80354c	1.0016265
130	0x3f7e658d	0.99373704
131	0x3f7efcac	0.99604297
132	0x3f7e94b1	0.99445635
133	0x3f819cde	1.0125997
134	0x3f7f06db	0.99619836
135	0x3f7caaaf	0.9869794
136	0x3f7a6f77	0.9782633
137	0x3f818b5c	1.0120654
138	0x3f7d1230	0.98855877
139	0x3f81571d	1.010471
140	0x3f800e65	1.0004393
141	0x3f80361f	1.0016516
142	0x3f7edf2a	0.9955927
143	0x3f7db145	0.99098617
144	0x3f7d7a8e	0.9901513
145	0x3f7cd390	0.9876032
146	0x3f7e1120	0.9924488
147	0x3f7d3f8f	0.9892511
148	0x3f7ecaed	0.9952839
149	0x3f800fd6	1.0004833
150	0x3f809d1f	1.004795
151	0x3f807a49	1.0037318
152	0x3f80eec9	1.0072871
153	0x3f7dab7d	0.99089795
154	0x3f8100f0	1.0078411
155	0x3f80e973	1.0071243
156	0x3f7c23d0	0.98492146
157	0x3f7c6283	0.98587817
158	0x3f7dbd12	0.99116623
159	0x3f8144a4	1.0099072
160	0x3f7dcfd4	0.99145246
161	0x3f818966	1.0120056
162	0x3f7f7634	0.9978974
163	0x3f7c2f0e	0.985093
164	0x3f81b891	1.013445
165	0x3f7e6d8a	0.99385893
166	0x3f808605	1.00409
167	0x3f7f3c3b	0.9970128
168	0x3f80c998	1.0061522
169	0x3f816acc	1.0110717
170	0x3f800fa8	1.0004778
171	0x3f818098	1.0117369
172	0x3f805d7e	1.0028532
173	0x3f7fa4c9	0.9986082
174	0x3f803bbc	1.001823
175	0x3f7ed62c	0.9954555
176	0x3f7ccc23	0.9874899
177	0x3f7dd73e	0.9915656
178	0x3f7f3294	0.9968655
179	0x3f80adad	1.0053002
180	0x3f7e9ff2	0.9946281
181	0x3f7ea104	0.9946444
182	0x3f829903	1.0202945
183	0x3f7edbaf	0.9955396
184	0x3f7f9f44	0.99852395
185	0x3f7c8a56	0.98648584
186	0x3f7ed74e	0.9954728
187	0x3f8146fc	1.0099788
188	0x3f80ed36	1.0072391
189	0x3f80a407	1.0050057
190	0x3f807fe9	1.0039035
191	0x3f810c6e	1.0081918
192	0x3f805b5e	1.0027883
193	0x3f814177	1.0098103
194	0x3f8089ec	1.004209
195	0x3f824f74	1.0180497
196	0x3f7ed781	0.9954758
197	0x3f80dd02	1.0067446
198	0x3f7c26ca	0.9849669
199	0x3f7b181a	0.9808365
200	0x3f80e592	1.0070059
201	0x3f7c0a85	0.9845355
202	0x3f810d75	1.0082232
203	0x3f7e6a50	0.9938097
204	0x3f7c844a	0.9863936
205	0x3f7f3186	0.9968494
206	0x3f7f2e41	0.9967995
207	0x3f8002cf	1.0000857
208	0x3f832440	1.0245438
209	0x3f7e19eb	0.992583
210	0x3f80c239	1.0059272
211	0x3f80f025	1.0073286
212	0x3f7e7ee2	0.9941236
213	0x3f805c46	1.002816
214	0x3f80cd2f	1.0062617
215	0x3f810de0	1.0082359
216	0x3f7d35a9	0.98910004
217	0x3f809a75	1.0047137
218	0x3f80c3e1	1.0059777
219	0x3f805616	1.0026271
220	0x3f804ae4	1.0022855
221	0x3f7feb90	0.99968815
222	0x3f805f3d	1.0029064
223	0x3f804900	1.0022278
224	0x3f80d56c	1.0065131
225	0x3f7e3672	0.99301827
226	0x3f7e7468	0.9939637
227	0x3f7b340a	0.9812628
228	0x3f7e5697	0.99350876
229	0x3f7ef950	0.9959917
230	0x3f821f9c	1.0165896
231	0x3f7ce2e1	0.9878369
232	0x3f7c5bcd	0.98577577
233	0x3f80b8ed	1.0056435
234	0x3f7d6b07	0.98991436
235	0x3f811aae	1.0086267
236	0x3f7f3fec	0.9970691
237	0x3f7e6d0b	0.99385136
238	0x3f7fff17	0.9999861
239	0x3f7e921e	0.9944171
240	0x3f80e874	1.0070939
241	0x3f80e785	1.0070654
242	0x3f7e5cfc	0.9936063
243	0x3f7d28f1	0.98890597
244	0x3f8033d9	1.0015823
245	0x3f804c6f	1.0023326
246	0x3f7d40ed	0.98927194
247	0x3f7dda4d	0.99161226
248	0x3f7e35f2	0.99301064
249	0x3f805c18	1.0028105
250	0x3f815672	1.0104506
251	0x3f815e7c	1.0106959
252	0x3f800570	1.0001659
253	0x3f80b688	1.0055704
254	0x3f7fa525	0.99861366
255	0x3f81fa61	1.0154535

network.2.bias f4 [256]
0	0x3bd1a725	0.006398099
1	0x3c75050a	0.014954815
2	0xbafef9e4	-0.0019453135
3	0xbb1efa3d	-0.002425804
4	0xbc96a741	-0.0183903
5	0xbba5be7b	-0.0050581074
6	0xbb771b4d	-0.0037705482
7	0xbc40f8f2	-0.011778103
8	0xbb4cfd45	-0.003127889
9	0xbbbbf93e	-0.005736499
10	0xbba9613e	-0.005169063
11	0xbc1c0d5f	-0.009524672
12	0x3ba6ac06	0.0050864248
13	0x3c0fb39f	0.008770852
14	0x3bf835f3	0.0075747906
15	0xbae27b3b	-0.0017279157
16	0xbbc0338e	-0.005865521
17	0x3b07e38a	0.002073499
18	0x3bf1fab9	0.007384625
19	0xb9ba3800	-0.00035518408
20	0x3b207966	0.0024486422
21	0x3c5faa77	0.013651482
22	0xbc230178	-0.009949081
23	0x3a83c700	0.0010053813
24	0x3b652356	0.0034963689
25	0xbc28341d	-0.010266331
26	0xbab35ad4	-0.0013683685
27	0x39dd5b76	0.00042220548
28	0x3a9cb02c	0.0011954359
29	0x3b83ae99	0.0040186164
30	0xbce1cfc4	-0.02756489
31	0xbbbed9fd	-0.005824326
32	0xbb8abbe7	-0.0042338255
33	0xbba876cb	-0.0051411144
34	0xba5f2a66	-0.0008513093
35	0xbc03a75f	-0.00803551
36	0x39e6309e	0.0004390524
37	0xba8d8e81	-0.0010799916
38	0x3b0bbef1	0.0021323527
39	0x3be56fc2	0.007001848
40	0xbc092810	-0.008371368
41	0xbb1b0363	-0.0023653142
42	0xbbdb146e	-0.006685785
43	0x3c80df6c	0.015731536
44	0xbbc3223d	-0.0059550093
45	0xbb593339	-0.0033142103
46	0x3baba02e	0.0052376008
47	0xbc006e18	-0.007838748
48	0x3bcccb25	0.0062498027
49	0xbc7abd74	-0.015303958
50	0x3c17182d	0.009222073
51	0xbaf56f6f	-0.0018725226
52	0xbbb9f3dc	-0.0056748223
53	0xbbbad595	-0.0057017305
54	0xbc5d76ae	-0.013517065
55	0xbbeec2a4	-0.0072863866
56	0xbc134450	-0.008988455
57	0xbbfb3ff5	-0.0076675364
58	0xbb29584b	-0.002583998
59	0xbbe92284	-0.0071147103
60	0x3b508290	0.0031816103
61	0xbc976761	-0.018481912
62	0xbc8dc3dd	-0.017305309
63	0xbb5c3721	-0.0033602195
64	0x3a9cbe20	0.0011958517
65	0xbbb87a34	-0.005629802
66	0xbbdd30b5	-0.006750191
67	0x3b4f99b0	0.0031677298
68	0xbc3c7da8	-0.011504568
69	0x3c8086f2	0.015689347
70	0x3c06ed88	0.008235343
71	0xbbdfe246	-0.006832394
72	0xbc163cbf	-0.009169756
73	0xba996bc5	-0.0011705091
74	0x3b334bae	0.002735834
75	0xbc3cc0b0	-0.01152055
76	0xbc575d1e	-0.013144759
77	0xbbe205be	-0.006897657
78	0xbca475d5	-0.020075718
79	0x3c3cb640	0.011518061
80	0xbbe20bcd	-0.0068983794
81	0xba166ca5	-0.0005738235
82	0xbaa00971	-0.0012209845
83	0x3b71d382	0.003689975
84	0x3be3abcc	0.00694797
85	0x3b57ddae	0.0032938528
86	0x3bd88eb8	0.0066088103
87	0xbc65a0b6	-0.014015367
88	0x3c9bac27	0.019002987
89	0x3c30bf91	0.0107878605
90	0x3b53c804	0.0032315264
91	0x3bd9532d	0.00663223
92	0x3c6e2c1b	0.014536883
93	0x3902bce5	0.00012468135
94	0x3ac6c714	0.0015165531
95	0x3b5627e7	0.0032677592
96	0x3c5e432e	0.013565822
97	0xbac2db50	-0.0014866386
98	0xbb77b682	-0.0037797992
99	0x3be66a5a	0.007031721
100	0x3baf60a8	0.0053520985
101	0x3cf99faf	0.03047165
102	0x3bc4abd5	0.0060019293
103	0xbca6ebaf	-0.020376055
104	0xbc6a403d	-0.014297542
105	0x3baea306	0.0053294925
106	0x3c262594	0.010140795
107	0xbc9495d2	-0.018137846
108	0xbb142029	-0.0022602177
109	0xbc16fee7	-0.009216047
110	0xbc1df8ec	-0.009641867
111	0xbc348123	-0.011017117
112	0xbb454b36	-0.0030104644
113	0xbb26344e	-0.0025360766
114	0xbc132ef4	-0.0089833625
115	0x3c94f794	0.01818446
116	0x3a3813e4	0.0007022007
117	0xbc910272	-0.017701361
118	0xbc406994	-0.011743922
119	0xbb8ef392	-0.004362532
120	0x3b8742d3	0.004127839
121	0xbbac057c	-0.005249677
122	0xbc1685d4	-0.009187181
123	0x3b276a10	0.0025545396
124	0xbc2f6090	-0.010704175
125	0x3bfde232	0.007747912
126	0x3c484086	0.012222415
127	0x3c0fd426	0.0087786075
128	0x3c15db5e	0.0091465395
129	0xbb0b6bfb	-0.0021274078
130	0xbbe95bf4	-0.0071215574
131	0xbb97a0ca	-0.004627322
132	0xbb0d7be3	-0.0021588735
133	0x3b2c7ecf	0.00263207
134	0x3b170e1b	0.002304918
135	0xbbfa7f2c	-0.0076445546
136	0xbc125994	-0.00893249
137	0xbc6a2966	-0.014292097
138	0x3ba96987	0.0051700505
139	0xbc3bb699	-0.011457109
140	0xbb9abf8b	-0.0047225407
141	0xba88069a	-0.0010377944
142	0xbb73a7f9	-0.0037178977
143	0x3ca25152	0.019814167
144	0x3b4ae532	0.0030959365
145	0xbb1fd86d	-0.0024390474
146	0x3bf420b3	0.007450187
147	0x3b9caf79	0.00478166
148	0x39a397c3	0.00031202854
149	0x3a6918af	0.0008891923
150	0x3bf152a4	0.007364588
151	0x3c48a5e1	0.01224658
152	0xbbfe31ee	-0.007757417
153	0xbc0e95de	-0.008702723
154	0xbb81f1a4	-0.0039655734
155	0x3b3e837c	0.002907007
156	0x3a7957ce	0.000951168
157	0xbc173596	-0.0092290845
158	0x3c31d6dc	0.010854449
159	0xbc89457f	-0.016756771
160	0xbaccec92	-0.0015634468
161	0x3b39ffad	0.0028381154
162	0x3c98a30a	0.01863243
163	0x3ba1c112	0.004936346
164	0xbaeea938	-0.001820839
165	0xbbe36105	-0.006939056
166	0x3c0903da	0.008362735
167	0x3b8498e5	0.0040465468
168	0xbc90ae5b	-0.017661264
169	0xbb080706	-0.002075614
170	0x3c5f1d52	0.01361783
171	0x3bbbbf73	0.0057296096
172	0xbbf29758	-0.0074032955
173	0xbcaa8a2b	-0.020817837
174	0xb9c53e0b	-0.00037620994
175	0xbc64e238	-0.01396995
176	0xbaede3df	-0.0018149576
177	0xbb54016a	-0.0032349476
178	0x3bdb8f45	0.0067004287
179	0xbc15207a	-0.009101981
180	0x3c9ceb10	0.019155055
181	0x3c423410	0.011853233
182	0xbc87f245	-0.016595015
183	0x3bcb2d7c	0.0062004905
184	0x3baeb176	0.0053312136
185	0xbb0948b9	-0.0020947887
186	0xbb919a0f	-0.004443414
187	0x3bc04226	0.0058672605
188	0x3b94a6c2	0.0045364806
189	0x3bcd0c47	0.006257567
190	0x3c5eb3dc	0.0135926865
191	0x384f0753	4.9359467e-05
192	0xbb518ea6	-0.0031975894
193	0x3c513793	0.012769598
194	0xbc48e45b	-0.012261475
195	0x3c335cda	0.0109474305
196	0x3adaab0c	0.0016683056
197	0x3c3d1432	0.0115404595
198	0x3c03b93d	0.00803977
199	0xbbe7d586	-0.0070750145
200	0xbc1c18e6	-0.009527421
201	0x3b950377	0.004547532
202	0xbc3b6729	-0.0114381695
203	0xbbfdaedd	-0.0077417926
204	0x3c18a5a2	0.009316834
205	0x3a83e3af	0.0010062362
206	0xbbdc236a	-0.006718089
207	0xbc42f51d	-0.01189926
208	0x3bdc53c2	0.006723852
209	0x3a2c90bb	0.0006582846
210	0x3b787607	0.0037912147
211	0xbc9ddf74	-0.01927159
212	0xbbf2bf09	-0.007408027
213	0xbadf1b56	-0.0017021697
214	0x3bb516cf	0.0055264006
215	0xbb29ce00	-0.002591014
216	0xba9f7685	-0.0012166059
217	0xbbc78c21	-0.0060897027
218	0x3cb9f7d3	0.02270118
219	0x3be57ac5	0.0070031607
220	0x3c2dcd25	0.010607992
221	0x3b8ba263	0.0042613014
222	0xbaf05a40	-0.0018337443
223	0x3c66251a	0.014046932
224	0xbc2551c6	-0.010090297
225	0x3b2b2619	0.0026115237
226	0x3bc43860	0.0059881657
227	0x3c3d4caf	0.011553927
228	0x3c4bc4ab	0.012437026
229	0x3baa0e4c	0.0051896926
230	0x3c68cbb8	0.014208727
231	0x3c156409	0.0091180885
232	0xbb2338a3	-0.0024905584
233	0x3c8eb84f	0.01742187
234	0xbb3d5256	-0.0028888187
235	0x3b8ca629	0.004292269
236	0xbc6905ea	-0.014222601
237	0xbc4e77e7	-0.012601829
238	0x3c902e18	0.017600104
239	0x3c807d19	0.015684651
240	0xbc227a04	-0.009916786
241	0x3a96978b	0.0011489255
242	0xb9ffb12b	-0.0004876939
243	0x3b0c1958	0.002137741
244	0xbc28dd48	-0.010306664
245	0xbc9c607d	-0.019088978
246	0x3aed750c	0.0018116548
247	0xbc945766	-0.018108081
248	0xbc0aaa74	-0.008463491
249	0x393022a3	0.00016797571
250	0x3b68c771	0.0035519267
251	0x3c987eb3	0.018615102
252	0xbc0b1827	-0.008489645
253	0x3c2761d9	0.0102162
254	0x3bde3cb3	0.0067821383
255	0x3c199a88	0.009375222

network.2.running_mean f4 [256]
0	0x3e986912	0.29767662
1	0x3e9eadb4	0.309919
2	0x3ea5852e	0.3232817
3	0x3e9b9a83	0.3039132
4	0x3e8ff471	0.28116181
5	0x3e7e7090	0.24847627
6	0x3e973763	0.29534444
7	0x3e59e92e	0.21280357
8	0x3ead1b47	0.33809873
9	0x3e4dd125	0.20099314
10	0x3e9b1fb2	0.3029762
11	0x3e96bdab	0.2944158
12	0x3ea76f66	0.32702178
13	0x3eb1d933	0.34736022
14	0x3eaddc92	0.33957344
15	0x3eb217ff	0.34783933
16	0x3eccabb8	0.3997476
17	0x3ec678b9	0.3876398
18	0x3e76ea41	0.24112798
19	0x3e959fbd	0.29223433
20	0x3e98e756	0.29863995
21	0x3e92372e	0.28557724
22	0x3eb75aea	0.3581155
23	0x3e8dba78	0.27681327
24	0x3e515a9c	0.20444721
25	0x3eb5ab84	0.3548242
26	0x3e849090	0.25891542
27	0x3eec3956	0.46137494
28	0x3e903bd4	0.28170645
29	0x3e8dcfbc	0.2769755
30	0x3e8ff91f	0.28119752
31	0x3eab3aa1	0.33443168
32	0x3e933175	0.2874867
33	0x3eae313f	0.34021947
34	0x3e9953e8	0.29946828
35	0x3e852d64	0.26011193
36	0x3ea60da3	0.3243228
37	0x3ea44812	0.32086235
38	0x3e6a24f3	0.22865658
39	0x3eba681d	0.36407557
40	0x3ea5537d	0.3229026
41	0x3ec5521d	0.3853921
42	0x3e77069a	0.24123612
43	0x3ea35a19	0.31904677
44	0x3e7e103a	0.24810877
45	0x3e8e3bce	0.27780002
46	0x3eb18f3c	0.34679592
47	0x3e693852	0.2277539
48	0x3e841a92	0.25801522
49	0x3e982780	0.29717636
50	0x3e92ad5a	0.28647882
51	0x3ead6de9	0.33872917
52	0x3eb3a515	0.35086885
53	0x3e5db26d	0.21650095
54	0x3e8eaaae	0.27864593
55	0x3e6936c4	0.22774798
56	0x3ed35c32	0.41281277
57	0x3e916328	0.28395963
58	0x3e91bbbb	0.2846354
59	0x3eb68fa0	0.35656452
60	0x3e8c0529	0.27347687
61	0x3e897516	0.26847142
62	0x3e99159d	0.29899302
63	0x3e9062b6	0.2820031
64	0x3e9f7783	0.31145868
65	0x3e67600e	0.22595236
66	0x3e611e1d	0.21984144
67	0x3e552750	0.20815778
68	0x3ebdfb76	0.37105912
69	0x3e2a780d	0.16647358
70	0x3e95b50d	0.29239693
71	0x3ebca50d	0.36844674
72	0x3ec65a59	0.38740805
73	0x3eaacb3e	0.33358186
74	0x3e3521c5	0.17688663
75	0x3e27e605	0.16396339
76	0x3e98d518	0.29850078
77	0x3e9acef4	0.30236018
78	0x3e808842	0.25103956
79	0x3e5cf07f	0.21576117
80	0x3ea44294	0.32082045
81	0x3e768710	0.2407496
82	0x3ea4cb36	0.32186288
83	0x3ee05b34	0.43819582
84	0x3ed3c86a	0.4136384
85	0x3e56603e	0.20935151
86	0x3e9ff8fd	0.3124465
87	0x3e95aaa5	0.29231754
88	0x3e6bb657	0.23018776
89	0x3e8b8f26	0.2725765
90	0x3e7c31bc	0.24628347
91	0x3e5bcb1f	0.21464203
92	0x3e6866c1	0.22695448
93	0x3e936e57	0.2879512
94	0x3e4249af	0.1897342
95	0x3ec180d8	0.37793612
96	0x3e7dfe32	0.24803999
97	0x3e881dea	0.26585323
98	0x3e8f8368	0.28029943
99	0x3e9370c8	0.28796983
100	0x3e413db5	0.18871196
101	0x3eb564c3	0.35428438
102	0x3ed2f9f5	0.41206327
103	0x3e55745c	0.20845169
104	0x3eaf1c49	0.34201267
105	0x3ee1859d	0.4404725
106	0x3e6bce80	0.23027992
107	0x3e9e4471	0.30911592
108	0x3e4bdda2	0.19908765
109	0x3e8720f2	0.26392323
110	0x3e8e2df1	0.27769426
111	0x3eacdbb1	0.3376136
112	0x3e57265f	0.21010731
113	0x3e7d5de1	0.24742843
114	0x3eb8294b	0.35969004
115	0x3e8c6479	0.27420405
116	0x3e75be63	0.23998408
117	0x3e816707	0.25273916
118	0x3e8d9b6e	0.27657646
119	0x3eb7d815	0.35907045
120	0x3e7fdb1e	0.2498593
121	0x3e854e83	0.26036462
122	0x3e8985a7	0.2685978
123	0x3e8e92e9	0.2784646
124	0x3e868f9f	0.2628145
125	0x3e9e67b4	0.30938494
126	0x3e8d471b	0.27593312
127	0x3ecf49b7	0.40485927
128	0x3e918a91	0.2842603
129	0x3eb7d833	0.35907134
130	0x3e6791fe	0.22614285
131	0x3ea9bed6	0.3315341
132	0x3e93f152	0.2889505
133	0x3e91ac22	0.2845164
134	0x3e8faf08	0.28063226
135	0x3eb27acc	0.34859312
136	0x3eb1e493	0.347447
137	0x3e7d228d	0.24720211
138	0x3e66921c	0.22516674
139	0x3e6b5f2b	0.22985522
140	0x3e4599df	0.19296978
141	0x3e7b20c2	0.24524215
142	0x3e5a6637	0.21328054
143	0x3e9bda5c	0.30440032
144	0x3e98edb0	0.2986884
145	0x3ebbf382	0.3670922
146	0x3e8891dd	0.26673785
147	0x3e83dc19	0.2575386
148	0x3e7b0f59	0.24517573
149	0x3eab929d	0.33510295
150	0x3ebf550d	0.37369576
151	0x3ea8102d	0.3282484
152	0x3e46e0ab	0.19421642
153	0x3ea449ea	0.32087642
154	0x3e9a59aa	0.30146533
155	0x3e9582a2	0.29201227
156	0x3e7b3397	0.24531399
157	0x3e64becf	0.22338413
158	0x3e9391d8	0.28822207
159	0x3e8c3f4f	0.2739205
160	0x3e51867a	0.20461455
161	0x3ea97358	0.33095813
162	0x3e987d81	0.29783252
163	0x3ed727a5	0.42022434
164	0x3eb3a139	0.3508394
165	0x3e8b58bf	0.27216145
166	0x3e9e6d3f	0.30942723
167	0x3e78949b	0.24275438
168	0x3ecff89d	0.40619364
169	0x3e7f5002	0.24932864
170	0x3e818783	0.252987
171	0x3e88b7dc	0.26702774
172	0x3ea37f78	0.31933188
173	0x3eb7d0aa	0.35901386
174	0x3eba26b1	0.36357644
175	0x3e9e4cd4	0.3091799
176	0x3e65c1a3	0.22437148
177	0x3e9b38fb	0.3031691
178	0x3e7b97e4	0.2456966
179	0x3e9e7a2e	0.3095259
180	0x3f0150b3	0.5051376
181	0x3ec256b4	0.37956774
182	0x3e9401bf	0.28907582
183	0x3e8f1326	0.27944297
184	0x3e8af306	0.27138537
185	0x3e5d1813	0.21591215
186	0x3ea4c174	0.32178843
187	0x3e95ff98	0.29296565
188	0x3eac531b	0.33657154
189	0x3e6ac89c	0.22928089
190	0x3e9c98a5	0.3058521
191	0x3e86591c	0.2623986
192	0x3ee69c47	0.45041105
193	0x3eb7cdaf	0.35899112
194	0x3e73c9f3	0.23807506
195	0x3e6f090f	0.233433
196	0x3ee7c40a	0.45266753
197	0x3eb9b5cb	0.3627151
198	0x3e9d6eb8	0.30748534
199	0x3ea25470	0.31705046
200	0x3ecd6b7a	0.4012106
201	0x3ea2be2b	0.31785712
202	0x3e9cd8a6	0.3063404
203	0x3e9ce40e	0.30642742
204	0x3ebba83e	0.36651796
205	0x3eab9bc8	0.3351729
206	0x3ebdf62c	0.37101877
207	0x3e7bc186	0.24585542
208	0x3ec7441f	0.3891916
209	0x3e994014	0.299317
210	0x3e8c8cf3	0.27451286
211	0x3e553519	0.20821036
212	0x3ea344fc	0.31888568
213	0x3e86526b	0.26234755
214	0x3eb780be	0.3584041
215	0x3eb03f91	0.34423497
216	0x3e7eedc7	0.24895392
217	0x3ea65956	0.32490033
218	0x3e9c23e2	0.30496126
219	0x3e8fb142	0.28064924
220	0x3e6ee76c	0.23330468
221	0x3ec3713c	0.38172328
222	0x3eda8d99	0.42686155
223	0x3e79d0ba	0.24396029
224	0x3e91aa7a	0.28450376
225	0x3eabbc62	0.33542162
226	0x3ecc8321	0.39943793
227	0x3e8f1c0a	0.2795108
228	0x3ec0196a	0.3751939
229	0x3ecbbdb7	0.39793178
230	0x3e9f154d	0.3107094
231	0x3e9ada96	0.30244893
232	0x3e46bdc5	0.19408329
233	0x3e56af4e	0.20965311
234	0x3e6d501e	0.23175094
235	0x3e7a3af7	0.24436556
236	0x3e805e57	0.25071976
237	0x3ea9a2ae	0.33131927
238	0x3e660b00	0.22465134
239	0x3e8e3f9e	0.2778291
240	0x3ea9a3ac	0.33132684
241	0x3ed2e6bd	0.41191664
242	0x3e946d22	0.28989512
243	0x3ea5f6f4	0.32414973
244	0x3e88f3fb	0.26748642
245	0x3ebfee3e	0.37486452
246	0x3e6ba045	0.23010357
247	0x3ed9114a	0.42396003
248	0x3ec86fb1	0.39147714
249	0x3eb03b5f	0.34420297
250	0x3ea1a406	0.31570452
251	0x3eb86340	0.36013222
252	0x3ea07d74	0.31345713
253	0x3e950c19	0.29110792
254	0x3ea35e13	0.3190771
255	0x3e90a41e	0.2825021

network.2.running_var f4 [256]
0	0x3e40e06f	0.18835615
1	0x3e5b286e	0.21402141
2	0x3e83558a	0.256512
3	0x3e83aa39	0.25715807
4	0x3e6608c6	0.22464284
5	0x3de6d887	0.11271768
6	0x3e29ec58	0.16594064
7	0x3dfc03a1	0.1230538
8	0x3e4f5d79	0.202505
9	0x3da3d7b4	0.080001265
10	0x3e47abc7	0.19499122
11	0x3e6bfac9	0.23044886
12	0x3ea18aca	0.315512
13	0x3e551dd8	0.20812166
14	0x3ecff169	0.4061387
15	0x3eccf15f	0.40027902
16	0x3f0f109b	0.5588471
17	0x3e6be8d5	0.23038037
18	0x3e0bb7c9	0.13644327
19	0x3e1816f5	0.14852507
20	0x3e5d8730	0.21633601
21	0x3e26d9df	0.16294049
22	0x3e94972b	0.29021582
23	0x3e278216	0.16358218
24	0x3dc8e561	0.098093756
25	0x3e82d13e	0.25550264
26	0x3e23e59f	0.16005562
27	0x3f1d9fe8	0.6157212
28	0x3e72dc57	0.23716865
29	0x3e0a2c74	0.1349352
30	0x3e7ce652	0.24697235
31	0x3e9872c6	0.29775065
32	0x3e4acdc7	0.1980506
33	0x3eaa78e5	0.3329536
34	0x3e49024d	0.19629784
35	0x3e737a98	0.23777235
36	0x3e782383	0.24232297
37	0x3e5f03ce	0.21778795
38	0x3e172ff7	0.14764391
39	0x3e86fadc	0.26363266
40	0x3e93c472	0.28860813
41	0x3e79445d	0.24342485
42	0x3e8b976c	0.27263963
43	0x3e4e934b	0.20173375
44	0x3e23d266	0.1599823
45	0x3e7778b1	0.24167134
46	0x3e8599fe	0.2609405
47	0x3df6d46e	0.120522365
48	0x3e307b31	0.17234494
49	0x3e16db38	0.14732063
50	0x3e0e4683	0.13894086
51	0x3e577549	0.21040834
52	0x3e972d9f	0.29526994
53	0x3dd383b1	0.103278525
54	0x3e12e6d1	0.14345862
55	0x3e0bc4df	0.13649319
56	0x3e913d25	0.28366962
57	0x3e208adf	0.15677975
58	0x3e271b84	0.1631909
59	0x3e66db11	0.22544505
60	0x3e16cd16	0.14726672
61	0x3e361743	0.17782311
62	0x3e2d0936	0.16898045
63	0x3e490d4e	0.19633982
64	0x3e6a055a	0.22853604
65	0x3ddcd810	0.10783398
66	0x3e08faa6	0.13376865
67	0x3e2263cc	0.15858382
68	0x3eeec062	0.4663115
69	0x3d751a93	0.059839796
70	0x3e942321	0.2893305
71	0x3e76f9a1	0.24118663
72	0x3eb69467	0.35660097
73	0x3e995fc2	0.2995587
74	0x3dc4410c	0.09582719
75	0x3dbdaf19	0.09261913
76	0x3e184f13	0.14873914
77	0x3e5503e7	0.2080227
78	0x3e3badc6	0.18328008
79	0x3dd79808	0.105270445
80	0x3e8097df	0.25115868
81	0x3e20051a	0.15626946
82	0x3e5c435b	0.21510069
83	0x3f21a8eb	0.63148373
84	0x3eba22bc	0.36354625
85	0x3e24ca7f	0.16092871
86	0x3e79fd3d	0.24413009
87	0x3e8b990c	0.27265203
88	0x3e33bbfb	0.17552178
89	0x3e3d725d	0.18500657
90	0x3e066acc	0.13126677
91	0x3e20ee82	0.15715984
92	0x3ddaa2b8	0.106755674
93	0x3e82d7cd	0.25555268
94	0x3dfc31bb	0.12314173
95	0x3f05417b	0.5205304
96	0x3e23f6fd	0.16012187
97	0x3e52bc14	0.20579559
98	0x3e4da62b	0.2008292
99	0x3e520abc	0.20511907
100	0x3da9b8f7	0.08287232
101	0x3e88ba4b	0.2670463
102	0x3e73149d	0.23738332
103	0x3dd55b2f	0.104177825
104	0x3eaf8899	0.34283903
105	0x3ea3eee5	0.320182
106	0x3e16e306	0.1473504
107	0x3e8173ce	0.25283664
108	0x3de60557	0.11231487
109	0x3e1fd975	0.15610297
110	0x3e417be8	0.18894923
111	0x3e962178	0.2932241
112	0x3dd99c5b	0.106255256
113	0x3e3c92c2	0.18415359
114	0x3e5a5e6b	0.2132508
115	0x3e11dddc	0.14244789
116	0x3e1a7d5b	0.15086882
117	0x3e4f7c44	0.20262247
118	0x3e8d479d	0.275937
119	0x3eae4270	0.34035063
120	0x3e4f6742	0.20254233
121	0x3e485fc9	0.19567789
122	0x3e492e7b	0.19646637
123	0x3e01b7cb	0.12667768
124	0x3e356126	0.1771284
125	0x3e2d5adb	0.1692919
126	0x3e446139	0.19177713
127	0x3ebd71c9	0.37000874
128	0x3e768f4e	0.24078104
129	0x3eb691f8	0.3565824
130	0x3dd87874	0.105698496
131	0x3ea8c157	0.32960007
132	0x3e1ed03d	0.15509124
133	0x3e9b08cc	0.3028015
134	0x3e85b6b6	0.2611596
135	0x3e8c49a2	0.27399927
136	0x3ea7f31e	0.3280267
137	0x3e1a8889	0.15091147
138	0x3e2e543f	0.17024325
139	0x3dee1b1e	0.11626266
140	0x3da0f14a	0.07858522
141	0x3e1b69b1	0.15177037
142	0x3dcc62ee	0.09979807
143	0x3e6cfd02	0.2314339
144	0x3e7e9bbd	0.24864097
145	0x3ee53119	0.4476402
146	0x3e45df9e	0.19323584
147	0x3e458aa3	0.19291167
148	0x3e3d9d06	0.18516931
149	0x3e8fccd1	0.2808595
150	0x3e86a360	0.2629652
151	0x3e9942d1	0.2993379
152	0x3dc55a30	0.096363425
153	0x3e8275c2	0.25480467
154	0x3e81dae2	0.25362307
155	0x3e602958	0.21890771
156	0x3e2b4e78	0.16729152
157	0x3dc33294	0.095311314
158	0x3e49056d	0.19630976
159	0x3e28d263	0.16486506
160	0x3da9ff42	0.0830064
161	0x3ed2be08	0.41160607
162	0x3e8b6bfb	0.2723082
163	0x3f0bf616	0.5467237
164	0x3ea71b2e	0.32637924
165	0x3ead16db	0.338065
166	0x3ea01d85	0.31272522
167	0x3e0fdeb4	0.14049798
168	0x3ec187d6	0.37798947
169	0x3e3076ef	0.1723287
170	0x3e05c42a	0.13063112
171	0x3e3c0ad5	0.18363507
172	0x3ec14f00	0.37755585
173	0x3eaf0433	0.3418289
174	0x3e85c460	0.26126385
175	0x3e30b708	0.17257321
176	0x3e14c56e	0.14528438
177	0x3e6030ba	0.21893588
178	0x3dff3eeb	0.124631725
179	0x3e788c6d	0.24272318
180	0x3f14b151	0.58083063
181	0x3ed41b87	0.41427252
182	0x3ec2a6c5	0.3801786
183	0x3eaaa988	0.33332467
184	0x3e56da92	0.20981815
185	0x3dafe03b	0.085876904
186	0x3ead6315	0.33864656
187	0x3eb7a7c5	0.35870185
188	0x3e449dc2	0.19200805
189	0x3dbe652d	0.092966415
190	0x3e2610cf	0.1621735
191	0x3de28305	0.11060146
192	0x3f10ff14	0.5663922
193	0x3eb8ccab	0.3609365
194	0x3e0dfcee	0.13866016
195	0x3dcd41b0	0.100222945
196	0x3ec1e208	0.3786776
197	0x3ea989b3	0.3311287
198	0x3e82d6af	0.25554416
199	0x3e93d0b5	0.28870168
200	0x3ed7e276	0.42164963
201	0x3e8bad59	0.2728069
202	0x3e7235b9	0.23653306
203	0x3e81218e	0.25220913
204	0x3e9427a4	0.28936493
205	0x3e9e4308	0.30910516
206	0x3e9226e2	0.2854529
207	0x3e21f456	0.15815863
208	0x3ecc5b9b	0.3991364
209	0x3e50a805	0.20376594
210	0x3e50e33f	0.20399188
211	0x3df93dbc	0.12169978
212	0x3e38506e	0.17999431
213	0x3e2e5e80	0.17028236
214	0x3eb761c3	0.35816774
215	0x3ef18a98	0.4717605
216	0x3e1a892a	0.15091386
217	0x3ed0c6b2	0.40776592
218	0x3e5ef019	0.21771277
219	0x3e5ffdba	0.21874133
220	0x3e4585e1	0.19289352
221	0x3e9aed7b	0.30259308
222	0x3ea91896	0.3302657
223	0x3e6052b8	0.21906555
224	0x3e787a59	0.24265422
225	0x3e929425	0.2862865
226	0x3e9f5679	0.3112066
227	0x3e8c7290	0.27431154
228	0x3eda8f07	0.42687246
229	0x3eb76f38	0.3582704
230	0x3e5caec3	0.21551041
231	0x3e4ce4ba	0.20009127
232	0x3dbe8b57	0.09303921
233	0x3dd7aa17	0.10530489
234	0x3e34eb8a	0.17667976
235	0x3e180b1f	0.14847992
236	0x3df6db12	0.12053503
237	0x3e96b1a5	0.29432407
238	0x3e371475	0.17878897
239	0x3e69665c	0.22792953
240	0x3e66ef30	0.2255218
241	0x3e836271	0.25661042
242	0x3e8bb24e	0.27284473
243	0x3e97aae4	0.29622567
244	0x3e1415b2	0.14461401
245	0x3e8536f2	0.26018482
246	0x3dfb48a6	0.12269716
247	0x3f1518c0	0.5824089
248	0x3ea27127	0.31726953
249	0x3e8d31b2	0.27576977
250	0x3e736117	0.23767506
251	0x3ebad1ec	0.36488283
252	0x3e2572f3	0.16157131
253	0x3e8f2059	0.27954367
254	0x3e1565fd	0.14589687
255	0x3e669b45	0.22520168

network.4.weight f4 [128, 256]
0	0x3d0d80a9	0.034546528
1	0xb8a73bf0	-7.974345e-05
2	0x3c299fea	0.010353068
3	0xbcdab4f3	-0.026697611
4	0x3acb74d2	0.0015522486
5	0xbce62224	-0.028092451
6	0x3d6700c8	0.05639723
7	0x3d31e6e0	0.04343307
8	0xbc03157d	-0.008000729
9	0xbd3ca8fa	-0.046059586
10	0x3d2184c3	0.039433252
11	0x3b9ac520	0.004723206
12	0x3d3f99a6	0.04677739
13	0xbb60634b	-0.003423887
14	0x3cb291a4	0.021797962
15	0xbd4bb45d	-0.049732555
16	0x3ca05ce9	0.019575553
17	0xbd86f775	-0.065901674
18	0x3cefc4da	0.02926867
19	0xbd7986a4	-0.06091942
20	0x3d4685e4	0.04846753
21	0x3cde5f60	0.027145088
22	0xbd1f8d1c	-0.03895293
23	0xbcbf739b	-0.023370555
24	0xbc92e880	-0.01793313
25	0xbd311124	-0.043229237
26	0xbcfe496b	-0.031040868
27	0x3cb6291a	0.022236396
28	0xbd31f36c	-0.043445036
29	0x3d579780	0.052634716
30	0x3d00174d	0.03127222
31	0x3c9ce9ae	0.019154396
32	0x3c4893bc	0.012242254
33	0x3d2a3b07	0.0415602
34	0xbd932c80	-0.07186222
35	0x3b00f67c	0.0019678166
36	0xbd0f2cce	-0.03495484
37	0x3d304d14	0.043042257
38	0xbd4366bc	-0.047705397
39	0x3ce0a10c	0.027420543
40	0xbd3fff15	-0.046874125
41	0xbd71e6d5	-0.05905803
42	0xbc13047e	-0.008973239
43	0xbc821e70	-0.015883654
44	0x3c7c2816	0.015390417
45	0x3cb80ca7	0.02246697
46	0x3d7d8965	0.061898608
47	0xbd376684	-0.0447755
48	0x3c2d628a	0.010582576
49	0xbbbea92a	-0.005818506
50	0x3cc461e4	0.02397246
51	0xbd3f243a	-0.046665408
52	0xbca7f57a	-0.020502795
53	0xbc620f81	-0.013797642
54	0xbc52877f	-0.012849688
55	0xbd7205a3	-0.059087407
56	0xbb186288	-0.0023252089
57	0xbd53adcc	-0.051679417
58	0xbd445e3b	-0.047941428
59	0x3c974395	0.018464843
60	0x3d0230c9	0.031784806
61	0xbd2aa1e5	-0.0416583
62	0xbd3801d9	-0.044923637
63	0xbc27f512	-0.0102513
64	0x3d670acb	0.056406777
65	0xbd001359	-0.03126845
66	0xbc52cdba	-0.012866432
67	0xbd3747a0	-0.04474604
68	0xbd1ae3c3	-0.037814867
69	0x3d8f53ea	0.06998427
70	0x3d29779d	0.041373838
71	0xbd75afef	-0.059982236
72	0xbd51afe5	-0.051193137
73	0x3d3103a1	0.04321635
74	0x3cdc221d	0.026871735
75	0xbd06a89e	-0.03287565
76	0xbbf00f31	-0.0073260297
77	0x3a0bab40	0.00053279474
78	0x3cd4ab63	0.02596063
79	0x3bd08dbd	0.006364553
80	0x3d139bce	0.03603726
81	0xbab04022	-0.0013446847
82	0x3c972f7d	0.018455261
83	0xbc2661ae	-0.010155125
84	0x3c2fae57	0.010722718
85	0xbd8ff9d5	-0.070300736
86	0x3d077f3a	0.033080317
87	0x3d3008a4	0.04297699
88	0xbca960bb	-0.020676007
89	0x3d95de70	0.07317817
90	0xbd1cbde0	-0.038267016
91	0x3d97a1e9	0.07403929
92	0x3c686c38	0.014185958
93	0x3c0890ce	0.008335305
94	0x3cd8977c	0.02643942
95	0xbcccd7db	-0.025005272
96	0xbcad1ac3	-0.021130925
97	0xbd5bf540	-0.053700686
98	0xbcee7c1b	-0.029111912
99	0xbd28cb70	-0.041209638
100	0xbd299874	-0.041405156
101	0x3d47a1e4	0.048738375
102	0xbc664ba3	-0.014056119
103	0xbd532afe	-0.051554672
104	0xbd0512c8	-0.032488614
105	0xbd301d5c	-0.04299675
106	0xbd3ab5d8	-0.045583576
107	0xbd665d75	-0.05624147
108	0x3d42f926	0.047600888
109	0xbd09fe78	-0.033689946
110	0x3bb00aaa	0.005372365
111	0xbc6ce29b	-0.014458324
112	0xbd84766f	-0.06467902
113	0x3c6fd6c9	0.014638611
114	0x3c680dca	0.014163444
115	0xbcc96e8f	-0.024588851
116	0x3d3c29f7	0.04593846
117	0xbd6504ba	-0.05591271
118	0xbd7c6b77	-0.061625924
119	0xbc093c9c	-0.008376267
120	0xbac0a09b	-0.0014696302
121	0xbc832b48	-0.016011849
122	0x3d129c36	0.035793506
123	0x3d534039	0.05157492
124	0xbce3ee1d	-0.027823502
125	0xbcaea98b	-0.021321079
126	0xbc1fc383	-0.0097512035
127	0x3cca7294	0.024712838
128	0xbc43810d	-0.011932624
129	0x3bdf42a4	0.006813364
130	0xbcdd6d7e	-0.027029749
131	0xbd806165	-0.062685765
132	0xbb03d7e7	-0.0020117701
133	0xbd6b9397	-0.0575138
134	0x3d52c6f0	0.051459253
135	0x3d6c4b1d	0.05768882
136	0x3c6a4763	0.0142992465
137	0xbc121e25	-0.00891832
138	0xbd90951d	-0.07059691
139	0xbd4ba406	-0.04971697
140	0xbd86570f	-0.06559574
141	0xbcfc6512	-0.030809913
142	0x3d84df14	0.06487861
143	0x3bfc2236	0.007694508
144	0xbc18adb9	-0.009318762
145	0xbb385b1a	-0.0028130473
146	0xbb4a966b	-0.003091241
147	0x3c8766ad	0.016528452
148	0xbc059077	-0.008152119
149	0x3d583070	0.05278057
150	0x3d003b00	0.031306267
151	0x3d087668	0.033316046
152	0x3d327264	0.043566123
153	0xbd5fe9b0	-0.05466622
154	0xbd239771	-0.039939348
155	0x3c03919e	0.008030323
156	0xbc2ff1fe	-0.010738848
157	0xbd30980d	-0.043113757
158	0x3cc8e88b	0.024524948
159	0xbd21161b	-0.039327722
160	0x3d7547fc	0.059883103
161	0xbd66ee5c	-0.05637966
162	0xbd26ad52	-0.040692635
163	0xbc965eeb	-0.018355807
164	0xbcd81366	-0.026376437
165	0xbcaf5fc0	-0.021407962
166	0xbd816b0d	-0.063192464
167	0x3cd5a04d	0.026077414
168	0x3ce3983d	0.027782554
169	0x3bf9b365	0.0076202624
170	0x3d807227	0.06271773
171	0x3be859aa	0.007090767
172	0x3d5a14da	0.05324254
173	0x3c04c991	0.008104698
174	0xbcfe1b0d	-0.031018758
175	0x3b41da77	0.0029579678
176	0x3c891269	0.016732411
177	0x3cf342b4	0.029694892
178	0x3d5c1fa9	0.05374113
179	0xbce188c3	-0.027531033
180	0x3d496a31	0.049173538
181	0x3d80b392	0.0628425
182	0xbc0f995b	-0.00876459
183	0x3ccdbe4a	0.025115151
184	0x3d40e504	0.047093406
185	0xbd90706a	-0.07052691
186	0xbd055aba	-0.032557227
187	0x3d54ca21	0.051950578
188	0xbd81797a	-0.06321998
189	0x3cb6157a	0.022227038
190	0xbd6d59ae	-0.057946853
191	0xbd3b6526	-0.04575076
192	0x3d2687cf	0.04065686
193	0x3cfcea35	0.030873397
194	0x3b53c325	0.003231236
195	0x3d69a95d	0.057046283
196	0x3bdefddf	0.006805166
197	0x3d31c481	0.04340029
198	0x3d460236	0.048341952
199	0xbcfc8742	-0.030826215
200	0xbd838e23	-0.06423595
201	0xbd06f480	-0.032948017
202	0x3b98b614	0.0046603773
203	0x3ccdece3	0.02513737
204	0x3cab2e7d	0.02089619
205	0xbcb6bc69	-0.022306638
206	0x3d8d66c4	0.069043666
207	0xba8b7df7	-0.0010642399
208	0x3c188aa5	0.009310399
209	0x3d7b2f80	0.061324596
210	0xbc2934ac	-0.010327499
211	0x3bf114ad	0.007357201
212	0xbccd35ac	-0.025050007
213	0xbd477d10	-0.048703253
214	0xbacb42da	-0.0015507594
215	0xbc81bfbb	-0.015838495
216	0x3b2decc3	0.0026538826
217	0xbbdd8155	-0.0067598023
218	0x3d41c1fc	0.04730414
219	0x3c64b013	0.013957995
220	0x3c9d8947	0.019230498
221	0x3c35ceeb	0.011096696
222	0x3cde5c6d	0.027143681
223	0xbd635730	-0.05550307
224	0xbd1ac57d	-0.037785996
225	0xbd8b1fa3	-0.067931436
226	0x3b831410	0.0040001944
227	0x3b091535	0.0020917181
228	0x3d670c47	0.056408193
229	0x3d75ea40	0.06003785
230	0x3b73079f	0.00370834
231	0xbd200e37	-0.039076056
232	0xbd1de5f9	-0.038549397
233	0x3b0dbad0	0.0021626242
234	0xbb85da2c	-0.004084846
235	0x3d14b336	0.03630372
236	0xbd3887d4	-0.04505141
237	0x3d38c8f8	0.045113534
238	0x3d8a882c	0.06764254
239	0xbc6a37d9	-0.014295542
240	0x3d88575a	0.06657286
241	0xbccee6bf	-0.025256513
242	0x3b0adaaf	0.0021187474
243	0x3d2ad74d	0.041709233
244	0x3b4719eb	0.0030380439
245	0xbd7fb4be	-0.06242823
246	0xba520087	-0.0008010943
247	0x3d51a68d	0.051184226
248	0x3c0ae805	0.008478169
249	0xbd818a5f	-0.0632522
250	0xbd809ead	-0.06280265
251	0xbd4ff012	-0.05076606
252	0xbd560f5b	-0.052260738
253	0xbc7e24bc	-0.015511688
254	0x3d005c57	0.031338062
255	0xbcb6477d	-0.022250885
