models/5s30s_next_day_mlp_fold2.pth (torch, 475164 bytes, 19 tensors)

network.0.weight f4 [256, 287]
00000000: d80b d13c 3ec0 313d 9e4d 6dbc 9a27 633c
00000010: 2a94 afbc f19e 2b3d b4fe cc3c 4d2c 33bb
00000020: 52c9 3dbb 2a68 98bc d081 02bc 1157 273d
00000030: f111 17bd 6124 323d f398 be3c ae52 3bbb
00000040: f95a 783c 9700 27bd 3bd6 473d 26d4 33bc
00000050: 10a2 b1bc c147 993c b1ee a23c 7e37 babc
00000060: ee32 04bd f4d1 77bc c267 093d f4f0 ea3b
00000070: dd52 42bb 329f 263d d251 a13b 5b57 07bd
00000080: 0432 be3c fe72 67bc 78b3 1dbd 5c81 e9bc
00000090: ff29 25bd 8b5e 92bc 42f0 e8bb 9495 25bd
000000a0: abf4 a93b d563 2c3d 12cc 54bd 04b9 13bd
000000b0: 0a21 4dbd 30e3 c43c d095 033c 22cc 073d
000000c0: 4198 363c 3173 74bd 88da 70bc 9085 553b
000000d0: 3686 873a ba41 8ebb 4366 5cbd f1ec aa3c
000000e0: ae22 26bd d2a1 883d 31f6 11bd e4a2 613c
000000f0: a7fe 16bd 3ae5 23bc 9490 573d cfa4 013d
00000100: 2098 0b3d 3875 67bd 78ec 48bd 00eb f93c
00000110: 61bb 5ebd 059c 753d 2ac0 423d c38d 2fbd
00000120: 32b7 033d 53ec 67bd a283 313d 7745 2abd
00000130: b15f 893c 4973 69bd 22a6 28bb b2f2 4b3d
00000140: ca42 44bd 4de9 a83b d533 5fbd 51ab 52bb
00000150: 6b72 ab3c ac73 3a3d 6da8 903c 56dd 3ebc
00000160: f346 5d3d 1d2e 403d d8ac 33bd a454 e639
00000170: ebc1 143a a01a 923b c547 213d 1549 55bd
00000180: bad9 b33b 62f2 473d 0a08 a4bc 3874 533d
00000190: 68ac 23bd d0f7 df3c ca24 8abc 00be 5bbd
000001a0: d8ad 1dbd cba8 393d 166b ef3b ff3a 45bd
000001b0: 4ec8 86bd 49a8 aebc f0c1 3ebc 3c9f 4fbd
000001c0: d7bc b13c f9e9 53bd e89c d4bc f758 3b3d
000001d0: 167e e03b c94e e53b 0fe0 38bd eca1 a73c
000001e0: 6a1e 363d 48ae c6bc 49e0 383c 5f3c 193d
000001f0: 7e67 fd3c 2218 683c e055 2d3d b4f0 3fbd
00000200: 5bed fd3c 8d38 763d 4ae9 563d ce8c 1dbd
00000210: 5599 283d 7907 e4bc 8779 b9bc 39a1 03bd
00000220: 9add 14bd 3f4c 3dbd 3600 d3bc b8f6 57bd
00000230: f9f9 973c 2f4c 54bc 3d00 09bc 338d 473c
00000240: 6585 d5bc f82a ff3a 3a75 ecba 5985 fb3c
00000250: 327a 7f3c 6c0f 27bc 7721 c8bc be94 323d
00000260: 2186 f83c 93ff b83a 27af abbc 7472 0b3d
00000270: 6ce9 5dbc af7f dd3b b1dc 003d fcc9 5fbc
00000280: 9887 373d a228 063d e48d a03b 29d8 5abd
00000290: 3435 043c aec1 48bd f07b 873a 63b6 18bd
000002a0: 6cd4 85bc 19fb 053d 8ab4 4fbd a45c e43b
000002b0: 13d9 97bc 160e 93bc 2a75 0e3d 299d 20bd
000002c0: 8fce 453d e969 423d da98 5ebd b011 fdbb
000002d0: d823 383d 41df 303d 4ca0 bdbb 0a81 3d3d
000002e0: 9335 d6ba ad9a 86bd 19f7 23bd 2513 e1bc
000002f0: c52e b73c b549 dc3c d0a7 19bd 842b 853c
00000300: 506f 1abd 63c9 c73a 1981 f53c 7e65 39bc
00000310: 5905 67bd 8af8 403c d8e9 c1bc 8b52 a43c
00000320: 2068 4cbd 3bf3 773c 9bec ff3b 1c56 a63c
00000330: 3da7 4f3d 1d19 88bc 84e9 61bd 956e 163c
00000340: f147 1f3d 9188 2e3d 5e62 1cbd 4a7d 8a3c
00000350: 753c 3a3d 0ac5 5dbd 47a4 313d 0c02 93bc
00000360: bcdf 753d 5e56 1b3b f124 c4bc 5573 63bd
00000370: 673a cd3b d105 a83c f5ac a13b 9426 393d
00000380: 32a5 4a3d e00e e93c bc13 18bd f491 583d
00000390: 7973 0ebd de10 dcbc 8287 ce3c 39c4 153d
000003a0: a690 243d 7277 7fbd 9b55 303c 342a 0abd
000003b0: f1bc 343d f710 793c 64a2 3a3d 7103 033d
000003c0: 2267 aabc c6a2 f9b9 0f83 6e3c 0a80 2bbd
000003d0: e063 be3c c5a4 a73c 8468 afbc e9b8 4bbb
000003e0: 58df 9c3c ce41 0abc 5fd7 13bd f8e3 68bb
000003f0: a9d6 8cbb b3ab babb 0f48 323d a1ee d93c
0.025518343 0.043396227 -0.014483837 0.013864422 -0.021432955 0.041899625 0.025023796 -0.0027339638
-0.0028959108 -0.018604357 -0.00796552 0.040854517 -0.036882345 0.043491725 0.023266291 -0.0028583216
0.015158408 -0.040772047 0.04878829 -0.010975873 -0.021683723 0.018710973 0.019889208 -0.022731539
-0.032275133 -0.01512574 0.033546217 0.007169837 -0.002965144 0.040679164 0.004923084 -0.033042293
0.023217209 -0.014126537 -0.038501233 -0.028504066 -0.040323254 -0.017867347 -0.007108719 -0.040425852
0.0051866374 0.042087395 -0.05195243 -0.036065117 -0.050080337 0.024034113 0.008031324 0.03315366
0.011144699 -0.059680168 -0.014700539 0.003258083 0.0010339681 -0.0043413313 -0.053808462 0.020864936
-0.040560417 0.0667149 -0.035635177 0.013771746 -0.03686395 -0.010003382 0.052628115 0.031651314
0.034080625 -0.056508273 -0.04905364 0.030507565 -0.054377917 0.059963245 0.047546543 -0.042859804
0.03215713 -0.05662186 0.043338425 -0.041570153 0.016769262 -0.05699471 -0.0025733788 0.049792
-0.047915258 0.0051547647 -0.05449279 -0.003214557 0.020928582 0.04552047 0.017658437 -0.01164945
0.05402274 0.046918977 -0.04386601 0.0004393208 0.0005674648 0.0044587404 0.039375085 -0.05207165
0.0054886015 0.04881514 -0.020023365 0.051624507 -0.03995934 0.027339846 -0.016863246 -0.053647995
-0.03849587 0.04532699 0.007306467 -0.048151966 -0.06581174 -0.021320479 -0.011642918 -0.050688967
0.021696491 -0.051736806 -0.025953725 0.04573914 0.006850968 0.0069979173 -0.045135554 0.020462953
0.0444626 -0.024253026 0.0112839425 0.03741109 0.030933138 0.01416591 0.042318225 -0.04686041
0.030996969 0.060112525 0.052468576 -0.03846436 0.041161854 -0.027835594 -0.022640957 -0.032136176
-0.03634415 -0.046215292 -0.025756937 -0.052725524 0.018551813 -0.012957617 -0.008361873 0.012179661
-0.026064584 0.0019467762 -0.0018040307 0.030703234 0.0155930985 -0.010196548 -0.02443002 0.043598883
0.030337395 0.0014114253 -0.020957543 0.034044698 -0.013544422 0.006759606 0.031460468 -0.013658997
0.044807047 0.032753594 0.004899727 -0.053428803 0.008069325 -0.049012832 0.0010336619 -0.037283313
-0.016336642 0.03271017 -0.050709285 0.0069690514 -0.018536126 -0.017951053 0.034779705 -0.03921238
0.048292693 0.047464285 -0.05434499 -0.007723056 0.04495606 0.04318166 -0.005786931 0.04626564
-0.0016342871 -0.06572471 -0.040030573 -0.02747495 0.022361169 0.026890615 -0.037513554 0.016256101
-0.037703812 0.0015242513 0.029968785 -0.0113157015 -0.056401584 0.011778006 -0.023671076 0.02005889
-0.04990399 0.015133674 0.007810188 0.020304732 0.0506966 -0.016613537 -0.05515434 0.009181638
0.038886968 0.04261071 -0.038179748 0.016905446 0.045467813 -0.05414299 0.043369558 -0.017945312
0.060027823 0.0023702602 -0.023943396 -0.05552991 0.0062630656 0.020510586 0.004933948 0.045202807
0.04947395 0.028449476 -0.037128195 0.052873567 -0.034778092 -0.026863512 0.0252111 0.036564086
0.04017701 -0.06236977 0.010762597 -0.033731654 0.0441255 0.015201799 0.045565024 0.031985704
-0.02080113 -0.00047614257 0.014557614 -0.041870154 0.023240983 0.02046431 -0.021412142 -0.0031085557
0.019149467 -0.008438541 -0.036094066 -0.003553627 -0.0042980504 -0.0056967377 0.04352575 0.026603045

network.0.bias f4 [256]
00000000: 4775 433d 0a6c 953c 9cd1 423d e279 963c
00000010: a08e 4fbd d4b6 c3ba 10aa 4d3d 0716 153a
00000020: 9ca1 1f3b b13f 7f3d 0dc6 02bd 66ce 833c
00000030: a02e 43bc 5f5d e63c 07c5 ac3b d96b d23c
00000040: 06dd 09bd f5a6 59bd 7fd7 a03d 1c15 17bd
00000050: 6992 99bc a0d0 723d 59aa 4abd 58a2 c2bc
00000060: 8000 3bbd 02a3 f63c 1660 123d 750a d23c
00000070: 7aa7 6d3d d422 6e3b 67a5 35bd 1c12 0fbd
00000080: dee4 a9bc f8f2 2ebd 89bd e3bc bd55 83bc
00000090: 9fd3 08bd db52 44bd e5f3 5abc 027e 553d
000000a0: f540 b5bc cc61 813c b697 81bd eedd e43c
000000b0: 9d1a 293d fe44 32bd c313 21bd 2759 05bc
000000c0: 9341 2cbd a25a 15bd 920f e1bc 9998 6abd
000000d0: aa3d 29bd 074e 3a3d dcd3 283d cda7 423d
000000e0: 2e0b 913c 1f00 253d 29c1 e3bc 50ff 8bbc
000000f0: 0cd1 7cbb 1e83 cf3c 1a87 2fbc 6626 7abd
00000100: d0a5 f03c 8ed5 73bd 5c3f 513d 5106 d2bc
00000110: 0bd9 403b 0c5a a2bc 1d9b 513d bd20 6abc
00000120: c177 c03b 8dad 2a3b 4485 443c 4776 2e3d
00000130: c6cf 1abd 1884 3abd 0ada 09bd 39c2 09bd
00000140: 9285 81bc d9c1 25bd af67 66bd 09b5 e93c
00000150: 5edc 8a3c 2020 4a3d 419f 2dbc 1948 52bd
00000160: 5221 24bc aba9 6cbc e335 573c a618 42bd
00000170: a692 51bd f733 e23c 4f6d cebc 6775 e53c
00000180: e7ec 603c f16b 3bbc e403 edba e268 d53c
00000190: 1f11 d5bb b6a9 28bd 9d7d a8ba 3818 4a3d
000001a0: ab71 ecbc e5d5 213c 32cd b03c 1408 93bc
000001b0: 11f8 83ba 44a7 cd3c 30ca b03c 8fe4 113b
000001c0: 2603 0bbd 4015 cdbb 55b6 aabc 2852 203d
000001d0: a117 a6bc 6853 26bd 097c 273d 49d4 f4bc
000001e0: 2bc1 5b3c 3a2f 23bd de62 9abc 6b95 5ebd
000001f0: b935 45bd fb78 603d b594 7e3b f755 6f3b
00000200: e309 67bd dc10 22bd eee8 d33c 4cf1 543d
00000210: fec9 f7bc e507 0d3d ba5a 39bd 50fa 563d
00000220: 7281 073d e658 69bd e099 60bd 59c7 6fbd
00000230: 797f aebc 1845 45bd 00cb 0bbc e801 0b3d
00000240: 91b8 233d 2bd6 643d 2fb6 d93a c998 513d
00000250: 7f22 2fbd 8026 9d3c 3a83 9bbc 8277 0cb8
00000260: 60bf a4bb 59e8 09bd 3a3e f33c c1d7 fbbc
00000270: 6264 24bd eefa c2bc b9c9 f9ba 4fc6 97bc
00000280: 57b4 e23c 40bd 18bc b6f4 3bbd 000f 2cbd
00000290: d885 76bd 345c a13c ddc5 31bd 954b c83b
000002a0: 8224 b3bc 41d6 f6bc 91e4 dfbc 19d0 153d
000002b0: d4e9 89bc 2518 9cbc 7d6a 8bbd 842e 2fbd
000002c0: 58e6 18bc f5bb f53c 4234 a83c 6f89 383b
000002d0: c2d0 4c3d 818a 1a3d c6a5 b5bc 06e2 a9bc
000002e0: 31ca 43bd 51b8 4239 a66e 103d df7c 31bd
000002f0: fc7f ddbb f2c3 dbbb 3dc7 e9bc c677 31bd
00000300: 1333 22bd d024 233d c19b 0d3d 5a50 933c
00000310: 262a dbbb 3852 2f3b d624 143d 0437 26bd
00000320: 4fb3 633d 3755 113d 9742 7e3c 67ec 29bd
00000330: a7c1 df3c 4c1d 213d f0b1 513c 65cd a8bb
00000340: 6f11 43bd e37f aabc a201 843c 9323 443d
00000350: c3e5 063d 63f5 5b3b bd28 9cba 8a5d 543d
00000360: df82 cfbc 5899 35bd 4203 f7bb 8891 96bc
00000370: df31 08bd a658 99bc a961 883d d4d3 27bd
00000380: bc78 7ebd 0eff a4bb 2719 cebc 1858 5bbc
00000390: 6b09 053d bfa0 4c3d 6356 253d b5d1 5abd
000003a0: e355 b0bb 6a3d 773d 6fcb 86bc 1034 f9bc
000003b0: 2676 2b3a 842c 1ebc 2394 9f3c b244 01bc
000003c0: 0fc0 5e3d 7649 233d 192b 2c3c 22bc ce3c
000003d0: f3db 443d 9c14 b2bc b47e 2abb 24c3 853d
000003e0: 46f3 7c3c dbaa 5a3d cdcf 103d dd6c 3d3d
000003f0: b10b 543c bc20 683c c4d6 88bb e2c6 47bc
0.047719266 0.018239994 0.04756318 0.018368665 -0.050673127 -0.0014931806 0.050211012 0.0005687181
0.0024357801 0.0623166 -0.031927157 0.01608963 -0.011912972 0.028120695 0.005272511 0.025686191
-0.03365805 -0.05313774 0.078536026 -0.036885366 -0.018746572 0.05928099 -0.049478862 -0.023759052
-0.045654774 0.030107025 0.035736166 0.025639752 0.058021046 0.0036336677 -0.044347193 -0.03492938
-0.020739015 -0.04271218 -0.027800338 -0.016032094 -0.033404943 -0.04793058 -0.013363813 0.052122124
-0.0221257 0.015793703 -0.06327765 0.027937856 0.041285146 -0.043522827 -0.039325487 -0.008138931
-0.042054724 -0.036463387 -0.027473245 -0.057274435 -0.041318573 0.04548457 0.04121767 0.04752331
0.017705526 0.04028332 -0.027802067 -0.017089516 -0.003857675 0.025331076 -0.010713363 -0.061071776
0.02937594 -0.059529833 0.051085815 -0.025637778 0.0029426243 -0.019818328 0.05117332 -0.014290032
0.005873651 0.0026043386 0.011994664 0.042593267 -0.037795804 -0.04553613 -0.033655204 -0.03363249
-0.015810762 -0.04046807 -0.056251224 0.028528707 0.016950782 0.049347043 -0.010597051 -0.05133829
-0.01001771 -0.014444749 0.013135406 -0.047386788 -0.051165245 0.02761267 -0.025198607 0.028010083
0.013728357 -0.011439309 -0.0018082825 0.026050989 -0.006502285 -0.041177474 -0.0012854818 0.049339503
-0.028862795 0.009877657 0.02158222 -0.017948188 -0.0010068436 0.025104173 0.021580786 0.0022261476
-0.03393855 -0.0062586367 -0.020838896 0.03914085 -0.020274939 -0.040606886 0.040889774 -0.029886382
0.013412754 -0.03983996 -0.018845972 -0.054341715 -0.048146937 0.054802876 0.003884596 0.0036519745
-0.056405913 -0.03956686 0.025867905 0.05198793 -0.030247685 0.034431357 -0.04525254 0.05248481
0.033082433 -0.056969546 -0.054834247 -0.058539722 -0.021301018 -0.048161596 -0.008532286 0.033937365
0.039970938 0.05586831 0.0016610081 0.051171098 -0.042757507 0.019183397 -0.018983472 -3.34899e-05
-0.0050276965 -0.03366885 0.029692758 -0.030742528 -0.040134795 -0.023801293 -0.001905731 -0.018527178
0.027673883 -0.0093224645 -0.04588767 -0.042006493 -0.060186237 0.019697286 -0.043401588 0.0061125257
-0.021867994 -0.030131461 -0.027330669 0.03657541 -0.01683513 -0.019054482 -0.068074204 -0.04276897
-0.009332262 0.029996851 0.020532731 0.0028158089 0.050003774 0.037729744 -0.022173773 -0.02073766
-0.047800247 0.00018569945 0.035261773 -0.043331977 -0.0067596417 -0.006706708 -0.028537387 -0.043327115
-0.03959949 0.03983003 0.034572367 0.01798265 -0.006688374 0.0026751887 0.036167942 -0.04057981
0.055590924 0.035481658 0.015518806 -0.041485216 0.02731402 0.03933458 0.012798771 -0.005151438
-0.047624048 -0.020812934 0.01611406 0.04788549 0.03293396 0.003356301 -0.0011913996 0.05184702
-0.025330959 -0.044335693 -0.00753823 -0.018379942 -0.033250686 -0.018719029 0.06659252 -0.0409735
-0.06212686 -0.0050352877 -0.025158478 -0.013387702 0.032479685 0.049957987 0.040365588 -0.05342265
-0.0053813322 0.060361303 -0.016454427 -0.030420333 0.0006540738 -0.009654168 0.019479817 -0.007889913
0.05438238 0.03986498 0.010508322 0.025236193 0.048061322 -0.021738343 -0.0026015462 0.06531361
0.01543886 0.053385597 0.035354424 0.0462464 0.012942241 0.014167961 -0.0041759927 -0.012193413

network.2.weight f4 [256]
00000000: af83 813f b680 7e3f e01d 7b3f e310 803f
00000010: a2d2 7a3f 1bd2 803f e290 813f bfde 7e3f
00000020: d112 813f e37a 7c3f 423d 803f 0d7d 7f3f
00000030: 8099 833f ea62 7b3f 55ba 7f3f 44dd 803f
00000040: 334e 813f b093 7d3f e465 803f b9ab 7f3f
00000050: f1e9 7c3f 1889 7e3f 060c 803f fc56 7c3f
00000060: dd10 7f3f 9fc3 813f 90f3 7c3f ee06 7f3f
00000070: 4dd3 813f 921d 803f d8b5 813f 06bb 803f
00000080: 5343 813f 6a2e 7f3f 9bdb 7f3f 9d8e 813f
00000090: 1a04 833f 4cb4 803f b6e4 7e3f 9396 823f
000000a0: ea77 813f d17d 7f3f e87c 7e3f 2789 7c3f
000000b0: c3e2 803f cdba 813f 0083 7f3f f98a 7e3f
000000c0: 092d 823f c85f 803f 44fe 7e3f 360a 7f3f
000000d0: 9c49 813f 171c 7c3f 733b 803f 0193 7f3f
000000e0: ad2b 7d3f b710 7e3f c676 7a3f 8915 7f3f
000000f0: 65bc 7d3f 414d 803f 0178 833f 6592 7f3f
00000100: c135 7e3f b5a7 7f3f aa2a 803f 3819 803f
00000110: d09d 803f c8eb 7d3f 4a61 7f3f 6a75 7e3f
00000120: 17ac 7d3f 9b98 803f 3101 803f 8080 7d3f
00000130: 16a3 7e3f 0145 7d3f 84a5 803f c8da 7d3f
00000140: 94c1 823f 782c 7d3f 2d8b 803f dbb0 803f
00000150: 43ff 7f3f b24b 803f eca0 833f 3b42 7c3f
00000160: b6b1 7f3f 565b 7e3f 39f4 7c3f 60bb 823f
00000170: de1d 803f a3de 803f d1cd 803f b12f 7d3f
00000180: 501d 7c3f a19d 7c3f 5a3a 813f 868d 7d3f
00000190: 2667 7b3f a7f0 7f3f 7b00 7d3f f5b7 803f
000001a0: cfa5 803f af84 7d3f 1a0d 803f 10a3 7e3f
000001b0: 3112 7d3f 49de 803f 5f0d 813f 6514 7d3f
000001c0: b963 833f 6273 7b3f 835f 803f 58d7 7b3f
000001d0: fc39 803f 8422 7e3f 8f85 7e3f 4791 803f
000001e0: 0a45 7f3f 0252 803f 16e8 7f3f 34d3 7d3f
000001f0: 06c5 7f3f ec00 813f 3b3b 7e3f 898e 803f
00000200: 8c67 803f bb59 813f 2d0d 813f 4afc 813f
00000210: ba78 803f 1a02 813f 0c73 7e3f 2478 7d3f
00000220: 82c4 7d3f dd2d 7f3f 7fb8 7e3f 1873 803f
00000230: da5c 7d3f 3d14 803f fb71 813f edd3 7e3f
00000240: 505b 7f3f 0358 7f3f 0bbc 813f 77ac 803f
00000250: 1078 7f3f 51f5 7e3f 5fe0 7f3f 82da 813f
00000260: 9e6c 813f a330 7f3f 66e5 7b3f 5e4a 7f3f
00000270: 707a 7f3f 9248 7d3f 8491 7f3f 5cbf 7c3f
00000280: fd13 803f b546 813f 8c14 7e3f 21a0 803f
00000290: 5400 813f 9294 823f 4be1 803f 3980 813f
000002a0: fbce 7e3f 545f 803f 95cb 7d3f 800b 803f
000002b0: 3668 7f3f 7d81 833f b5c1 7b3f e406 7e3f
000002c0: 172a 7d3f 9ae8 823f 8990 803f 2dfa 823f
000002d0: 0c9e 7a3f f193 813f 1e03 803f 7d6b 7f3f
000002e0: 8667 813f 85ff 7d3f c217 7c3f cc50 813f
000002f0: 1ca6 803f d562 803f f668 7c3f ecfd 783f
00000300: c06b 803f eb58 793f bacb 7e3f 8617 7c3f
00000310: 7a35 803f 2c7f 7d3f 5f1e 7e3f 6a05 813f
00000320: 5bee 7c3f 6e94 803f acbd 7e3f a9c2 7e3f
00000330: e2b1 803f 539b 7c3f 9d55 803f 17a0 7d3f
00000340: b5db 803f 2257 803f 970f 7e3f 3798 813f
00000350: 5191 803f 9346 803f 3012 833f 9778 813f
00000360: 9d2c 803f d1aa 803f ee97 833f 0615 803f
00000370: 61c0 7f3f ee75 7f3f 9a28 7c3f 5c48 7d3f
00000380: 65b1 7f3f 8d28 803f df98 7f3f 45bc 803f
00000390: d58f 7d3f 8c63 803f 7a72 7e3f 0f93 813f
000003a0: 6dbf 7f3f 9cb0 7e3f d09a 823f 3309 803f
000003b0: 121d 813f 1b0b 7e3f 4ca9 7c3f ed15 7d3f
000003c0: b1b3 7f3f 71f6 7d3f 1322 803f 1094 803f
000003d0: a0c4 7d3f 74f1 813f f2e8 7d3f 7466 813f
000003e0: 12fd 803f 4044 833f 335a 803f 37b7 7d3f
000003f0: 33a9 813f 8eb8 7f3f d071 7b3f 5b16 7c3f
1.0118312 0.9941515 0.9809246 1.0005153 0.9797765 1.0064119 1.012234 0.99558634
1.0083867 0.9862501 1.0018694 0.9980019 1.028122 0.98197806 0.99893695 1.0067525
1.010199 0.9905348 1.0031095 0.998714 0.98794466 0.9942794 1.0003669 0.9857023
0.99635106 1.0137824 0.98809147 0.9961995 1.0142609 1.0009024 1.0133619 1.0057075
1.0098671 0.996802 0.99944466 1.0121647 1.0235627 1.0055022 0.99567735 1.0202202
1.011472 0.99801356 0.9940934 0.9864678 1.0069202 1.0135132 0.99809265 0.99430805
1.0169994 1.002923 0.9960673 0.99624956 1.0100589 0.9848036 1.0018142 0.99833685
0.9889477 0.99244255 0.97837484 0.99642235 0.9911559 1.0023576 1.0270997 0.99832755
0.9930077 0.99865276 1.001302 1.0007696 1.004816 0.991879 0.99757826 0.9939791
0.99090713 1.0046571 1.0000364 0.990242 0.994676 0.98933417 1.0050511 0.9916196
1.0215325 0.9889598 1.0042473 1.0053972 0.99998873 1.00231 1.0283484 0.9853856
0.9988054 0.9935812 0.98810154 1.0213432 1.0009115 1.0067943 1.006281 0.98900896
0.9848223 0.9867802 1.0095932 0.9904407 0.9820427 0.9997658 0.9882886 1.0056139
1.0050601 0.99030584 1.0003998 0.99467564 0.9885588 1.0067836 1.0082206 0.98859245
1.0264808 0.98222935 1.0029148 0.98375463 1.0017695 0.99271417 0.99422544 1.0044335
0.9971472 1.0025027 0.9996351 0.99150395 0.9991001 1.0078406 0.9930913 1.0043498
1.00316 1.0105509 1.0082146 1.0155118 1.0036843 1.0078766 0.993943 0.99011445
0.9912797 0.99679357 0.9950027 1.0035124 0.98969805 1.0006176 1.0112909 0.99542123
0.99748707 0.9974367 1.0135511 1.0052632 0.99792576 0.99593073 0.9995174 1.0144808
1.0111272 0.9968359 0.9839691 0.9972285 0.997962 0.9893886 0.99831414 0.9872949
1.00061 1.0099703 0.992501 1.0048867 1.0078225 1.020159 1.0068754 1.0117255
0.9953458 1.0029092 0.99138767 1.000351 0.9976839 1.0273892 0.9834245 0.99229264
0.9889235 1.0227234 1.0044109 1.0232598 0.9789741 1.0123273 1.0000951 0.9977339
1.0109718 0.99218017 0.9847375 1.0102782 1.0050693 1.0030161 0.9859766 0.97262454
1.0032883 0.97401303 0.9952961 0.98473394 1.001632 0.99022174 0.9926509 1.0079777
0.988012 1.0045297 0.99508166 0.9951578 1.0054286 0.98674506 1.0026127 0.990724
1.0067049 1.0026591 0.9924254 1.0124577 1.0044347 1.0021538 1.0239925 1.0114926
1.0013615 1.0052129 1.028074 1.0006416 0.9990292 0.9978932 0.98499453 0.98938537
0.9988006 1.0012375 0.9984264 1.0057455 0.99047595 1.0030379 0.9939343 1.0123004
0.9990147 0.99488235 1.0203495 1.0002807 1.0086997 0.99235696 0.98695827 0.9886158
0.9988356 0.99204165 1.0010399 1.0045185 0.9912815 1.0151811 0.9918357 1.0109391
1.0077231 1.0255203 1.0027527 0.9910769 1.012976 0.99890983 0.9822054 0.9847161

network.2.bias f4 [256]
00000000: 1a44 14bc 7f6a abba 9a0f 0cba 7765 8ebc
00000010: 576d d5bc 25cc bb3b 62b9 1fbc 4947 ebba
00000020: 9e56 c83b b097 51bc f197 763b 40e9 a53b
00000030: bac8 073c 7cb0 453c fe9e 4fbb 34cc 40bc
00000040: 567e 87bb 832a 513b 6f16 7bbc d19e 503c
00000050: 4843 7a3b df4e 043c ff65 a3bb daa4 91bb
00000060: e5c1 233c 79df 27bc 5e6b 34bb 547d 2ebc
00000070: 31bc a03b 6a1f 1abc 007b df3b 5dce 9bba
00000080: dc9f 34bc 17ef 83bc b4ce d93b d825 97bc
00000090: 9bd1 183c d96c 3b3b 8a52 9cbb 664a e33b
000000a0: f3f7 213c 1bf3 37bc d158 343b 49bc 953c
000000b0: 8a4f 55bb f5ea 7e3b cbba 81b9 7b11 283c
000000c0: c0a9 bd3b 4c32 3a3c 8858 cf3b d86c 4a3b
000000d0: f7cb 65bc a3c3 cabb a130 03bb f5b8 8ebc
000000e0: d852 b93b dc52 26bc 5a4c 3bbb 5674 5e3b
000000f0: c361 663b f850 a13a 3de6 c33b 3220 c83b
00000100: 628a 1f3c f0b8 f7b8 83dc 8dba ca70 8fba
00000110: eace 02bc 8c67 a23b 8e8c e43b 0a47 1abc
00000120: a48c 213c b0fa ccba 4b82 693c f655 043b
00000130: 1e73 18bb 1e95 2eba e866 d13b d5b7 0b3c
00000140: 258e 6ab7 9a29 7ebc 8aee 1c3b 26a5 8f39
00000150: 855c a0ba 0c94 21bc 906b 0a3b 38b1 153c
00000160: 0892 55bb 5c6a dd3b 893f 5fbc 6514 0dbc
00000170: 095a 9ebc 4beb c83a d1d5 333c eeab 11bc
00000180: 1375 233c 08e7 4dba c69a b63b 4278 6c3a
00000190: 557e c0bb 46fa 37bc 5354 06ba 17d1 46bc
000001a0: 6ea9 463c 146d bc3b ad6f 93ba 4837 8cbb
000001b0: b232 9fbb ac99 44b9 7e8f a43b 8471 b33a
000001c0: 11d0 e33b ecc8 433c 5778 53bc a869 34bc
000001d0: 4fa3 cebb b559 9f3b e346 9c3b 7287 9c3c
000001e0: e56c 51bc 941b e539 e585 b83b d70e b73a
000001f0: b434 a33c 92bd 0dbc cef9 db3b f361 74bc
00000200: ffee 60ba 668d 723c b3e2 01bc 56af 563c
00000210: 87da a83c 0be3 da3b 260e 4dbc 8b4a cf3b
00000220: 4c6e d8bb ad2d 64bb ec0d 483c e7f7 9b3c
00000230: 8a03 b03b 7996 03bb 5ca7 823c 579e dcbb
00000240: 7e1e 45bc fb6e 94bc 1ed8 67bb 8055 733c
00000250: 5e6d 0dbb 45d0 2bbc 02bd 353c ab20 033b
00000260: b926 ee3c c879 eabb e956 78bc a7ef 96bb
00000270: 11bf 963b 415a 803c 407f 67ba 62f1 e6bb
00000280: fd5f 5b3b 975b 09bc 3ff2 0fbb 9a3b 613c
00000290: e240 d03b 7234 06bc 4379 4bbc 0914 a83b
000002a0: beea 463c 6dfe 583c f51c 71bc fc00 7f3b
000002b0: 8ab7 9e3b e561 1b3c ae1a f53b 0bff bfbb
000002c0: 2d66 163c dcf1 663b 773c 64bb bc01 b1bb
000002d0: 72b1 1b3b 0a11 cf3a 2534 193b 78a3 c4bb
000002e0: 6b76 93bc d8c3 f93b 1ffc feb7 87c0 1a3b
000002f0: 701b 8cbb 9113 9f3c 8948 8fbc 9c2f 94bc
00000300: fd11 05bb 8107 9b3a 4fba 9c3b 3f85 49bc
00000310: 1907 c23b 555a 15ba b900 d7bb bb81 7c3b
00000320: a53e 1cbb 4fa2 3a3c 2eaa 16bc 9c85 a23c
00000330: 02bb 1d3c b9d9 813c cff1 1c3c 856f b23c
00000340: 8dba a63b 05c6 853c 7db3 6bbb b460 243c
00000350: 934c 29bb b77a ccbc 9f00 7fbb 3a11 ba3b
00000360: 7ec9 0ebb af4a 9c3b 8c63 0a3b ef67 8b3c
00000370: 38d6 223c 2531 6abc 2755 a43b 3457 7fbb
00000380: 3e6a 2ebb a409 7b3b 925a 383c e5c7 343c
00000390: 890e abbb 8148 dabb 3738 713c 96f4 20bb
000003a0: 8cd3 60bc 6109 0f3b bc35 ae3b 432e 5c3c
000003b0: 5066 23bc c54c 353c 5717 bc3a 0612 083b
000003c0: 9911 9cba 6b6a 66ba 6896 ecbb c7bb 7d3b
000003d0: 0c30 663b bc27 64bc 6626 96bb 3895 543c
000003e0: c9e7 c23a 2ae4 04bb 8aa1 97ba d9d6 403c
000003f0: 0a52 abbb 327d 3fbc f7fb 1d3b bd08 e6bb
-0.00904944 -0.0013078003 -0.0005342901 -0.017382367 -0.026053114 0.005731123 -0.009748789 -0.0017950322
0.006113841 -0.012792513 0.0037627185 0.005063206 0.008287603 0.012066003 -0.003168046 -0.011767436
-0.0041349335 0.0031916208 -0.015325173 0.012733177 0.0038187075 0.008075445 -0.004986524 -0.0044447007
0.0099949585 -0.010246151 -0.0027529816 -0.010649998 0.0049052467 -0.009406904 0.0068200827 -0.0011887063
-0.011024442 -0.016105218 0.0066469554 -0.018450662 0.009327318 0.0028598814 -0.0047705816 0.006936359
0.009885776 -0.011227394 0.002751876 0.018278258 -0.003254863 0.003889737 -0.0002474397 0.010258074
0.005788058 0.011364531 0.0063276924 0.003088763 -0.01402568 -0.0061878725 -0.0020017999 -0.017422179
0.0056556277 -0.010151591 -0.0028579445 0.0033943853 0.0035153485 0.0012307456 0.0059783743 0.0061073536
0.009737583 -0.00011812325 -0.0010823164 -0.0010943648 -0.0079839025 0.0049561914 0.0069747632 -0.009416351
0.0098601915 -0.0015638676 0.014252256 0.0020192838 -0.0023261975 -0.00066597934 0.006390441 0.008527716
-1.39805825e-05 -0.015512848 0.0023945891 0.0002739813 -0.0012234604 -0.009861957 0.002112124 0.0091364905
-0.0032588262 0.006757064 -0.013625988 -0.0086108195 -0.019330041 0.0015328912 0.010976271 -0.008891089
0.009976643 -0.0007854556 0.0055726497 0.00090206054 -0.005874435 -0.011229103 -0.00051242596 -0.012134812
0.012125356 0.005750308 -0.0011248492 -0.004279051 -0.0048583383 -0.00018749264 0.0050219884 0.0013690447
0.0069522937 0.011949759 -0.012907109 -0.011011519 -0.006306089 0.004862989 0.0047691925 0.019107554
-0.01278231 0.0004369883 0.005631196 0.0013966215 0.019922592 -0.008651154 0.0067131286 -0.014915931
-0.0008580535 0.01480422 -0.007927584 0.013103327 0.020612014 0.0066798977 -0.01251558 0.006326025
-0.0066049453 -0.0034817264 0.0122103505 0.019039107 0.0053715156 -0.0020078702 0.015948944 -0.006732743
-0.012031196 -0.018119326 -0.0035376619 0.014851928 -0.002158008 -0.010486667 0.011092426 0.0020008485
0.029071199 -0.0071556307 -0.01515744 -0.0046062055 0.0046004136 0.015668036 -0.00088309124 -0.007047818
0.0033473962 -0.008383653 -0.0021964458 0.01374712 0.006355391 -0.008191215 -0.012419048 0.0051293415
0.012140928 0.013244254 -0.014716377 0.00389105 0.004843657 0.009483789 0.007479987 -0.005859261
0.009179634 0.0035239374 -0.003482608 -0.005401818 0.0023756889 0.0015797925 0.0023377028 -0.0060009323
-0.018000802 0.0076222233 -3.0396563e-05 0.002361329 -0.0042757317 0.01941851 -0.017490642 -0.018089108
-0.0020304911 0.0011827798 0.004782952 -0.012299835 0.0059212563 -0.00056973594 -0.0065613654 0.0038529474
-0.002384105 0.011391236 -0.009195847 0.0198391 0.009627106 0.015850889 0.009579136 0.021781692
0.0050881566 0.016329775 -0.0035965138 0.010032821 -0.0025832995 -0.024960859 -0.0038910282 0.005678323
-0.002178758 0.004769645 0.0021116463 0.017017333 0.009938769 -0.0142939435 0.0050150338 -0.003896189
-0.0026613618 0.0038305307 0.011252062 0.011033987 -0.0052202386 -0.006661475 0.014722875 -0.0024559847
-0.013722312 0.0021825659 0.005316464 0.013438764 -0.009973124 0.011065667 0.0014350218 0.0020762696
-0.00119071 -0.0008789661 -0.0072200783 0.003871666 0.0035123853 -0.013925489 -0.004582214 0.01297503
0.0014870103 -0.0020277598 -0.0011568528 0.011769974 -0.0052282857 -0.011687564 0.0024106482 -0.0070200847

network.2.running_mean f4 [256]
00000000: 4047 e73e 6e28 6a3e a799 8e3e e196 833e
00000010: 49f3 9e3e ca0d af3e a1fc b23e e8d2 8e3e
00000020: 9f45 ea3e d1f5 d93e 49e6 b93e cc18 c93e
00000030: ff0e b93e d0ae f33e d004 ad3e d1d1 fc3e
00000040: 17b3 ba3e de69 9f3e 343b a83e d54e 8a3e
00000050: 53cf 943e 2833 f33e fcaa 913e 048f 453e
00000060: be25 a83e 611f b93e d4e8 983e 809e 8f3e
00000070: 4799 de3e 4775 af3e 3c8c 8c3e 1bdb bb3e
00000080: 7df7 e53e ab97 a03e f86e c53e 0987 9d3e
00000090: b8ee a43e 274c 8b3e 8516 923e 4774 af3e
000000a0: 543d d83e 32df 7e3e 6fdc 943e 4a54 983e
000000b0: c300 f63e 363b cc3e 5edd 9b3e 4ef7 bc3e
000000c0: 913a a03e e1bd ac3e 4e04 ae3e 1e7b 983e
000000d0: 5640 723e f6ff ab3e 5b8d a83e 7203 cf3e
000000e0: 7d4c 8c3e de98 c53e 3c72 a63e 0550 953e
000000f0: c2c7 aa3e 316a e13e a247 a33e f0f6 9b3e
00000100: 0c16 d13e a30a a13e cc1b 973e 4bbe ce3e
00000110: 9886 b33e 1b71 fc3e 91df c63e 813b 993e
00000120: 03fa 873e dd36 d73e 5526 de3e 86d1 bd3e
00000130: 375e 813e 7227 d73e 2a62 b03e 903f 803e
00000140: 93c6 ba3e 8c1a 9e3e a87a ae3e 0ce7 c93e
00000150: 5535 ce3e 2688 c93e 379c b73e 9dcf a23e
00000160: f52d b53e 3fb7 ae3e 2c6a c13e 9bad 9a3e
00000170: c202 803e 73dd 933e 7c7f c83e 0cb1 a43e
00000180: 9148 c03e db0c a53e c39c 9d3e b43e c33e
00000190: 9161 883e 58d9 ab3e ff71 773e b3fc bf3e
000001a0: 547e 9f3e 8e65 953e ca01 c33e b6fa dd3e
000001b0: 886e bf3e a4af e43e 2da9 a53e da5a c23e
000001c0: 3d49 e23e 6af2 8d3e 0982 d03e a92f b03e
000001d0: c36b d83e b861 b63e ddd6 9d3e 9f02 ac3e
000001e0: 6660 923e ca67 9b3e b7e0 b53e 8760 693e
000001f0: a386 be3e 48cf b53e 671e d03e 2916 a73e
00000200: b488 b63e 7703 963e 96eb c33e 16b1 e13e
00000210: e5e5 d83e 632b fe3e 2344 b03e fd7f a53e
00000220: 05c9 953e 4c05 9f3e e43b af3e 4a61 493e
00000230: 3fe0 aa3e dd35 a93e e967 173f 09c6 983e
00000240: aa11 ae3e d194 d13e 2e16 b83e f469 963e
00000250: 6b49 a53e dc15 c23e d6a9 c73e d45e ba3e
00000260: 140a e03e 4270 cc3e 3152 bd3e 661e be3e
00000270: f5cb 843e 5d86 553e 1e0f ca3e fe8d a03e
00000280: 17b6 aa3e f607 c23e 0543 a13e aace 863e
00000290: 0def b43e e5fc e73e 41a9 a83e cd95 cb3e
000002a0: 6911 bc3e 6513 df3e 561b 9f3e 85be d43e
000002b0: 5755 9c3e b380 da3e 3534 b33e 56d1 943e
000002c0: 1fd2 8f3e 8e81 9e3e 9e17 be3e a587 e63e
000002d0: 2ad4 9d3e e224 df3e d5ea 993e 7a87 803e
000002e0: 2eae cf3e 4879 dd3e 0d38 af3e 5b5a b23e
000002f0: b222 5a3e 6220 af3e b218 c53e 982f 8f3e
00000300: f7b8 5a3e 5282 bd3e 5098 ac3e e5cc c83e
00000310: b40c a63e 58c0 803e 8c4c 833e 6787 a63e
00000320: c104 ee3e fb9c b63e 1dc0 a53e d8dc a63e
00000330: aa41 a23e 9f38 a33e b53f b53e ee55 a23e
00000340: e8eb 6f3e b141 ad3e 7900 a23e a246 ad3e
00000350: 4736 b93e 1b86 903e 8c27 013f e93e d93e
00000360: 34ee a73e 1fab c53e 1dcd 9b3e e0a1 7f3e
00000370: 366f bb3e 7e8f a33e bcc3 b53e 6966 b63e
00000380: 38f0 653e 69cd 8d3e 213d 0c3f cdc6 903e
00000390: bcf2 8a3e b8b5 ec3e 4da9 e33e 2526 b33e
000003a0: d915 b23e 57d8 a43e 12a7 cb3e 337f d73e
000003b0: 052e d53e f0ec 883e 843d 1a3f 3cd8 933e
000003c0: dce7 933e be97 ad3e 70fe a33e 5269 a83e
000003d0: e463 983e 65e7 c43e 27c7 bb3e 2e5f ba3e
000003e0: 7602 f93e 3e80 d93e 3a61 c13e d54e 9b3e
000003f0: e954 d03e c9b4 a33e 5976 aa3e a62c a73e
0.45171547 0.22866985 0.27851602 0.2570105 0.31044987 0.34190208 0.34958366 0.27895284
0.45756242 0.42570356 0.36308506 0.3927673 0.36144254 0.4759431 0.33792734 0.49378827
0.3646476 0.31135458 0.32857668 0.2701327 0.29064426 0.47499967 0.28450763 0.19292837
0.32841295 0.36156753 0.29865134 0.28050613 0.43476316 0.34269163 0.2745074 0.36690602
0.4491538 0.31365713 0.38561225 0.30767086 0.32213378 0.27206537 0.28532806 0.342684
0.4223429 0.2488983 0.29074427 0.29751807 0.48047456 0.39888924 0.30442327 0.36907429
0.31294683 0.33738616 0.3398766 0.2978143 0.23657355 0.3359372 0.32920346 0.40432316
0.27402106 0.3859319 0.3250903 0.29162613 0.33355528 0.4402633 0.3189059 0.30461836
0.40837133 0.31453428 0.29513395 0.40379557 0.35063624 0.49305043 0.38842443 0.2992821
0.2655793 0.42034045 0.4338862 0.37073916 0.25267193 0.42022282 0.34449893 0.25048494
0.36479625 0.3087963 0.34077954 0.39434087 0.40275064 0.39361686 0.3586137 0.3179902
0.35386625 0.3412418 0.37776315 0.30210575 0.25002104 0.2887989 0.39159763 0.32166326
0.37555364 0.3223637 0.30783662 0.38133776 0.26636937 0.33564258 0.2416458 0.37497482
0.31151068 0.29179043 0.38087302 0.4335534 0.37389016 0.44665253 0.32355633 0.3795994
0.441965 0.2772401 0.4072421 0.34411362 0.42269716 0.35621428 0.3082799 0.3359575
0.2858917 0.30352622 0.35523006 0.22790729 0.37212095 0.35509706 0.40648195 0.32634094
0.3565117 0.29299518 0.38265675 0.44080418 0.42362896 0.49642476 0.34426984 0.3232421
0.29254928 0.3105873 0.3422538 0.19666019 0.3337421 0.33048907 0.5914293 0.2983859
0.33997852 0.4093385 0.35954422 0.2937771 0.32282576 0.37907302 0.38996762 0.36400473
0.4375769 0.39929396 0.3697677 0.37132567 0.25936857 0.20852037 0.39464658 0.3135833
0.3334205 0.378967 0.31496444 0.26329547 0.3533863 0.4531013 0.3294163 0.39762726
0.36732033 0.43569484 0.31075543 0.41551605 0.3053386 0.42676315 0.35000768 0.2906596
0.28089997 0.30958217 0.37127393 0.45025364 0.3082593 0.43582827 0.30061975 0.2510336
0.40562576 0.43256593 0.3422245 0.3483456 0.21302298 0.34204394 0.38495404 0.27966
0.21359621 0.3701349 0.33709955 0.39218822 0.32431567 0.25146747 0.25644338 0.3252518
0.46488002 0.35666642 0.32373133 0.32590365 0.31690723 0.31879136 0.35400167 0.31706184
0.23429835 0.3383918 0.31640986 0.3384295 0.36174223 0.28227314 0.5045097 0.4243081
0.32798922 0.38607118 0.30429927 0.24964094 0.36608285 0.31945413 0.35500896 0.35625008
0.22454917 0.27695778 0.54780775 0.28276673 0.27138317 0.4623239 0.44465104 0.3499004
0.34782293 0.32196304 0.39775902 0.42089233 0.41636673 0.2674327 0.60250115 0.2887591
0.28887832 0.33904833 0.32030058 0.32892853 0.2976371 0.3845779 0.3667538 0.3640074
0.4863469 0.42480654 0.3776949 0.30333582 0.4068978 0.31973866 0.33293417 0.32651252

network.2.running_var f4 [256]
00000000: 5800 e63e 318f 203e 3f71 233e 7d60 2b3e
00000010: 2ac1 753e d38f 823e 2c9a 6e3e 1664 593e
00000020: eccf 183f 1cfc cf3e e093 b83e 1131 bd3e
00000030: 2524 ba3e 2f21 d93e 0f77 603e 6ff8 cc3e
00000040: c8f4 a63e a619 943e caf3 403e 4bd0 403e
00000050: 0919 803e a1ab b33e e5b5 7d3e 6fd5 de3d
00000060: d267 923e 6013 843e dd68 1a3e 2097 283e
00000070: f6af b13e f855 7d3e eb67 293e 8e2a be3e
00000080: d9a2 123f 5b1f 893e 5651 bb3e 4f2d 403e
00000090: 9dea a33e 9c0f 4c3e 2046 893e cd96 873e
000000a0: c7bc 063f f9d6 203e 5a85 973e 8dad 483e
000000b0: b4e1 013f a556 c53e db53 813e c8b8 973e
000000c0: b3f6 a53e fcc0 863e fcdd 933e f0f9 203e
000000d0: 6e94 133e fb17 803e 89cf 5c3e eb14 c93e
000000e0: ceda 203e e2a8 913e 1b01 453e 41e4 383e
000000f0: 237a b13e a934 d53e 32a4 6f3e 3c0f 4f3e
00000100: d8f4 ce3e 3718 613e 89bf 163e 1811 c53e
00000110: d88a 833e 2530 233f 1dc9 8e3e 45b9 333e
00000120: 686e 243e f23c eb3e 30d7 d53e 4d87 6e3e
00000130: 2b27 333e 2b67 ae3e 3030 9c3e 1b37 123e
00000140: 0483 a63e e411 3d3e 6828 b13e 9c67 a93e
00000150: 374f a03e 84a9 b33e 52dc a03e 1a4a 4f3e
00000160: ad97 913e ca3b 8f3e ddda 923e 7c08 8b3e
00000170: 9c07 333e 4cb2 853e 30eb c63e fa7d a23e
00000180: c673 933e 61eb 813e 7634 493e 56d0 913e
00000190: 0888 183e b2d5 933e 928d 203e f9d6 a43e
000001a0: e34d 8b3e e88d 433e bef2 ce3e 7b37 ef3e
000001b0: 2b23 a83e 5b3b e23e 3154 583e dfc6 a23e
000001c0: b0f2 e53e c0b7 153e 6176 ad3e 94fb 7d3e
000001d0: df93 f53e 3501 ad3e 401e 8f3e 952b ac3e
000001e0: 1999 413e 5748 913e e4c3 963e e0cd 183e
000001f0: 2130 fa3e f6c6 7c3e d753 a13e fe30 a53e
00000200: f64c b03e dd11 403e d120 8e3e e1bf f43e
00000210: 74ec 113f ca18 173f cccd 8b3e af00 6d3e
00000220: a66e 1d3e 3853 8f3e e8ac 9b3e 7f88 cd3d
00000230: 76ad 933e 267b 963e f844 423f a96b 4a3e
00000240: bd1f 653e e6b8 9e3e 3047 dc3e 560d 133e
00000250: 0581 7a3e b351 8a3e ef70 a73e 2eb7 b33e
00000260: fee5 d13e 5979 b53e 806f 913e 6767 8d3e
00000270: 0200 173e 5acf f43d 8663 a53e 5e12 3e3e
00000280: 117f 853e f32e b63e ec6e 533e ed00 4b3e
00000290: c33d 9e3e e69a ee3e 69c4 9a3e 3c57 ba3e
000002a0: 6447 c63e 6fa0 e23e 08d1 613e 658b 873e
000002b0: 14c5 3f3e f6e9 f83e 3bf8 8c3e 22a1 563e
000002c0: 4ba0 483e a6fe 3b3e c91a be3e b0e1 ff3e
000002d0: 572e 2a3e 5872 bd3e f784 273e e713 233e
000002e0: 2205 da3e f026 df3e 49bc 5d3e 37d4 c23e
000002f0: cc75 f63d f7b9 8f3e a30f ca3e addb 593e
00000300: 1314 003e eabb 953e a4a8 9c3e 6e1a bc3e
00000310: 2ce8 623e efc1 f43d 86dc 143e c6c1 6a3e
00000320: 1290 bb3e c64d ac3e 4c02 853e 2f5c 923e
00000330: f364 313e 8fcf 453e 5969 9f3e 8d68 853e
00000340: 762e 013e 8a9b 753e 6255 773e b6d5 753e
00000350: 1000 893e ee12 113e d2c3 213f d450 c53e
00000360: 4284 a93e f0a6 c13e 54a7 283e 2fd2 0c3e
00000370: 89bc 933e 2981 663e caa9 783e 4cf3 8d3e
00000380: 6e09 e83d 0fc5 2a3e 03e4 123f 020e 513e
00000390: c6ec 123e 1703 0b3f ddf6 103f 3359 833e
000003a0: d89a 9f3e 1e01 673e f832 ed3e 37bd e73e
000003b0: 2ad3 c63e 27ca 783e 7fd8 563f 3bcc 433e
000003c0: ed9a 323e 76ae 533e 26e2 5c3e d280 c93e
000003d0: 5543 2d3e f706 943e 2fd0 803e 3b7f 573e
000003e0: 6120 e63e 8f4d 003f e13f 823e 4e30 1c3e
000003f0: e277 ba3e 7f9f 543e 0782 9e3e c35e 913e
0.44922137 0.15679623 0.15961169 0.16736026 0.23999467 0.25500354 0.23301 0.21229586
0.59692264 0.40622032 0.3605032 0.36951497 0.363557 0.4240813 0.21920417 0.4003329
0.32608628 0.28925818 0.18842998 0.18829457 0.250191 0.3509188 0.24776419 0.10880553
0.28594834 0.25796032 0.15079065 0.164639 0.3470456 0.24739826 0.16543548 0.37141842
0.57279736 0.26781735 0.36585492 0.18767284 0.32014933 0.1992783 0.26811314 0.2648224
0.526318 0.15707006 0.29593927 0.19597454 0.5073502 0.38542667 0.2525929 0.29633164
0.3241478 0.2631911 0.28880298 0.15720344 0.1441209 0.25018296 0.21563543 0.39273772
0.15708467 0.2844916 0.19238703 0.18055822 0.34663495 0.4164174 0.2340248 0.20220655
0.40421176 0.21981893 0.14721502 0.38489604 0.25691867 0.6374534 0.27887812 0.17551143
0.16057742 0.45944935 0.41765738 0.232938 0.1749541 0.34063086 0.30505514 0.14278834
0.32521832 0.18463856 0.3460114 0.3308686 0.31310436 0.35090268 0.3141809 0.20243111
0.28436032 0.27975303 0.28682604 0.2715491 0.17483371 0.26112592 0.3885131 0.31736737
0.28799266 0.25374892 0.19648919 0.2847926 0.14895642 0.28873974 0.15679005 0.3219526
0.2720786 0.19097102 0.40419573 0.46722016 0.3283933 0.4418591 0.21125866 0.31792352
0.44911718 0.14620876 0.33879378 0.24803 0.4796438 0.33789983 0.27952766 0.33627
0.18906058 0.28375503 0.29446328 0.14922285 0.48864844 0.24685273 0.31509277 0.3226394
0.34433717 0.18756814 0.27759412 0.47802642 0.57001424 0.590222 0.27305448 0.23144792
0.1537424 0.27993178 0.30405354 0.100358 0.28843278 0.2939083 0.7588649 0.19767632
0.22375388 0.3100044 0.43023062 0.14360556 0.2446328 0.27015457 0.3270335 0.35100693
0.40995783 0.35444143 0.2840538 0.27617952 0.14746097 0.11953612 0.32302493 0.18561694
0.26073506 0.35582694 0.20647782 0.19824572 0.30906495 0.46602553 0.30227974 0.3639468
0.38726342 0.44263026 0.22052395 0.26473537 0.18727523 0.48615998 0.27533135 0.20959905
0.19592397 0.1835886 0.3712981 0.49976873 0.1661924 0.370013 0.16359316 0.15925561
0.4258204 0.43584394 0.21653856 0.38052532 0.12034187 0.28071567 0.39465055 0.21275206
0.12507658 0.2924493 0.30597413 0.36738914 0.22158879 0.119510524 0.14537248 0.22925481
0.36633354 0.33653086 0.25978315 0.28585956 0.17323665 0.19317459 0.3113506 0.26056328
0.1261538 0.23985115 0.24153665 0.24007306 0.2675786 0.14167377 0.63189423 0.3853823
0.33108717 0.37822676 0.1647008 0.13752054 0.28854778 0.22510208 0.2428352 0.27724683
0.113299236 0.16676734 0.5737917 0.204155 0.14348134 0.5430159 0.56626683 0.2565399
0.31172824 0.2255902 0.4632795 0.45261547 0.3883298 0.24295865 0.83924097 0.19120876
0.17441912 0.2067202 0.21570644 0.39356095 0.16920216 0.28911564 0.2515883 0.21044628
0.44946578 0.50118345 0.2543936 0.15252802 0.36419588 0.20763968 0.30958578 0.2839261

network.4.weight f4 [128, 256]
00000000: d29b 95bc 8a4e 113d a93b 48bd 567e ffbc
00000010: fb7c ccbb f94b 903c ee6a 873d 8404 84bc
00000020: 0b8a 8abd 014a 6a3c df27 55bd 9a83 273d
00000030: 0075 7c3c 27fe 1a3d d9b4 843d 68f4 dcbc
00000040: 9d7e 9f3c ee93 313d 3f8b 113d d34d 613c
00000050: 6614 dabc c964 183d 0344 4fbd ca29 483c
00000060: d2f7 efbc b4fe 6c3d ea62 0abd becc a13c
00000070: 2767 7dbb 0722 113d 2793 c73c bce0 5bbd
00000080: 91c8 4dbd a3a6 d7bc 2176 b53c 2f55 8c3c
00000090: 6580 d1bb 6dee 47ba fe46 2dbd 426f 6fbc
000000a0: e496 c5bc f84c 613d 930e b8bc b811 40bd
000000b0: f647 f5bc 84ef 003d 98bc 83bc a464 1fbd
000000c0: cbd2 d83c 866e 2cbd 14bf 113d cd28 8e3c
000000d0: 0c48 89bc 37a1 fc3c 4d10 0a3c 454e 3abb
000000e0: 7842 2fbd 2016 393d 2b5f 6d3d 8308 53bd
000000f0: ad97 ab3c dccc 34bd f89e 81bc e5a4 82bd
00000100: 3abf 68bd c38c 0abd 7aa4 b73b b69d 503d
00000110: 4fc3 963a 8fac 02bd 8814 3f3d 728c 5d3c
00000120: d2d5 083d c920 cd3c 3c0d 7dbd f8c7 0abd
00000130: d072 4b3c 94d8 013c f419 3bbd b2bb 8f3c
00000140: de2b 14bc 7ea2 65bd 85dc 523d f697 373d
00000150: 9532 523d 1712 66bd d10d ed3c 77bd 1fbd
00000160: dcb8 80ba ba50 4439 14f2 3b3d 6663 70bd
00000170: bec9 64bc 508a 1b3d fb98 e2bb d907 163d
00000180: 9b13 43bc c92a bebb 2b0a 81bc 0965 ee3c
00000190: 85e8 bbbc 4eb0 f83c 35a0 433d 61ce be3b
000001a0: 96bc 31bd 175f 0e3d ffb4 0fbc c4f2 75bd
000001b0: bb51 26bc b490 80bd d633 86bd 5d9d 853d
000001c0: ab22 023b 214e a6bc 49d3 c33c ddb4 1abd
000001d0: b4a6 28bd f7cf 0c3d ef4c 053d 713b 283d
000001e0: 8fae 89bd 3b9d 9c3c d64e 18bd 8822 33bd
000001f0: 3e6a 8ebc 97fb 553c 3948 21bd ce3e 05bd
00000200: 2ae4 32bd 0487 12bd e9fe 5e3d 0eb4 36bc
00000210: 9df8 413d 0551 153d 3c32 fcbb ef0b 76bc
00000220: a136 0e3d f7a8 a03c 6336 773d f7fa d9bc
00000230: 9181 2dbd c054 05bd ea6b 6d3d a91c 67bc
00000240: 4ddf 603d 6980 7fbd 7bd3 233b 469e 2cbd
00000250: 1138 73bd 2901 babc bf26 6a3d b140 833d
00000260: 99c7 d7bc e120 453d 2de7 133d 86f2 43bd
00000270: 4a93 1d3d 29be 15bd b3ad 873c 80fb 203d
00000280: 0941 e5bb 363d 13bc 10f9 2f3d d349 04bc
00000290: b754 3abd 2ffc 4a3d 80b8 14bb 1a55 b2bb
000002a0: 34c0 353d 7565 03bd bc03 4f3d e64c 78bc
000002b0: 319e eabc 2554 bebb 3ab3 e53a a597 883d
000002c0: 4cc8 0bbd 258e 213d 9eba 343d f9e1 26bd
000002d0: 6f8e 4fbd 977d 4ebd e02f 05bc 5838 933c
000002e0: 1511 1ebd 86ba a6bb 8d71 d8bc cf25 5fbd
000002f0: c3fd a73c 0d8c 143d b368 85bc 0ad3 3f3d
00000300: 0d3b e6b9 0fad 963b 31b7 10bd 4f61 403d
00000310: e72c c5bc c937 1f3b 0e34 513d 799b feb9
00000320: 9bd9 03bc ad83 cc3b 757e 60bd 6b80 36bd
00000330: f477 f53c 6179 623c f7be 163d 3c1b 0ebd
00000340: 9c40 f5bc 300a 1d3d ce62 f33c 756c 943b
00000350: 65c7 4dbd 72ab 52bc 942b 5d3d 622a f8bc
00000360: 20de c3ba 6cee 5d3c bec0 533d f757 8cbc
00000370: 72cd b2bc 667b 2f3d 6b07 79bd 4545 67bd
00000380: 4531 2e3d a29c 83bc 6aac 0b3c c077 8a3d
00000390: 1ff7 52bd 315c 6ebd ad81 22bd 5b1c 7dbc
000003a0: 7e12 213d 393b 15bd 375c 223d 3048 54bd
000003b0: 8e37 143c b9bc 3ebc ef71 3b3c 2ff4 cc3c
000003c0: 236b 2d3d 09be 7b3c c2c7 813b ba4e 103d
000003d0: 6e70 a3bc 17eb 20bd 8c41 023d 5480 c23b
000003e0: 7b5f 2fbd 2a52 0bbd 4eea dfbb cbaf 90bc
000003f0: 647a f43c 67a5 16bc 9afe f53b 4e7c 783c
-0.018262777 0.03547529 -0.04888502 -0.031188171 -0.006240485 0.017614352 0.06612192 -0.016115434
-0.06764611 0.0142998705 -0.052039977 0.04089699 0.015408754 0.037840035 0.064798065 -0.02697201
0.019469554 0.043353967 0.035533186 0.013751465 -0.026621055 0.03720549 -0.05060197 0.012216995
-0.029292975 0.05786009 -0.033785738 0.019750949 -0.003866622 0.03543284 0.02436216 -0.05368112
-0.050240103 -0.026324576 0.022151055 0.017130462 -0.0063934796 -0.0007626776 -0.04230403 -0.014613928
-0.024119802 0.055005044 -0.022467887 -0.046891898 -0.02994154 0.03147842 -0.01608114 -0.038914338
0.026467701 -0.04209759 0.035582617 0.01735344 -0.016757987 0.030838592 0.008426738 -0.0028428
-0.042788 0.045187116 0.057952087 -0.05152179 0.020946348 -0.04414068 -0.015822873 -0.063791074
-0.056822993 -0.033825647 0.005604324 0.050931655 0.0011502298 -0.031902846 0.04665044 0.013522254
0.03340704 0.025040047 -0.0617802 -0.03388211 0.01241751 0.007925171 -0.045679048 0.017545555
-0.009043662 -0.056063168 0.051479835 0.044822656 0.05131777 -0.056169596 0.028937252 -0.038999047
-0.0009820717 0.0001872209 0.04588516 -0.058688544 -0.013964115 0.037973702 -0.0069152093 0.036628578
-0.01190653 -0.00580344 -0.015751919 0.029100912 -0.022938022 0.030357506 0.047760207 0.005822942
-0.04339274 0.034758653 -0.00877118 -0.060045972 -0.010151322 -0.062776 -0.06552856 0.06524155
0.001985709 -0.020300927 0.02390446 -0.03777014 -0.041174605 0.03437802 0.032544073 0.041072313
-0.067227475 0.019117942 -0.03718456 -0.043734103 -0.017384645 0.013060472 -0.039375518 -0.0325306
-0.043674625 -0.035773292 0.05444232 -0.011151327 0.047356237 0.03645422 -0.007696418 -0.015017494
0.034720067 0.019611819 0.0603546 -0.026608927 -0.042359892 -0.032551527 0.057964243 -0.014105954
0.054900456 -0.06237832 0.0024997878 -0.04214313 -0.05937964 -0.022705631 0.057165857 0.06408823
-0.026340293 0.04812706 0.03610914 -0.04783871 0.038470544 -0.036558304 0.016562318 0.03930235
-0.006996278 -0.008986762 0.042962134 -0.008074242 -0.045490947 0.049556907 -0.0022692978 -0.005442274
0.044372752 -0.03207918 0.05054067 -0.015155053 -0.028639885 -0.0058083707 0.0017524727 0.06669549
-0.034126565 0.0394422 0.044123285 -0.040742848 -0.050672945 -0.05041274 -0.00812909 0.017971203
-0.03859051 -0.0050881533 -0.026421333 -0.054479416 0.020506745 0.036266375 -0.016285276 0.046832122
-0.00043913015 0.004598267 -0.035330955 0.0469678 -0.024069263 0.0024294725 0.051075034 -0.0004856249
-0.008047487 0.006241283 -0.0548081 -0.044556063 0.029964425 0.013822884 0.036803212 -0.03469394
-0.029938035 0.038339794 0.0297102 0.0045295306 -0.050238986 -0.012858259 0.053996637 -0.030293647
-0.0014943518 0.013545614 0.051697485 -0.017131789 -0.02182648 0.04284229 -0.06079809 -0.056462545
0.042527456 -0.0160659 0.008524993 0.06761122 -0.051505204 -0.05819339 -0.03967445 -0.015448655
0.039324276 -0.036433432 0.039638724 -0.051826656 0.009046448 -0.011641675 0.011440738 0.02501878
0.0423385 0.015365132 0.0039605806 0.03523133 -0.019951072 -0.0392867 0.03180079 0.005935708
-0.042815667 -0.034013905 -0.006833351 -0.01766195 0.029843517 -0.009194708 0.0075071575 0.015166355

network.4.bias f4 [128]
00000000: f961 4d3d dd5b e3bc 8678 5abd a605 36bc
00000010: cae2 0dbd ab92 843d d223 e7bc 0c5f 3ebd
00000020: f50d c83c 1111 05bd 8f01 bc3b be13 393d
00000030: 3029 03bd 525f d8bb a982 eb3c d359 61bc
00000040: a56f 8a3d 2154 00bc 7e12 753c 41e8 6d3d
00000050: de64 76bc c851 0c3c fd22 6fbc 816d 673d
00000060: fe69 263d 32ca 18bd 4d7f 52bd c0e9 c9bc
00000070: 90b2 21bd 8b9a 8c3c feee f13c 14fb 133d
00000080: 06e8 50bd 42ed 04bd df6a f53c 4799 5d3d
00000090: 7355 babc 98f4 413d e9a3 243d 0763 e6bc
000000a0: 349e 8bbd d079 f6bc e881 d6bc 2276 063a
000000b0: 9654 733d aa02 4cbc b127 0ebd 3ca9 87bc
000000c0: 44ac a7bc 175f cf3c 8a22 34bd ef5b febc
000000d0: d07a 803b 8831 3fbd 5042 61bc a55c 353d
000000e0: 7d52 763d 4d21 92bc ad1e 213d b84e 56bb
000000f0: d33d e6bc 012d 423d 19f6 03bd 14bd 5abb
00000100: 53c6 84bd 5842 5bbd 5f40 513d 2211 2dbd
00000110: 51d0 613d 5d0d 2a3d a7bd 0f3d a99e 323d
00000120: 2ff9 653d fbc4 26bd ac6c 823d ee0c 1cbc
00000130: 7d7d b03c a5e5 1a3c dbc5 f03c c6dc 51bd
00000140: 0e74 5e3d aedd 71bc e20b 7cbd 01d2 3bbd
00000150: 504d 4d3d 5e3a 2abd cf51 173d 9d21 393d
00000160: 37a4 55bd 704d 383c 84d0 753c ff7f 82bd
00000170: e227 b7bc f8dc ef3c 585e 16bd 67dc 4ebd
00000180: 3516 63bd 2d90 7d3d f6ce 66bd 0c89 24bd
00000190: 1926 f1bc f223 513d bf63 f5bb 9786 333c
000001a0: 2a99 1bbd 140a 223d 9a4e dbbc 7f72 87ba
000001b0: d0e7 903d c640 67bc c015 2abd 19ac 26bd
000001c0: 55df 033d 1541 20bd 3363 723d 5b3c dd3c
000001d0: b8b4 5bbd 81ed 473d 1d38 483d ebfd de3b
000001e0: 4932 0f3d 1d26 1cbd cb41 29bd 3382 d9bc
000001f0: 2837 893d a85b 3b3d 6dbc 14bb fc7d 403d
0.050142262 -0.027753765 -0.053337596 -0.011109745 -0.03464011 0.06473287 -0.028215323 -0.046477363
0.024420718 -0.03248698 0.0057374905 0.045184843 -0.0320217 -0.00660316 0.028748827 -0.013754326
0.06759576 -0.007832558 0.014958022 0.058082823 -0.015038697 0.00856442 -0.014595744 0.056500915
0.040628426 -0.037302203 -0.051390935 -0.024647593 -0.03947693 0.017163536 0.029532906 0.03612812
-0.051002525 -0.03245283 0.029958187 0.054101255 -0.022745823 0.047352403 0.04019538 -0.028123392
-0.06817284 -0.030087382 -0.026184991 0.00051292975 0.05940684 -0.012451807 -0.03470582 -0.01656019
-0.020467885 0.025313897 -0.04397825 -0.031049697 0.0039208904 -0.046678096 -0.01374872 0.044277806
0.06013726 -0.017838145 0.039335895 -0.0032700729 -0.028105652 0.0474062 -0.03221712 -0.003337686
-0.0648314 -0.053530067 0.05108678 -0.042252667 0.055130307 0.04151665 0.035092976 0.04360834
0.056145843 -0.0407152 0.06368384 -0.009524567 0.021544212 0.009454166 0.02939122 -0.051235937
0.054309897 -0.014762325 -0.06153477 -0.045854572 0.05012256 -0.04155957 0.036943253 0.04519807
-0.05215856 0.011248931 0.015003327 -0.063720696 -0.022357885 0.02928017 -0.036711067 -0.05050316
-0.0554411 0.061905075 -0.056349717 -0.04016976 -0.029437112 0.05105967 -0.0074886973 0.010957382
-0.037987866 0.039560392 -0.026770879 -0.0010333805 0.07075465 -0.014114564 -0.04152465 -0.04069147
0.032195408 -0.039124567 0.059176635 0.027006319 -0.053639144 0.048810486 0.04888164 0.0068051717
0.034960065 -0.038122285 -0.04132251 -0.026551342 0.06699973 0.045741707 -0.0022695318 0.046995148

network.6.weight f4 [128]
00000000: f51a 7d3f b815 7e3f 21ac 7c3f 283b 833f
00000010: 8d37 833f 408f 823f 6b90 7b3f 8931 803f
00000020: 3420 7d3f 66d5 823f c73e 7a3f 0fe7 7e3f
00000030: 9709 7e3f 8735 813f de9b 803f bc84 823f
00000040: 83d3 803f 7e76 7c3f a801 813f 6f8a 803f
00000050: ef2a 7a3f 5122 7a3f 7d6f 833f 72a1 793f
00000060: b7c6 813f e306 7e3f ce45 803f a725 803f
00000070: 381e 803f 9dbe 773f 65d0 843f c7fb 803f
00000080: 0027 7a3f 20ca 823f 05f8 7c3f 1ab1 7f3f
00000090: 65a5 7c3f 2929 853f 3d9e 823f 5f04 803f
000000a0: 336a 7f3f 6067 7f3f 0252 803f f35e 823f
000000b0: 4605 803f 6739 7d3f 767b 813f 9fc2 803f
000000c0: e4cd 813f 9352 813f 066b 803f 82e4 803f
000000d0: 5cc2 813f a0b4 813f 4664 803f 4d0a 813f
000000e0: ae2b 833f 5f3f 7b3f 056c 833f 6ea3 803f
000000f0: 36e4 7e3f b88e 7e3f b8d7 7d3f e2d9 813f
00000100: 8f64 813f ff29 803f ced2 793f 338f 7c3f
00000110: 3333 833f 761e 7f3f 9b09 813f eabb 7f3f
00000120: 3f23 833f 8a7b 803f 98aa 803f c73c 823f
00000130: e767 7f3f cd6c 823f 1bef 803f b8d7 803f
00000140: c8b0 7b3f 6c29 823f 40fa 813f f2b0 7d3f
00000150: 432a 7e3f 870e 7f3f 88ad 823f 90e8 803f
00000160: 2199 813f cef3 7e3f 01f1 7a3f e6a9 7e3f
00000170: 6c82 7d3f 9623 833f a6a6 7a3f aa02 803f
00000180: d6f6 7c3f b1c2 7f3f 9120 7c3f 22de 843f
00000190: bbc5 7e3f a87d 803f 36fa 7b3f ad3b 813f
000001a0: 4a39 803f ed39 7d3f 8b6c 7c3f f090 7f3f
000001b0: cf66 7e3f 32b6 813f 3ae9 7e3f 2c1a 803f
000001c0: 0fff 793f 599b 803f 939d 7d3f b959 7e3f
000001d0: 8d60 7e3f b64a 7e3f a758 7e3f 4b1c 7f3f
000001e0: b53a 803f 54c1 7f3f 948c 813f efd0 7f3f
000001f0: 6050 7d3f a1e3 7b3f 10f5 7c3f c9cd 793f
0.9886926 0.9925189 0.9870015 1.0252428 1.0251328 1.0199966 0.9826724 1.0015117
0.98877263 1.0221374 0.9775204 0.9957132 0.9923338 1.009446 1.0047567 1.0196757
1.0064548 0.98618305 1.007863 1.0042247 0.9772176 0.9770861 1.0268399 0.9751197
1.0138768 0.9922926 1.0021303 1.001149 1.0009222 0.9677523 1.0376097 1.0076836
0.9771576 1.0217934 0.9881595 0.9987961 0.9868987 1.0403186 1.020454 1.0001334
0.9977142 0.9976711 1.0025027 1.0185226 1.0001609 0.98915714 1.0115802 1.0059394
1.0140958 1.0103325 1.0032661 1.0069735 1.0137439 1.0133247 1.0030601 1.0081269
1.0247705 0.9814357 1.026734 1.0049875 0.9956697 0.9943652 0.99157286 1.0144618
1.0108813 1.0012816 0.9758729 0.98656005 1.025 0.99655855 1.0081056 0.9989611
1.0245131 1.0037701 1.0052061 1.0174798 0.9976792 1.0189453 1.0072969 1.0065832
0.9831662 1.0168891 1.0154495 0.9909812 0.99283236 0.9963154 1.0209208 1.0070972
1.0124856 0.99590766 0.9802399 0.99477994 0.99027133 1.0245235 0.97910535 1.0000813
0.9881414 0.9990645 0.9848719 1.038029 0.9952046 1.0038347 0.98428667 1.0096337
1.0017483 0.9891651 0.98603123 0.9983053 0.99375623 1.0133727 0.99574625 1.0007987
0.97654814 1.0047408 0.99068564 0.99355656 0.99366075 0.9933275 0.9935402 0.99652547
1.0017916 0.9990437 1.0121026 0.9992818 0.9895077 0.9839421 0.98811436 0.9757963
