models/5s30s_next_day_mlp_fold3.pth (torch, 475164 bytes, 19 tensors)

network.0.weight f4 [256, 287]
000000 80 3c 74 3b 55 0b ae 3a 70 1b 02 3d 88 5d 07 3d
       0.0037267506 0.0013278524 0.031764448 0.033048183
000010 36 fe fb 3b 30 4f 29 bd 39 4e 6c bc 93 33 91 3c
       0.0076902164 -0.041335285 -0.014422947 0.017724788
000020 3d a5 c9 bc 6e d8 3e 3c 1f 90 00 bd da 1d f1 3c
       -0.024614925 0.011648281 -0.031387445 0.02943318
000030 82 b6 0f 3c a6 50 5a bd d0 2d b6 ba 0a 56 9d 3a
       0.008771541 -0.05329957 -0.0013899151 0.0012003791
000040 d1 b7 34 bd 5f ea 21 3d 37 de 2d bd a5 fa fe bc
       -0.044120613 0.039530154 -0.04244825 -0.031125376
000050 de a3 bf bb e7 ef dd 3b 1f be 0d bd 04 5b cc 3c
       -0.005848392 0.0067729834 -0.03460514 0.024945743
000060 10 76 89 bc a1 67 4a bc ce f6 78 bd 45 fa 58 3d
       -0.01677993 -0.012353809 -0.060782246 0.05297305
000070 af 37 1b 3b 5b 7d 71 bc 23 e4 4e bd f2 71 2a 3d
       0.0023684313 -0.01473936 -0.050510537 0.041612573
000080 d1 41 46 3d 00 07 64 3c 41 03 d6 3c b2 8b 5c bd
       0.04840261 0.013917685 0.026124598 -0.05384416
000090 9d 6c cd bc 1e 48 d7 3c de 44 10 bd 66 75 4d 3c
       -0.025076205 0.026279505 -0.035221927 0.012540197
0000a0 fa 5c 80 ba 47 30 0a 3d 64 18 34 bd 90 c4 27 3d
       -0.0009793334 0.033737447 -0.043968573 0.04095894
0000b0 36 d1 5e 3d 81 dd b3 bb 89 a8 46 bc f5 12 03 bd
       0.054398738 -0.005489052 -0.012125143 -0.0320005
0000c0 d3 98 f3 3b 80 f5 0c 3d d0 ae 7d 3d f2 e3 af 3a
       0.0074339896 0.034413815 0.061934292 0.0013419373
0000d0 89 3c 8a bd 20 01 0c 3c 85 f6 4a bd 93 c0 0a bd
       -0.067498274 0.00854519 -0.049551506 -0.03387506
0000e0 8c 0d 3c 3b fe 4f 4a 3d 63 9e 9d bc 23 cc ec 3c
       0.0028694598 0.049392693 -0.019240564 0.028905934
0000f0 0a ce 88 3d 46 0b 2c bd 36 73 ae bc f9 f1 30 3d
       0.06679924 -0.04200294 -0.021295171 0.043199513
000100 37 58 1f bb 7c 31 63 bb fd a7 00 3d 1a 16 15 bd
       -0.0024314055 -0.0034666946 0.031410206 -0.03639803
000110 79 36 29 bd 68 e8 4b bd c9 a7 40 bd ec f4 c2 bb
       -0.041311715 -0.049782187 -0.047035012 -0.005949607
000120 15 0d 1a 3c 05 51 e1 bc 66 77 a7 3b f8 6d 2f 3d
       0.009402533 -0.027504453 0.005110669 0.042829484
000130 ba 15 c1 3c 1f 59 44 bd 79 13 eb 3c 73 9b 06 3c
       0.02356993 -0.047936555 0.028695809 0.008215773
000140 5c 29 70 bd 6d 27 2d 3d 6c b1 08 3d f7 74 aa bb
       -0.058633193 0.042273927 0.033372328 -0.0052019316
000150 ac 3f 4b 3d 92 a5 8b bc 33 d9 76 3d 95 30 83 bc
       0.04962127 -0.017046724 0.06026573 -0.016014377
000160 1e 65 d7 3b c7 06 19 bd 14 b2 00 bd 60 4c 53 bd
       0.0065733334 -0.03735998 -0.03141983 -0.05158651
000170 78 1d 92 bc 1b 0a 07 bd 68 ba 85 bc d2 7a 16 bd
       -0.017836317 -0.03296862 -0.016324237 -0.036738224
000180 cc 50 3b 3d a5 63 50 bc 77 ef c0 bc 16 93 77 bd
       0.04573135 -0.01271907 -0.023551686 -0.060443006
000190 35 73 c3 bc 84 d1 60 bd 26 0c 30 3d 7c a4 dc bc
       -0.023858646 -0.05488731 0.042980336 -0.026933901
0001a0 fa 7d 59 3d b8 58 52 3c ea 17 44 3c ab 31 81 bc
       0.053098656 0.012838535 0.011968592 -0.015770754
0001b0 64 c9 06 3c da 7e f4 3c 13 57 14 3a a3 95 13 bd
       0.008226726 0.029845644 0.0005658727 -0.036031377
0001c0 a3 aa fb bc a9 d7 2d bd 97 34 d2 3c fd f1 bc 3a
       -0.030721014 -0.042441998 0.025659842 0.001441538
0001d0 07 35 b2 bb 8f 26 16 ba c8 98 fd 3c d6 97 0b 3a
       -0.0054384503 -0.00057277916 0.03095664 0.00053250545
0001e0 72 a5 6b 3d a7 56 cd 3c 1a 1c 49 3d f7 b7 0c bd
       0.057530828 0.025065733 0.049099065 -0.03435513
0001f0 4d e7 32 3d 96 a7 33 bd 97 b4 6d bc 9e 93 4a 3d
       0.043677617 -0.043860994 -0.014508388 0.049457185
000200 ef ba a5 bc df d2 08 3d 59 91 c8 3c f2 5a 0d 3d
       -0.020230738 0.033404227 0.02448337 0.03451056
000210 ee 5e 8b bc c1 e4 09 bd 8d d9 e3 3c 3b 0f 24 bc
       -0.01701304 -0.033665422 0.027813697 -0.010013397
000220 2b 4a f1 3c fb 6b 0d bd 99 e4 54 bd 80 05 17 bc
       0.029454311 -0.034526806 -0.05197582 -0.00921762
000230 06 a3 8b bd 83 de 93 bd d6 59 9f bd bb 5c 52 3d
       -0.06818204 -0.07220175 -0.07780807 0.051357966
000240 95 ff 8b 3d 50 b1 0f 3d 94 fe 17 3d 0c 03 db ba
       0.06835858 0.035081208 0.03710802 -0.0016709282
000250 3f 3b bb bc df 6b e8 3b 5d bb 59 3d cb 19 d5 bc
       -0.0228554 0.0070929374 0.0531572 -0.026013276
000260 19 03 d3 3b 53 dd ff 3c cc 0c 44 b9 14 96 21 bd
       0.0064395783 0.031233465 -0.00018696784 -0.039449766
000270 72 1c cd bc 7c 44 f4 3c 69 56 b0 3c d3 80 19 bd
       -0.025037978 0.029817812 0.021525579 -0.037476372
000280 80 9b 77 bd 13 df 83 3c a4 ef ef 3c be 8a bc 3c
       -0.06045103 0.016097581 0.029289074 0.023015376
000290 7c e5 a0 3a 75 d4 6f bd 41 33 ce bc e0 99 13 bd
       0.0012275423 -0.058552224 -0.025170924 -0.03603542
0002a0 87 8b 71 3c d5 bc dd 3c aa 6d 33 3d 10 b7 6b bc
       0.014742739 0.027067581 0.043805756 -0.014386907
0002b0 e3 29 83 3c ed 4a 48 bd ce bb b8 bc 15 e2 48 bd
       0.016011184 -0.04889958 -0.02255049 -0.049043734
0002c0 2b 52 34 bd 80 49 7c 3c b0 44 47 bb e3 93 e3 bc
       -0.044023674 0.015398383 -0.0030405931 -0.027780479
0002d0 20 d8 9d bb f5 47 52 3d 11 1f d2 bc 86 e3 2b 3d
       -0.004817024 0.051338155 -0.02564958 0.04196503
0002e0 71 8e 09 bd e2 cc 12 3d 44 e8 04 3c c4 64 43 bd
       -0.03358311 0.035839923 0.008112017 -0.04770352
0002f0 06 fe 65 3c 02 5d e4 bc 47 66 e7 bc 50 bb 21 bd
       0.014037615 -0.02787638 -0.028247012 -0.039485276
000300 8e a5 25 bd 43 9f 1a bd 96 3c 52 3c f9 ca 2a bd
       -0.04044109 -0.03774954 0.012831828 -0.041697476
000310 bb 8d 6b 3d 32 a8 9b bd 6e 23 9f 3c f2 1f 1f bd
       0.05750821 -0.0760044 0.019426074 -0.038848825
000320 36 4a fa bb 09 a7 d5 bc 83 f4 26 3c 66 15 5a bd
       -0.007638241 -0.026080625 0.010190132 -0.053243063
000330 78 c3 1b 3d ce b5 fc bc 53 a9 bf bc a2 6c f8 bc
       0.03802821 -0.03084841 -0.02339617 -0.030325238
000340 3b e5 be 3c 48 4c 65 bd 42 45 d6 bc 80 3d 01 bb
       0.023302665 -0.05598095 -0.026156072 -0.0019720495
000350 1a e3 63 bd b3 95 9c 3c 05 a1 fd bc 9e 6b 2c 3d
       -0.055636503 0.01911435 -0.03096057 0.04209482
000360 ea c3 10 3d 41 94 26 bd 27 89 24 bd 3d 3b 2f bd
       0.03534309 -0.04066873 -0.04016986 -0.042781103
000370 be a3 75 bb 23 12 3b 3d e2 ac 5c 3d 35 39 9c 3b
       -0.003748163 0.045671593 0.05387581 0.004767562
000380 b2 26 a8 bb 3c bd c1 3c c5 63 d9 bc be 31 37 3c
       -0.005131566 0.023649804 -0.026536832 0.011181293
000390 dc 63 f8 bc 9d 80 48 3d c2 16 a3 3c 70 23 4b bd
       -0.030321054 0.04895078 0.019908313 -0.049594343
0003a0 83 f3 85 3a a8 ee 9b bc 8b 0f ff bc 24 d8 45 bd
       0.0010219667 -0.019034699 -0.031135341 -0.04830183
0003b0 40 89 8d bc 38 af 29 3b 68 33 5b 3d 46 d4 b6 bc
       -0.01727736 0.0025891792 0.05351582 -0.022318017
0003c0 33 2e 01 bc 13 33 96 bd 32 07 2c bd 9d 39 1d bd
       -0.00788455 -0.073339604 -0.04199905 -0.038385022
0003d0 5f 7d 2a 3d d7 71 00 3d 36 39 af 3c ab a1 28 bd
       0.04162347 0.031358566 0.021389585 -0.041169804
0003e0 51 9b 31 bd 29 34 7a bd 94 b8 3d bd e8 2e dc 3c
       -0.043361012 -0.0610849 -0.046318606 0.026877835
0003f0 40 23 a2 3c 10 9f e1 bb e3 f4 ad bc 00 ce 06 bd
       0.0197922 -0.006885417 -0.021234935 -0.0329113

network.0.bias f4 [256]
000000 8d ea 51 3d 1b 67 06 3d 73 92 c0 bc 34 18 12 3d
       0.051249076 0.032813173 -0.023507332 0.035667613
000010 d3 f1 ee bc 0b 43 ec ba a5 1e 39 3b 26 0d 29 bd
       -0.029168045 -0.0018025351 0.0028247025 -0.041272305
000020 06 77 61 bd ce 81 1e 3d 59 78 a4 bc bf 22 1d 3d
       -0.05504515 0.03869801 -0.020076917 0.038363215
000030 4c f1 37 3d a2 2f 43 3d c5 8c 68 3d c2 a4 64 3d
       0.044907853 0.047652848 0.056774873 0.055821188
000040 b2 0f cf 3c 93 7e 05 3d ae 37 2d bc 59 75 04 3d
       0.025276039 0.032591414 -0.010572357 0.032338474
000050 e3 dd 02 bd c7 81 87 3b bb 7b 58 3d b3 3e 66 bd
       -0.03194989 0.0041353437 0.052852374 -0.05621214
000060 a7 5b ec 3c 8a 84 31 bc a1 55 05 3d e5 6b 49 bd
       0.028852297 -0.010834822 0.032552365 -0.049175162
000070 24 ad e8 3b c5 55 40 bd 0e c6 83 3d 4a 0e 09 3c
       0.007100718 -0.046956796 0.0643426 0.008365223
000080 aa 12 44 bd ef a4 7f bd be 60 0a bc af 30 f3 bc
       -0.047869362 -0.062413152 -0.008445917 -0.0296863
000090 6c 37 10 bc a5 a3 90 bc 2e c2 63 bd c6 3a 59 3c
       -0.008802276 -0.017656157 -0.055605106 0.013258642
0000a0 f2 55 48 3d 40 8d e2 3b ff 16 fb 3c b3 4d 56 bd
       0.04891009 0.006913811 0.030650614 -0.052320193
0000b0 b8 3e b7 bc d1 b3 40 bd be 27 0f 3d 31 d3 9f bb
       -0.022368774 -0.047046486 0.03495001 -0.004877471
0000c0 5c 28 70 3d fb 07 76 3a c1 e0 9b bc c8 ed a0 bc
       0.05863224 0.00093853445 -0.01902807 -0.019644633
0000d0 0a 66 7c bd 7a f7 f2 3c e2 72 0a bd 09 d7 ca 3c
       -0.06162075 0.029659022 -0.033800967 0.02476074
0000e0 d8 bd 0d bc 7c 50 3d bd 37 7e 95 3c 6c b0 cb 3c
       -0.008651219 -0.046219334 0.01824866 0.024864398
0000f0 e4 b0 0a 3d 3d 71 22 3d ec 55 11 bd 8a 84 ac 3c
       0.033860102 0.039658774 -0.035482332 0.021059293
000100 34 39 cc bb d3 9e c3 3c a2 bb 0f 3c 48 1a 5f 3d
       -0.006232405 0.023879444 0.0087727625 0.054468423
000110 8a 35 57 bd 44 e0 5a 3d d1 9d e1 3c e9 62 79 3b
       -0.052541293 0.053436533 0.027541073 0.003805334
000120 78 91 44 bb af 41 2c bd f2 19 bd bc cc a6 19 3d
       -0.0029993933 -0.04205483 -0.02308366 0.037512586
000130 53 55 1a bd 31 a6 21 3c d7 74 01 bd 68 f7 68 bc
       -0.037679028 0.009866283 -0.031605568 -0.0142191425
000140 96 7f 11 3d 6f 72 4f 3d 7a 7f df 3c a0 8e b0 3c
       0.035522066 0.05064624 0.027282465 0.021552384
000150 23 08 aa bb a4 26 c6 bc dd fc 58 bc 33 9d f2 bb
       -0.0051889583 -0.024188347 -0.013243881 -0.0074039935
000160 1b 62 ec 3c 7f b4 ac bc 99 5f 82 3d 91 5e d9 bc
       0.028855374 -0.021082161 0.0636589 -0.02653435
000170 78 40 5f bc 74 f3 9a bc 78 02 b4 3c b3 02 32 bd
       -0.01362621 -0.018914916 0.021973833 -0.043459605
000180 6f 94 bc bc b5 22 31 3c 23 07 68 3c 3b 1b 28 3b
       -0.023019997 0.010811497 0.014161858 0.0025650996
000190 ab 7a 91 3c 83 d5 e7 bc 01 7a 6e bd 91 79 43 bd
       0.017758688 -0.028300053 -0.05822182 -0.047723357
0001a0 01 21 5a 3d b0 a3 5a bd 60 d6 61 3d 5e ba d8 3c
       0.05325413 -0.05337876 0.055136085 0.026456054
0001b0 2b 8f 2f 3d 6d 1c 18 3c 25 29 b7 3c a0 34 b4 3c
       0.042861145 0.009284121 0.022358486 0.02199775
0001c0 55 25 3c 3c 94 69 02 3d ee a2 5c bc e3 e8 70 bb
       0.01148351 0.03183897 -0.01346658 -0.0036759905
0001d0 14 59 be bb 34 1c f2 bc 39 56 5c bd 53 e7 a9 3a
       -0.005808959 -0.029554464 -0.053793166 0.0012962617
0001e0 71 42 0c bc 95 c0 15 bd 3d 01 63 bd cc c3 3b 3c
       -0.008560763 -0.036560614 -0.055421103 0.011460256
0001f0 87 94 f5 bc fb 71 3c bd 61 06 56 bd f4 44 72 3c
       -0.02997805 -0.046007138 -0.052252177 0.0147869475
000200 25 0d c0 3c bb f8 8f bc 8d a1 37 ba 27 09 f3 3c
       0.023443768 -0.017574659 -0.0007004969 0.02966745
000210 4e e3 31 3d e0 52 41 3d 17 e2 43 3b 05 01 d9 3c
       0.043429665 0.047198176 0.0029889399 0.026489744
000220 9e de cd bb c3 2d 8d 3c 39 d1 91 bb ae 90 0b 3c
       -0.0062826416 0.017233735 -0.00444999 0.008518381
000230 00 41 0f bd 03 a9 06 bd 10 cf 94 bb 22 eb df bc
       -0.0349741 -0.032876026 -0.0045412853 -0.0273338
000240 08 40 30 3d 1a 5b 4e b9 4f 5a 6f 3d d6 2a 78 3d
       0.043029815 -0.00019679629 0.058435734 0.060587727
000250 06 b4 be 3c 37 b3 2a 3d 40 a7 c3 3b 50 92 28 3d
       0.023279201 0.04167482 0.0059708655 0.04115516
000260 d0 02 8b 3d 36 9e e8 bc 2d 41 5b 3c 45 ba 49 3d
       0.06787646 -0.028395753 0.013382238 0.049249906
000270 82 ca 16 3d c0 59 cc bc a1 8b 3d 3d bb b9 5d 3d
       0.03681422 -0.02494514 0.04627574 0.054132205
000280 45 4c 84 bd d8 06 9b 3c 5e 7e 21 bd b5 43 f4 bc
       -0.0645986 0.018924162 -0.039427154 -0.029817441
000290 5f 5a 70 3c 19 83 0a 3d eb 09 96 3a 10 53 18 3d
       0.014669984 0.03381643 0.0011447048 0.03718859
0002a0 a0 4c 1e bc 55 a0 12 3d 25 65 12 bd 29 9d 0a 3d
       -0.0096618235 0.035797436 -0.03574099 0.033841286
0002b0 5e 89 96 3d c9 3f 02 bd 84 70 47 3c 09 30 0d 3b
       0.073504195 -0.03179911 0.012172822 0.0021543524
0002c0 56 54 8f 3d 6c ce 3f bc db 7f 68 3b e3 4f 6f 3d
       0.06998508 -0.01170693 0.0035476598 0.058425795
0002d0 75 a7 54 bb 73 bb 39 3d 8b 69 26 3d 27 96 36 b9
       -0.0032448445 0.04534478 0.040627997 -0.00017412809
0002e0 42 15 8c bc c8 85 0f bd f5 49 28 bd 91 f3 fb bb
       -0.01709998 -0.035039693 -0.041086156 -0.0076889475
0002f0 3d 64 b8 bb 33 9e 4a 3d 3f 35 bb 3c d7 86 e2 3c
       -0.0056271837 0.049467277 0.022852538 0.027652187
000300 4b 0e 2d 3c 98 02 1d bd 48 7a 0e 3d 40 6b 21 3d
       0.01056249 -0.03833255 0.034784585 0.039408922
000310 ec 96 39 bc 1b a4 19 bd 45 59 08 3d 99 e7 47 3d
       -0.0113274865 -0.03751002 0.03328826 0.048804853
000320 90 14 1b bc 9f a9 9e bc 7a 8c b1 3c a3 e1 98 bc
       -0.009465352 -0.019367991 0.02167343 -0.01866228
000330 8d 10 dc bc 2a 8d 76 bc 47 2c 6b bb 9f a0 fb 3c
       -0.02686336 -0.015048305 -0.0035884546 0.030716239
000340 de 08 ed bc 89 99 35 3d 6d 5a 39 bd 6a 00 2f 3d
       -0.028934892 0.044335876 -0.045252252 0.042725004
000350 e7 c9 bb ba 0b b8 40 3d 42 b8 56 bc 5e fe fa 3c
       -0.0014327139 0.047050517 -0.013105454 0.03063887
000360 ea a0 d3 bc 8d 0d ec 3c 12 18 14 3d 05 79 b3 bc
       -0.025833566 0.028815055 0.036155768 -0.021908293
000370 73 70 69 3d 56 cc c7 bc d4 bb 8d bd e4 08 2d 3c
       0.056992006 -0.024389427 -0.06920591 0.010561202
000380 4e 2f 20 bc 2e f0 39 bd e2 9a 59 3d 4d 78 7e 3d
       -0.009776903 -0.04539507 0.053126223 0.062126447
000390 88 a2 53 3b f7 ab db bc f3 df 37 bc 8a 12 4a bd
       0.003229292 -0.026815398 -0.011222827 -0.049334086
0003a0 25 33 da bc 99 ab 23 3d 92 bb 89 bd 50 3f de 3c
       -0.026635716 0.03995857 -0.06725229 0.0271298
0003b0 eb 53 77 3c eb f2 52 bc af 24 5b 3d 65 8e e9 3c
       0.015095691 -0.012875299 0.05350178 0.028510282
0003c0 64 a4 75 3c 18 9d 16 bd a2 6c 38 3d 49 4c af 3c
       0.014992807 -0.03677091 0.045025475 0.02139868
0003d0 1f 3b 0d 3d e4 51 f3 bb 81 be 65 bd f0 db 36 3d
       0.03448021 -0.0074255336 -0.05608988 0.044643342
0003e0 5f e8 e6 bc b0 3c 49 bd a4 b2 72 bd 20 dd 0e 3c
       -0.028186975 -0.04913014 -0.059252396 0.0087197125
0003f0 9c fa 10 3c 6e f2 23 3d 11 50 32 3d fd 28 47 3d
       0.008848812 0.04002612 0.04353339 0.048623074

network.2.weight f4 [256]
000000 43 e7 7c 3f 70 4d 80 3f 65 b9 81 3f b0 58 82 3f
       0.9879038 1.0023632 1.0134703 1.0183315
000010 a7 ee 79 3f 14 23 7e 3f 3b 8e 80 3f 90 9f 7e 3f
       0.9762978 0.99272275 1.0043405 0.99462223
000020 00 8d 7f 3f 3d 34 7d 3f 03 dc 81 3f 9f 13 84 3f
       0.99824524 0.98907834 1.0145267 1.0318488
000030 6b fb 7c 3f e3 55 80 3f 10 fb 7d 3f b1 2b 7b 3f
       0.98821133 1.002621 0.99211216 0.9811354
000040 8c 0b 80 3f fc 56 80 3f 88 8a 7d 3f 8e 2c 7e 3f
       1.0003524 1.0026546 0.99039507 0.99286735
000050 29 4f 82 3f be 30 7c 3f cf 16 80 3f 24 37 80 3f
       1.0180408 0.98511875 1.0006961 1.0016828
000060 1a d4 7c 3f 9b 5b 7e 3f 2f fd 7c 3f 0f 12 82 3f
       0.9876114 0.9935853 0.9882383 1.0161761
000070 78 e7 82 3f a6 b8 7f 3f 25 93 7f 3f 55 29 81 3f
       1.0226889 0.99891126 0.998339 1.0090739
000080 b3 ea 7c 3f 81 40 81 3f 20 54 80 3f 5b 88 7b 3f
       0.9879562 1.009781 1.0025673 0.98254937
000090 0b 78 80 3f 24 95 80 3f 8f 95 81 3f 36 b3 7e 3f
       1.0036634 1.0045514 1.0123767 0.99492204
0000a0 4f a1 80 3f 6f 65 84 3f ad 07 80 3f 3f b3 7f 3f
       1.0049227 1.0343455 1.0002342 0.9988288
0000b0 f3 b7 81 3f 30 b8 7e 3f c2 7e 81 3f 1e 7b 7b 3f
       1.0134262 0.994998 1.0116808 0.98234737
0000c0 48 9e 81 3f 54 a0 80 3f a8 7f 7e 3f c5 7d 7b 3f
       1.0126429 1.0048928 0.9941354 0.98238784
0000d0 fb 3c 80 3f d9 59 7d 3f 6b 3d 81 3f 1f 08 7f 3f
       1.001861 0.9896522 1.0096868 0.99621767
0000e0 e8 0f 7f 3f bb 20 7d 3f 0b a1 79 3f cb aa 7f 3f
       0.99633646 0.9887807 0.9751136 0.99869984
0000f0 ce f7 7a 3f 7c 19 7d 3f 95 ca 7c 3f fd 6c 7f 3f
       0.9803437 0.9886701 0.98746616 0.9977568
000100 71 8c 81 3f b8 7e 7a 3f e0 14 7f 3f 6d 96 80 3f
       1.0120984 0.9784961 0.9964123 1.0045906
000110 b3 46 81 3f 33 3f 7f 3f fe e6 81 3f 37 1f 82 3f
       1.0099701 0.9970581 1.0148618 1.0165776
000120 5b 58 7c 3f 5d 25 83 3f ab 5f 7c 3f bc e2 80 3f
       0.9857232 1.0245777 0.9858348 1.0069194
000130 1f 2c 7d 3f e9 ff 7d 3f 51 4d 83 3f 27 1c 83 3f
       0.9889545 0.9921861 1.025797 1.0242966
000140 9e 7b 7e 3f 75 3e 82 3f 46 d9 7f 3f 29 d5 81 3f
       0.99407375 1.017531 0.9994091 1.0143176
000150 f6 2e 7d 3f 99 b5 7e 3f 34 f0 7f 3f 0e 65 7f 3f
       0.9889978 0.99495846 0.99975896 0.9976357
000160 e9 06 7f 3f 54 d6 81 3f 4a 97 81 3f 34 25 7f 3f
       0.9961992 1.0143533 1.0124295 0.9966614
000170 49 1a 81 3f d1 c1 7c 3f eb 26 80 3f d2 0c 7f 3f
       1.0086147 0.9873324 1.0011877 0.9962894
000180 6d 65 81 3f e9 b6 80 3f f1 a4 7e 3f 40 f8 81 3f
       1.0109078 1.005582 0.9947043 1.0153885
000190 dd 9f 80 3f bb 49 80 3f e2 aa 7c 3f 6b 40 82 3f
       1.0048786 1.0022501 0.98698246 1.0175909
0001a0 0c d5 7f 3f 70 74 83 3f 4b 00 81 3f 0c 98 7d 3f
       0.9993446 1.0269909 1.0078214 0.9906013
0001b0 c1 ee 7f 3f 17 d9 81 3f b1 84 81 3f 03 b6 81 3f
       0.99973685 1.0144376 1.0118619 1.013367
0001c0 1b 29 80 3f 9c a0 82 3f b4 6b 7c 3f 41 96 7f 3f
       1.0012544 1.0205264 0.9860184 0.99838644
0001d0 7a 27 7e 3f b1 34 7e 3f f4 6c 7f 3f ff fc 7e 3f
       0.99278986 0.9929915 0.99775624 0.9960479
0001e0 a1 9d 7e 3f 80 b5 81 3f 8c 73 80 3f fa 16 82 3f
       0.9945927 1.0133514 1.0035262 1.0163262
0001f0 eb 4a 81 3f 47 b9 7f 3f de d2 7d 3f ec 66 80 3f
       1.0100988 0.99892086 0.9914988 1.0031409
000200 51 96 7d 3f 4f b7 7a 3f fa af 81 3f 59 40 81 3f
       0.9905749 0.97935957 1.0131829 1.0097762
000210 aa b8 7d 3f 3a bc 7f 3f e1 57 80 3f ab b0 7e 3f
       0.991099 0.99896586 1.0026819 0.99488324
000220 68 e6 7b 3f 27 d3 7f 3f 13 48 81 3f 6a 9d 7d 3f
       0.9839845 0.9993157 1.010012 0.9906832
000230 4d 5d 81 3f 3c 2e 7c 3f 5c c8 7e 3f ec 6f 7a 3f
       1.0106598 0.9850805 0.99524474 0.9782703
000240 2c f6 7c 3f 69 4b 81 3f b1 ef 7c 3f 0f 8a 7d 3f
       0.9881313 1.0101138 0.9880324 0.99038786
000250 0c 90 82 3f 52 f2 7d 3f 74 6d 7f 3f 07 01 7e 3f
       1.020021 0.99197876 0.9977639 0.9922032
000260 50 ee 7f 3f f1 53 7c 3f f0 26 82 3f 2b 13 80 3f
       0.9997301 0.98565584 1.0168133 1.000585
000270 32 1f 80 3f 97 28 7e 3f d2 8e 7f 3f c9 33 7d 3f
       1.000952 0.99280685 0.998273 0.9890714
000280 69 16 82 3f b4 55 81 3f ac 86 80 3f ea 79 80 3f
       1.0163089 1.010428 1.0041099 1.0037205
000290 7c a8 7c 3f e8 88 81 3f af 7b 80 3f ff 9e 7c 3f
       0.98694587 1.0119905 1.0037745 0.9868011
0002a0 6e 96 81 3f 0f 4d 81 3f e2 c4 7e 3f 8f 89 79 3f
       1.0124032 1.0101641 0.9951917 0.9747552
0002b0 1a 9c 81 3f f4 44 80 3f 52 b8 80 3f 36 d2 7c 3f
       1.0125763 1.0021043 1.005625 0.98758256
0002c0 5b a2 80 3f 93 f3 7f 3f ba 8f 7e 3f c9 bb 7e 3f
       1.0049547 0.9998104 0.9943806 0.9950529
0002d0 43 8b 7e 3f d8 c0 80 3f b6 dd 7d 3f e5 71 7f 3f
       0.99431247 1.0058851 0.9916643 0.99783164
0002e0 3c 31 7f 3f 20 76 7e 3f fc f2 7f 3f 81 ab 80 3f
       0.996845 0.99398994 0.9998014 1.0052339
0002f0 91 2b 80 3f de 82 81 3f 14 61 80 3f ef ba 7d 3f
       1.0013295 1.0118062 1.0029626 0.99113363
000300 6a ab 82 3f 8f 92 80 3f b6 7b 7f 3f 3e 5c 7c 3f
       1.0208561 1.0044726 0.9979814 0.9857825
000310 ba 7b 7e 3f df 36 80 3f 5c fa 7a 3f 82 54 7f 3f
       0.9940754 1.0016745 0.9803827 0.99738324
000320 32 8b 7e 3f 6d f1 7e 3f b1 8f 7d 3f be c0 7c 3f
       0.99431145 0.99587137 0.9904738 0.987316
000330 aa b6 83 3f 45 b4 7a 3f b6 23 80 3f c8 a6 80 3f
       1.029012 0.9793132 1.0010898 1.0050898
000340 66 42 7b 3f 63 e3 7f 3f be ac 80 3f 1f 5b 80 3f
       0.9814819 0.9995634 1.0052717 1.0027808
000350 93 df 7f 3f 2c b7 81 3f a0 61 82 3f 7b 1a 7e 3f
       0.9995052 1.0134025 1.0186043 0.99259156
000360 60 39 82 3f 85 93 7f 3f 7d 36 81 3f 23 2e 7e 3f
       1.017376 0.9983447 1.0094754 0.9928915
000370 e7 c4 80 3f 7e 89 80 3f 17 24 7f 3f 66 b1 7f 3f
       1.006009 1.0041959 0.99664444 0.99880064
000380 ff 64 81 3f 17 df 7e 3f b5 06 7c 3f 81 25 80 3f
       1.0108947 0.9955916 0.98447734 1.0011445
000390 08 ba 7e 3f 56 85 7c 3f d0 e8 7d 3f 57 d7 7f 3f
       0.9950261 0.98640954 0.9918337 0.9993796
0003a0 a9 6b 7f 3f fb 2a 7e 3f ab 39 80 3f 07 2c 7f 3f
       0.9977365 0.99284333 1.0017599 0.99676555
0003b0 86 9f 80 3f 46 7d 7b 3f 14 25 81 3f 87 d2 7b 3f
       1.0048683 0.9823803 1.008944 0.98368114
0003c0 c3 2c 7c 3f 08 00 7f 3f 6a 35 82 3f 21 88 82 3f
       0.985058 0.9960942 1.0172551 1.0197793
0003d0 49 7c 7b 3f 4a 3f 80 3f 8b 19 7e 3f 68 9f 81 3f
       0.9823652 1.0019314 0.99257725 1.0126772
0003e0 7f 79 80 3f 7f 21 7d 3f 52 80 7e 3f d4 95 80 3f
       1.0037078 0.98879236 0.9941455 1.0045724
0003f0 b2 73 7e 3f 1d 92 81 3f 2e 82 7c 3f 03 c7 81 3f
       0.9939529 1.0122715 0.9863614 1.0138859

network.2.bias f4 [256]
000000 ab e4 8c bb db f8 04 3c 73 dd 80 3c 4c e4 8a 3c
       -0.0042997203 0.008115972 0.015730595 0.016954564
000010 a9 a5 26 3a 86 3b 1c 3b 5d b7 7e bb 10 bd 2f bc
       0.0006357083 0.002383919 -0.0038866617 -0.010726228
000020 32 32 d1 3b 7b 6b 68 3c ba d3 08 bc f0 2f 2d 3c
       0.0063841576 0.014185782 -0.008351261 0.010570511
000030 b6 a9 26 3c 2a c8 5e 3c 56 37 a9 3b 9b aa 97 bc
       0.010172298 0.0135975275 0.0051640673 -0.018513968
000040 3f a1 55 bb a7 2c 26 ba ec d9 b0 bc 5f 91 a0 bc
       -0.003259733 -0.0006339051 -0.021588288 -0.019600568
000050 7b 5b 3b bb 54 cf 04 bc a6 8d aa 3c 66 69 8a 3b
       -0.0028588462 -0.0081060715 0.020819496 0.0042239903
000060 99 94 63 bc 73 07 48 3c 30 77 c5 bb 2b f7 9e 3a
       -0.013890409 0.012208807 -0.006026171 0.0012128105
000070 a8 09 05 bc 43 61 17 3c 9e 4c 89 3c 38 dc 0b bc
       -0.008119978 0.009239498 0.016760167 -0.008536391
000080 45 79 82 bc dd 56 8f bc d4 9d e5 bb f6 8e f3 bb
       -0.015926966 -0.017497474 -0.00700734 -0.0074328138
000090 f2 36 7d bb 48 f8 31 bc 27 c0 cf 3b ab 5b 18 3c
       -0.0038637486 -0.0108624175 0.006340045 0.009299199
0000a0 da 49 6a ba b9 06 6e 3c 5a 6f be bb 4b d7 4f bb
       -0.00089373963 0.01452797 -0.005811614 -0.0031714018
0000b0 87 16 f3 3b dc 5a 5a 3b 33 fe 0d 3a be a6 e2 bb
       0.007418457 0.0033318317 0.0005416602 -0.00691685
0000c0 c6 cc 88 ba f7 75 59 3c e1 4b 54 bc 28 1f 26 bc
       -0.0010437004 0.013272754 -0.012957544 -0.010139264
0000d0 c8 61 5c bc a6 7d 0c 3c a5 83 91 3c 83 e2 4f 3c
       -0.013451047 0.008574879 0.017762968 0.012688282
0000e0 d8 7e 9d b9 07 f5 34 3b a5 0b 76 bb ac 2b 86 ba
       -0.0003003988 0.0027611868 -0.0037543562 -0.0010236404
0000f0 76 2e 1a bc 3b 65 1a 3a 3c 74 88 bc cc b0 17 3c
       -0.009410491 0.00058897183 -0.016656987 0.00925846
000100 7c 85 59 3c ca 1f 00 bc dd 3c 4a 3b d3 d2 8f 3b
       0.013276454 -0.007820079 0.0030859031 0.004389146
000110 fe 26 c2 bb 8d 82 c2 bb 6f 81 02 3b be 12 a9 3c
       -0.0059250584 -0.005935973 0.0019913574 0.02063882
000120 8f 79 e2 3b f7 44 50 3c c3 03 58 bc 1d 69 bb bc
       0.0069114636 0.012711755 -0.013184491 -0.02287727
000130 47 41 29 bc a9 c6 0c bb 45 a2 76 bc 33 b8 03 bb
       -0.010330505 -0.0021480715 -0.0150533365 -0.0020098805
000140 3a fa 16 3b be 83 33 bb 57 d6 2d bc c2 bf 25 b9
       0.002303733 -0.0027391757 -0.010610185 -0.00015807062
000150 cf 50 e8 3a c5 1b bc ba 17 cf f2 bb 0c 9e ee bb
       0.0017724278 -0.0014351538 -0.007409941 -0.0072820242
000160 1f 35 6b 3b 53 65 85 bc 0b 45 fe bb 0a 8f 19 bc
       0.0035889817 -0.016283667 -0.0077596954 -0.009372482
000170 0a da 81 3c 64 39 23 3a 8a 8b a5 bb ca f2 3e 3c
       0.01585104 0.00062265084 -0.0050520347 0.011654565
000180 78 6d 05 3b b8 96 91 bc c6 9e 0a bc 71 61 93 3b
       0.0020359438 -0.017772064 -0.008460706 0.0044977
000190 88 69 a8 3c 66 d7 07 bc a4 18 c5 3b d0 82 8e bc
       0.020558134 -0.008291101 0.0060149003 -0.01739636
0001a0 c0 b2 b0 bc 04 2e e6 3b 9d a8 e8 3b 4b 1a 05 bb
       -0.02156961 0.0070245285 0.0071001784 -0.0020309861
0001b0 18 8a d1 3a c8 f4 9c bc 9b 42 47 bc 5c 17 73 3c
       0.001598659 -0.01915969 -0.012161876 0.014837112
0001c0 0d 8e ea 39 34 ef 09 3b 93 51 8d 3b df cc 5d bc
       0.00044737794 0.0021047117 0.004312703 -0.013537615
0001d0 29 70 63 bc f6 21 28 3b 84 d2 a3 bc 18 e8 67 bc
       -0.0138817215 0.0025655008 -0.019997843 -0.014154457
0001e0 97 1d a2 3b 86 cf 0d 3a cf 36 3a 3c 94 a8 44 bc
       0.004947375 0.00054096465 0.011365606 -0.012003083
0001f0 09 ec 29 bc 29 db 12 bd da e0 b9 3b ad aa e9 bb
       -0.010371217 -0.03585354 0.0056725563 -0.007130942
000200 45 1b 17 bb 4e 17 f6 bc 11 e0 f6 3a 87 8a 3c bc
       -0.0023057025 -0.03004041 0.0018835088 -0.011507637
000210 e6 c6 67 ba 81 8b 98 39 9d 96 4e 3b f5 1a d9 bb
       -0.0008841589 0.00029095638 0.0031522878 -0.006625528
000220 21 4d 15 3c bf 6c 7b ba 4c 61 25 bc 63 da ad 3b
       0.009112627 -0.00095910946 -0.010093998 0.0053055747
000230 f6 26 e6 3b d7 27 bf bb 23 5c 01 bc 2c 76 f8 ba
       0.0070236875 -0.0058336067 -0.007895502 -0.0018956116
000240 e7 18 16 3c 5b d8 07 bc 64 e0 f5 3b ba 16 5c bb
       0.009161211 -0.008291329 0.007503556 -0.0033582882
000250 34 00 31 bb 4b 7e 1f 3b d7 5e 27 bb ad e0 bd 3c
       -0.0027008178 0.002433675 -0.0025538707 0.023178423
000260 89 53 b4 b9 d2 02 36 bc 83 ab 0e bb b6 a9 33 3c
       -0.00034394514 -0.011109071 -0.002176971 0.010965755
000270 10 b8 36 3b dc 09 00 3c 1c 41 36 bc dc 45 cd bb
       0.0027880706 0.007814851 -0.011123922 -0.0062644314
000280 23 93 53 bc 08 4e 35 bc 04 fa a4 bb e8 b8 ac 3b
       -0.012913498 -0.011065967 -0.005034687 0.005271066
000290 c5 34 89 3b d3 e5 87 bc 19 0d 10 bc b5 39 2d bc
       0.004187199 -0.01658908 -0.008792185 -0.01057284
0002a0 b7 2d 87 3b d2 30 b7 3b e7 83 90 bc 43 b1 94 3b
       0.0041253227 0.0055905366 -0.017641021 0.004537733
0002b0 53 20 ac 3b 48 ce f8 3a 37 08 95 3b f8 a7 d6 3b
       0.005252877 0.0018982375 0.0045480984 0.006550785
0002c0 4c fc 10 bb 11 7b d6 ba 9c 50 11 b9 69 8d d8 3c
       -0.0022123037 -0.0016363581 -0.00013858307 0.026434617
0002d0 a7 d2 e9 3c d9 d5 69 3b 5f 53 8c bc 56 51 e8 3b
       0.02854283 0.0035680442 -0.017129598 0.007089774
0002e0 f2 41 d3 3b dc 13 69 3c 36 86 c0 3a b9 2b 9f 3b
       0.0064470703 0.014225926 0.0014688435 0.004857507
0002f0 9c 7d 8c bb 7f e8 8f bc 7a e3 97 bb 5f 70 41 bc
       -0.0042874347 -0.017566917 -0.0046352716 -0.0118065765
000300 79 2a bc bb 75 65 7c bc 65 ba a4 bb 15 dd 0a 3c
       -0.005742368 -0.015405049 -0.005027103 0.008475562
000310 91 35 00 bc 56 92 76 3b 71 83 9f 3b 1f 09 26 3c
       -0.007825271 0.0037623844 0.004867964 0.010134011
000320 a9 10 20 bc 15 5e 8c 3c 40 39 6d 3c 82 42 8b 3c
       -0.009769597 0.017134706 0.0144789815 0.016999487
000330 5b 9b 04 3c d2 33 bc 3a fb 1e 2d 3c 04 d7 07 bc
       0.00809368 0.0014358705 0.010566468 -0.00829101
000340 a1 de c2 bb e9 db 94 bb f5 76 28 3c 3b 91 60 bb
       -0.0059469496 -0.004542817 0.010282268 -0.0034266252
000350 94 e1 dc 3a 27 3d 6a bc a2 a9 99 b9 d6 50 a5 bc
       0.0016851895 -0.014296806 -0.0002930882 -0.020180147
000360 f5 a9 cc 39 1d 02 15 3b 58 5e 4c bb ff 9b 67 3b
       0.0003903654 0.0022736855 -0.0031184163 0.0035340784
000370 1d 5b 27 3c ce 5f 0d 3b e2 1c 3a 3b 34 f2 1a bc
       0.010214594 0.0021571997 0.0028398563 -0.00945716
000380 54 9c 3d ba ec a5 12 3b 9d 85 10 3b 5f 10 30 bb
       -0.00072330725 0.002237673 0.0022052296 -0.0026865227
000390 4f 06 20 3c fa e0 0e bb 52 8b e7 bb 86 37 14 3c
       0.009767129 -0.0021801577 -0.007066169 0.009046441
0003a0 38 74 a4 3c 7b d5 17 bb 4f 46 90 3c 2a 7b e8 bb
       0.020074949 -0.0023168016 0.01761165 -0.0070947604
0003b0 37 96 96 3c 0c 3f 04 bc fe 50 c7 3b 3a 63 56 bc
       0.018382175 -0.008071672 0.006082653 -0.013085181
0003c0 cc b0 53 3c 3b 21 4c 3c bb 2d 8c 3c 3b 53 06 3c
       0.01292057 0.012459095 0.01711165 0.008198555
0003d0 be 9f db 3b b8 08 6d 3b e4 34 84 bc 45 a1 dc 38
       0.0067023924 0.0036168527 -0.016138501 0.00010520456
0003e0 b9 14 05 bd a1 8f 65 3c 52 d4 12 3c 0f 1f 44 3b
       -0.032490466 0.014011295 0.008961754 0.002992574
0003f0 0c 6f b7 ba 48 e0 62 bc e8 57 37 bb 1d cc 99 3b
       -0.0013994887 -0.013847418 -0.002797598 0.0046935217

network.2.running_mean f4 [256]
000000 93 43 a8 3e 13 95 d2 3e d3 25 b8 3e c6 14 d9 3e
       0.32864055 0.4112936 0.35966358 0.4239866
000010 65 24 a7 3e 3b c6 c7 3e bb d7 e8 3e 1e 22 c6 3e
       0.32644954 0.39018425 0.4547709 0.38697904
000020 5f a1 bf 3e 21 ae a5 3e 5f 1f a7 3e 0c 5b cf 3e
       0.37427804 0.32359412 0.32641122 0.4049915
000030 a7 c8 9e 3e 3f fd e0 3e 37 a2 c4 3e 48 0d be 3e
       0.3101246 0.4394321 0.3840501 0.37119508
000040 23 d4 01 3f 34 5f c4 3e 11 f6 ad 3e 40 c7 b1 3e
       0.5071432 0.38353884 0.33976796 0.34722328
000050 f3 b8 05 3f 7b 5f d3 3e 9e a6 c1 3e b6 58 e1 3e
       0.52235335 0.41283783 0.3782243 0.44012994
000060 d0 df 95 3e f0 7e 83 3e e6 26 de 3e bb 13 a3 3e
       0.29272318 0.25682783 0.43389052 0.3185099
000070 e4 68 13 3f 90 2b c9 3e ae 1d b9 3e 80 0f a1 3e
       0.57581925 0.39291048 0.36155456 0.31457138
000080 f7 6a e7 3e ea ac a6 3e a4 74 96 3e 04 1a c1 3e
       0.45198795 0.32553798 0.29385865 0.3771516
000090 f8 e5 ab 3e 3f 14 ae 3e 37 6f 1d 3f 41 fc d9 3e
       0.3357389 0.33999822 0.61497825 0.42575267
0000a0 50 3d 8a 3e 75 3c e2 3e 9f cc dd 3e 3b 82 a0 3e
       0.26999903 0.4418675 0.43320176 0.31349358
0000b0 56 96 b7 3e f8 f0 a9 3e 40 d8 96 3e e3 0b b9 3e
       0.35856885 0.33191657 0.2946186 0.3614188
0000c0 60 3f d7 3e 95 85 c2 3e b0 28 a0 3e 6f 78 8b 3e
       0.4204054 0.3799254 0.31281042 0.2724032
0000d0 b0 94 c7 3e af da db 3e 21 21 f7 3e 40 99 01 3f
       0.38980627 0.4294028 0.48267463 0.50624466
0000e0 83 bd c9 3e 52 d0 af 3e db b7 9f 3e 7c 38 e2 3e
       0.39402398 0.34338623 0.31194958 0.4418372
0000f0 c6 41 90 3e 96 e2 90 3e b4 b1 93 3e 6e fa ab 3e
       0.2817518 0.2829787 0.28846514 0.335895
000100 dc c0 a7 3e 5a 6a b0 3e ff d2 d5 3e 9e d6 e1 3e
       0.32764328 0.3445614 0.4176254 0.44109052
000110 69 17 c7 3e 7e 09 f4 3e 85 86 95 3e 8d ed e4 3e
       0.38885048 0.47663492 0.29204193 0.44712487
000120 3f cc 9f 3e 86 6e c3 3e ad 3e a2 3e 04 6c 04 3f
       0.31210515 0.3817026 0.31688443 0.5172732
000130 18 e4 ad 3e 8a 4f e7 3e 74 e8 de 3e 4b a8 9d 3e
       0.33963084 0.4517787 0.43536723 0.3079246
000140 26 17 df 3e 19 4f b3 3e a6 4c dd 3e 0d 99 cb 3e
       0.43572348 0.35021284 0.4322254 0.39765206
000150 e3 49 b3 3e 0e 3b f9 3e 7d 00 b4 3e 2f 54 8c 3e
       0.3501731 0.48677868 0.35156623 0.27407977
000160 f4 fb 90 3e 08 d5 c8 3e 02 4d b1 3e 45 5a 9d 3e
       0.28317225 0.3922503 0.34629065 0.30732933
000170 7c bd b8 3e b9 1e eb 3e 72 e7 0e 3f 25 34 b3 3e
       0.36082065 0.45921877 0.5582191 0.3500072
000180 a1 8b b0 3e f7 ce d4 3e bc b6 bf 3e 39 76 c7 3e
       0.34481528 0.41564152 0.37444103 0.38957384
000190 b4 85 9d 3e bb 24 e3 3e 4b 97 89 3e dd 28 ca 3e
       0.3076607 0.4436396 0.2687324 0.394843
0001a0 06 9d cb 3e 0a 3a 9a 3e 40 a7 b7 3e e8 3d d4 3e
       0.39768237 0.30122405 0.3586979 0.4145348
0001b0 5f 4d 01 3f b6 48 b8 3e 87 b4 e0 3e 42 a0 04 3f
       0.50508684 0.35992974 0.4388773 0.51807034
0001c0 5e 2d bb 3e e4 53 c4 3e 6c f7 bb 3e d9 06 ba 3e
       0.3655805 0.38345253 0.36712205 0.3633335
0001d0 b0 28 91 3e 0e 79 db 3e 5e c1 db 3e ca 36 13 3f
       0.28351355 0.42865795 0.42920965 0.57505476
0001e0 b4 2b 97 3e 3a 82 da 3e 90 29 aa 3e 3b c5 e2 3e
       0.2952553 0.4267748 0.33234835 0.442911
0001f0 23 56 bc 3e b8 db 80 3e a0 5e 8a 3e 84 b9 d7 3e
       0.36784467 0.25167632 0.27025318 0.42133725
000200 62 c7 a9 3e 65 3d 8f 3e 5c 38 a8 3e 3f 94 e9 3e
       0.3315993 0.27976528 0.328555 0.45620915
000210 7e 02 c6 3e 19 e5 b7 3e 5d 68 a6 3e fd e0 d4 3e
       0.38673776 0.35916975 0.32501498 0.41577902
000220 38 29 fe 3e e1 95 a2 3e 4d e7 90 3e c8 40 be 3e
       0.49640822 0.31754974 0.28301468 0.371588
000230 85 d6 bf 3e 52 a2 e1 3e 0c ea 88 3e fa 96 86 3e
       0.37468353 0.44069153 0.26741064 0.2628706
000240 c5 4b f3 3e 32 bc da 3e 05 42 dd 3e 06 01 f8 3e
       0.47518745 0.42721707 0.4321443 0.4843828
000250 81 7a c0 3e b8 14 08 3f 36 8f c0 3e bc c7 bb 3e
       0.37593463 0.53156614 0.3760926 0.36675823
000260 a8 06 b0 3e a6 f4 9e 3e a0 42 09 3f 55 08 08 3f
       0.34380078 0.31046027 0.53617287 0.53137714
000270 ea 00 b9 3e b3 e2 c7 3e be a8 00 3f 9a d0 b1 3e
       0.3613351 0.39040145 0.5025748 0.34729463
000280 27 17 91 3e 2a 9f ad 3e b8 7a a0 3e 69 f4 98 3e
       0.28337976 0.33910495 0.31343627 0.2987397
000290 58 6a 81 3e a6 84 dd 3e 8e d7 7e 3e 8c 62 e0 3e
       0.25276446 0.43265265 0.24886915 0.43825185
0002a0 47 26 de 3e e3 da c4 3e a2 57 fb 3e 66 3b b7 3e
       0.43388578 0.38448247 0.49090296 0.35787505
0002b0 4c fc d7 3e d1 95 94 3e 06 35 90 3e 58 9c 89 3e
       0.42184675 0.2902055 0.28165454 0.26877093
0002c0 6d a5 ee 3e d1 da 83 3e 18 7f 87 3e 1f 68 e8 3e
       0.46610585 0.2575288 0.26464152 0.45391938
0002d0 63 e6 a3 3e 3c 9a af 3e d7 09 c4 3e b1 11 cc 3e
       0.3201171 0.3429736 0.38288757 0.39857247
0002e0 b5 2a c8 3e 9f 75 9e 3e 97 d1 ae 3e 2c 2b d6 3e
       0.39095083 0.30949113 0.3414428 0.41829813
0002f0 90 76 ca 3e 34 c2 10 3f 38 38 be 3e 77 9d b0 3e
       0.3954358 0.5654633 0.37152267 0.34495136
000300 44 43 e7 3e f9 ce d2 3e 71 42 aa 3e 7c ae b5 3e
       0.45168507 0.41173533 0.33253816 0.35484684
000310 a7 6d a6 3e 2d ad bc 3e 3a 8c ef 3e b3 f8 e2 3e
       0.32505533 0.36850873 0.46786672 0.44330367
000320 66 12 b4 3e e4 20 ea 3e 7f 70 ec 3e 62 be 58 3e
       0.35170287 0.4572822 0.46179578 0.21166375
000330 5e 0b d2 3e 0d 4e bc 3e 77 6d 5e 3e 99 90 b9 3e
       0.41024297 0.36778298 0.21721445 0.36243132
000340 41 7b b3 3e 00 bf dd 3e 77 07 9c 3e 8e 67 00 3f
       0.35054973 0.43309784 0.30474445 0.5015801
000350 38 41 cd 3e d6 b9 b7 3e 31 f9 c5 3e d6 53 c3 3e
       0.4008882 0.3588397 0.3866668 0.381499
000360 4d b5 f8 3e 50 07 b7 3e e7 62 bf 3e 34 8f b1 3e
       0.48575822 0.35747766 0.37380144 0.34679568
000370 4d 5f a2 3e ac 6b 82 3e 16 32 9d 3e cb 62 c5 3e
       0.31713334 0.25472772 0.30702275 0.38551936
000380 b0 c4 72 3e 31 dc cf 3e 58 80 dd 3e 89 78 a9 3e
       0.23707843 0.4059768 0.4326198 0.33099774
000390 5a 24 d6 3e b3 95 b3 3e bc 68 cb 3e d5 44 da 3e
       0.4182461 0.3507515 0.39728343 0.4263064
0003a0 c7 93 78 3e af 02 bf 3e 5d b9 c8 3e a7 83 bc 3e
       0.24275123 0.37306735 0.3920392 0.36819193
0003b0 06 6c fd 3e 71 9e 8c 3e 1e f2 c3 3e 47 2b 00 3f
       0.49496478 0.2746463 0.38270658 0.50066036
0003c0 06 ce c9 3e 68 2e a5 3e 07 86 f5 3e 0e 27 ed 3e
       0.39414996 0.32261968 0.47953817 0.4631886
0003d0 d3 4c cb 3e 6b 67 89 3e 0e f7 b2 3e 16 57 be 3e
       0.3970705 0.26836714 0.34954113 0.37175816
0003e0 8b 6f f5 3e 46 a8 a6 3e e8 ae bb 3e b5 3e f6 3e
       0.47936663 0.32550257 0.3665688 0.48094717
0003f0 2a 39 95 3e 28 13 d4 3e 93 d9 b5 3e af 54 f1 3e
       0.29145175 0.41420865 0.35517558 0.4713492

network.2.running_var f4 [256]
000000 86 22 39 3e a3 c6 b1 3e cc d4 80 3e 35 67 c7 3e
       0.18079576 0.3472186 0.2516235 0.38945928
000010 95 9f 68 3e a6 6b b1 3e 63 a7 09 3f eb 89 c1 3e
       0.22717126 0.34652442 0.53771037 0.37800536
000020 b8 a2 c1 3e f0 95 37 3e ec ac 99 3e 0a 29 e5 3e
       0.37819457 0.1792829 0.3001474 0.44757873
000030 df 8a 82 3e f3 d7 e4 3e 51 f3 87 3e f3 00 be 3e
       0.25496575 0.44696006 0.26552823 0.371101
000040 bb ce c6 3e ef d3 5a 3e 59 d3 63 3e 18 05 9a 3e
       0.38829598 0.21369909 0.22248591 0.3008201
000050 3d 49 40 3f 44 5c d5 3e 37 6f 9b 3e 2a 75 0b 3f
       0.7511175 0.41671956 0.30358288 0.54475653
000060 5b d5 63 3e 39 fd 1d 3e 21 e5 dc 3e 40 11 89 3e
       0.22249357 0.15428628 0.4314356 0.26770973
000070 0e 48 40 3f 32 8c fb 3e b1 51 b9 3e 92 5e 36 3e
       0.75109947 0.49130398 0.36195138 0.17809513
000080 70 c5 18 3f 66 ac 8d 3e a1 27 3c 3e b0 e8 c4 3e
       0.59676266 0.27670592 0.18374492 0.38458776
000090 d7 1b 8d 3e a3 a6 87 3e 53 cc 3c 3f 4c 8f d2 3e
       0.27560303 0.2649432 0.73749274 0.41124952
0000a0 31 93 1d 3e f5 db d6 3e 34 67 a9 3e 25 41 cb 3e
       0.1538818 0.4196469 0.3308655 0.3969814
0000b0 89 d7 90 3e 71 17 90 3e be 1a 58 3e 68 be 9f 3e
       0.2828944 0.28142884 0.21103951 0.31199956
0000c0 73 96 c7 3e 11 66 99 3e 09 2f 58 3e e9 bd 36 3e
       0.3898197 0.29960683 0.21111692 0.17845882
0000d0 3b 5e 95 3e 0a a8 97 3e 69 ec 16 3f 00 4b 18 3f
       0.29173455 0.2962039 0.58954483 0.5948944
0000e0 c5 c6 aa 3e 64 43 8f 3e bd ef dc 3e 2d f6 c6 3e
       0.33354774 0.27981102 0.43151656 0.38859692
0000f0 94 b4 27 3e 0b d2 45 3e d9 cd 61 3e da 5c 81 3e
       0.16377479 0.19318406 0.22051181 0.25266153
000100 6b 21 89 3e 74 5a 4e 3e 61 35 cb 3e cb 05 ec 3e
       0.26783308 0.20151693 0.39689162 0.4609817
000110 1b 88 cf 3e 90 5f ea 3e 6f a8 47 3e 98 4d 0d 3f
       0.40533528 0.45776033 0.19497846 0.55196524
000120 e4 20 41 3e 96 72 c0 3e 44 4b 80 3e 25 89 0f 3f
       0.18860203 0.37587422 0.25057423 0.5606864
000130 45 cb 8a 3e 59 89 09 3f 03 d3 e6 3e f6 41 67 3e
       0.27108207 0.537252 0.45082864 0.22583756
000140 5d 27 b1 3e 9a eb aa 3e 4b da a8 3e 7c d2 03 3f
       0.34600344 0.33382875 0.32979044 0.5149305
000150 b0 d3 ad 3e ca 53 21 3f 0f b9 c8 3e 97 1a 2d 3e
       0.33950567 0.63018477 0.39203689 0.16904674
000160 78 68 53 3e 72 8c cc 3e 85 82 8d 3e 18 1e 76 3e
       0.2064532 0.399509 0.2763864 0.24034917
000170 88 12 bd 3e 03 d5 18 3f be 7e 24 3f 55 35 94 3e
       0.369282 0.5970003 0.64255893 0.2894694
000180 c5 08 9b 3e cd 9d f2 3e 3b 3d 99 3e 9e 33 bf 3e
       0.30280128 0.47386017 0.29929528 0.37344068
000190 02 56 3b 3e bf cd 38 3f 2c 1f 0d 3e 99 3b b1 3e
       0.18294528 0.72188944 0.13781422 0.34615782
0001a0 87 48 bc 3e 6b 9d 92 3e d9 3c 91 3e e9 7d ed 3e
       0.36774084 0.28635725 0.28366736 0.46385124
0001b0 1a a3 22 3f fd b6 d0 3e fd 77 d6 3e 08 0b 3d 3f
       0.63530123 0.4076461 0.4188842 0.7384496
0001c0 e2 9d ae 3e eb f3 a9 3e d0 e5 89 3e 31 d1 a6 3e
       0.3410483 0.33193907 0.26933146 0.32581475
0001d0 0e f6 3f 3e e4 8f 20 3f e6 ae 2a 3f 0f 07 24 3f
       0.18746206 0.6271956 0.66673124 0.6407327
0001e0 e6 81 33 3e 7c 98 f1 3e f7 58 94 3e 45 ce cb 3e
       0.17530021 0.4718665 0.28974125 0.3980581
0001f0 06 88 c3 3e 26 9c 1e 3e 78 1d 17 3e 5e 86 db 3e
       0.38189715 0.15489253 0.14757335 0.42875952
000200 6d 87 6a 3e 9a 8e 32 3e 25 c2 6e 3e c6 87 10 3f
       0.22903223 0.1743721 0.23316248 0.56457174
000210 36 1a 98 3e ba b1 7a 3e dd f6 7d 3e 66 72 da 3e
       0.29707497 0.2448186 0.24801202 0.42665404
000220 0f 78 01 3f 2d 5a 3d 3e 47 be 7a 3e bc e2 8b 3e
       0.5057382 0.1849143 0.24486648 0.27321422
000230 13 7a b8 3e 9e 4a ff 3e 03 2c 2d 3e 4a 8f 38 3e
       0.36030635 0.49861616 0.1691132 0.1802341
000240 fd f7 f8 3e 7f d5 c5 3e 23 c3 82 3e 92 99 f1 3e
       0.486267 0.38639447 0.25539503 0.47187477
000250 be d9 88 3e 81 0b 1e 3f 61 c9 8c 3e fb 2b 88 3e
       0.26728624 0.61736304 0.2749739 0.26596054
000260 95 12 53 3e 14 47 5c 3e dd c3 2a 3f 66 b0 0e 3f
       0.20612557 0.21511489 0.66705114 0.5573791
000270 06 5b a7 3e fe dd d5 3e 58 0b 10 3f a9 94 6b 3e
       0.32686633 0.4177093 0.5626731 0.23005928
000280 ac 4e 63 3e 4c 2d 80 3e ba f5 84 3e b0 a9 a3 3e
       0.2219798 0.2503456 0.25968724 0.319654
000290 9a f9 32 3e 00 15 99 3e e8 7c 2e 3e f2 5f cc 3e
       0.17478028 0.29898834 0.17039835 0.3991695
0002a0 68 df b6 3e b1 76 95 3e 1a 9f 43 3f cd ed 67 3e
       0.3571732 0.29192117 0.76414645 0.22649308
0002b0 d8 df d5 3e 04 d0 5a 3e 03 63 1b 3e 3d 50 16 3e
       0.41772342 0.21368414 0.15174489 0.14679046
0002c0 cc c0 e6 3e 67 bd 0d 3e 12 03 1a 3e b0 14 03 3f
       0.45068967 0.13841783 0.15040234 0.5120344
0002d0 c5 cb 5f 3e 58 e3 70 3e cd 49 b8 3e c3 f1 ef 3e
       0.21855076 0.23524225 0.35993806 0.46864137
0002e0 c4 4a a6 3e 9d d8 80 3e 89 9d a9 3e 23 f4 04 3f
       0.32478917 0.25165263 0.33128002 0.51935023
0002f0 76 5c f2 3e 1c f3 2d 3f c7 04 bc 3e a8 20 8f 3e
       0.47336167 0.6794908 0.36722395 0.27954602
000300 fb 4c de 3e cd 64 fc 3e d1 16 72 3e 5c 47 94 3e
       0.43418106 0.49295655 0.23641516 0.28960693
000310 f4 77 68 3e 23 10 b0 3e db fd 02 3f 25 79 bd 3e
       0.22702008 0.3438731 0.511686 0.37006488
000320 5b c7 a9 3e aa fd cf 3e bd 6a cf 3e fb 1d b9 3d
       0.3315991 0.40623218 0.40511122 0.090389214
000330 b8 e0 b5 3e 14 69 ba 3e 23 11 ff 3d db 8d 56 3e
       0.3552301 0.36408293 0.124544404 0.20952551
000340 35 56 c5 3e 92 7c 9a 3e 5b 8e 22 3e 89 48 0b 3f
       0.38542333 0.30173165 0.15874617 0.54407555
000350 5c cf b3 3e b5 52 64 3e 5f f2 a0 3e e5 d9 aa 3e
       0.3511914 0.22297175 0.31434914 0.33369365
000360 78 da bd 3e 6e e0 4f 3e 2c 8a ba 3e 44 0b 71 3e
       0.3708074 0.20300457 0.36433542 0.23539454
000370 f6 8b 3b 3e 63 bc fc 3d 96 d3 8e 3e 58 92 84 3e
       0.1831511 0.123406194 0.27895802 0.258929
000380 3f f4 03 3e 37 bb af 3e 49 86 d3 3e 5f 48 61 3e
       0.12886141 0.3432252 0.4131339 0.22000264
000390 ed 4c 9e 3e 60 b4 8c 3e 57 54 85 3e 78 cc db 3e
       0.30918065 0.27481365 0.2604091 0.42929435
0003a0 fe a3 ee 3d 1b 01 86 3e e9 41 ba 3e e9 05 83 3e
       0.11652373 0.26172718 0.3637841 0.25590447
0003b0 36 3f d3 3e d6 ba 30 3e 92 9d 8e 3e 17 f9 fc 3e
       0.41259164 0.17258772 0.27854592 0.4940879
0003c0 ce 45 ed 3e 39 fa 70 3e a9 ea ff 3e c4 4b d6 3e
       0.4634232 0.23532952 0.4998372 0.4185468
0003d0 cb 04 aa 3e 17 73 31 3e a0 69 af 3e 75 3f 82 3e
       0.33206782 0.1732906 0.34260273 0.2543904
0003e0 e8 4a 04 3f 37 18 57 3e 46 39 94 3e 4c 7d 02 3f
       0.516768 0.21005331 0.28949946 0.5097244
0003f0 3f 7c 1d 3e 57 db 9b 3e fe e3 5f 3e 6a a0 c6 3e
       0.15379427 0.3044078 0.21864316 0.3879426

network.4.weight f4 [128, 256]
000000 4c c4 5c 3c 53 53 eb bc 4a 70 d6 3c f1 bd 83 3d
       0.013474535 -0.028726256 0.02617659 0.06432713
000010 60 b3 3e bd 70 a2 da 3a 45 e8 e8 3c 63 1a 3d 3d
       -0.046557784 0.001668049 0.028431067 0.046167742
000020 89 af 49 bd 9d 8f 14 bd 6c a2 95 bd a0 85 b0 3c
       -0.04923967 -0.036269773 -0.0730637 0.021548092
000030 82 c9 f4 3b c3 0d 43 3d ca 61 84 bc 64 81 88 bd
       0.0074703107 0.047620546 -0.01615991 -0.06665304
000040 ec a6 2e bd 7b 22 51 bd 3c 1e 1a 3d a7 19 56 bd
       -0.042639658 -0.051058274 0.03762649 -0.052270558
000050 b4 63 65 bd 7c 4c a0 3c 19 53 c1 3c 86 e8 50 3d
       -0.056003287 0.01956772 0.023599194 0.051003
000060 c4 76 13 3d 8a c7 65 3b 90 ff ea 3b df 00 f0 3c
       0.036001936 0.0035061562 0.0071715787 0.02929729
000070 2c ac 2b b9 83 16 1f bc 8a fa 56 3d a2 fd bd bb
       -0.0001637197 -0.009709957 0.052485026 -0.0057980577
000080 cf 5a 47 3d 22 cb 18 bd 4f f7 30 bd ad 7e 40 3d
       0.048670586 -0.037303098 -0.0432046 0.046995807
000090 39 6e b2 bc 5f 54 3c bd 74 32 2b bb 58 f6 30 bd
       -0.021781074 -0.0459789 -0.0026122602 -0.04320368
0000a0 6f a1 9c b9 84 2c a5 3b 9d 73 33 3d 58 12 44 3c
       -0.00029874916 0.005040707 0.04381143 0.011967264
0000b0 6a f4 f5 3b ed c2 56 3d 56 7a a3 bc 44 7b e9 3c
       0.007505943 0.05243199 -0.019955795 0.02850116
0000c0 c9 ab 70 bd 51 a8 8b bb 06 0d e0 bc 81 0d e9 bc
       -0.058757577 -0.0042620082 -0.02734996 -0.028448822
0000d0 05 80 7c bd fb 93 bb 3c 43 8e 71 bc 3b 0c 03 bd
       -0.061645526 0.022897711 -0.0147433905 -0.031994086
0000e0 33 28 d6 3c a6 f6 8b 3c 76 04 4e 3c ca cb 8c bd
       0.026142215 0.017085385 0.012574306 -0.06874807
0000f0 f6 f5 8d bd f3 dc e9 3c d3 4e 69 bc a4 3c a4 3c
       -0.06931679 0.02854774 -0.014239985 0.020048447
000100 72 07 ff bc bd 76 d8 bc 4f b8 b4 bc ec b7 14 3c
       -0.03113148 -0.026423806 -0.022060541 0.0090770535
000110 9c 28 19 3d 5d 76 3a 3d b5 d1 12 3d 57 02 84 3c
       0.037392244 0.045523036 0.035844523 0.016114397
000120 44 ae 8d bc 64 ff 93 3d d7 06 29 3b 42 56 28 3d
       -0.01729501 0.07226446 0.002579143 0.041097887
000130 65 85 e9 3c 2c 6e 5d bb b1 7a cd bc 1c 04 76 3d
       0.02850599 -0.0033787591 -0.025082918 0.060062513
000140 4e 4d c0 bc 44 fb 45 bd 20 94 83 bd 79 09 69 bc
       -0.023474362 -0.04833533 -0.06424737 -0.01422345
000150 d1 db 33 bd 8b 44 62 bd cb cd 3f 3c 3e 6a 7e 3d
       -0.043910805 -0.05524115 0.01170678 0.06211304
000160 fd 6e 06 3d 9f 3e fd 3b 6d d6 3d 3d f1 88 4f bc
       0.03282069 0.0077284123 0.04634707 -0.012666927
000170 85 ba 31 bd 97 64 72 bc 36 55 c8 3c 8c 4a 2b bd
       -0.04339077 -0.01479449 0.024454694 -0.04181914
000180 66 8e 26 3c 1b 4d 0c bd ac cb 51 3c f7 ab 88 3c
       0.010165786 -0.03425322 0.012804907 0.016683562
000190 14 68 57 3d 0c 40 d3 bc f1 68 7c 3c 9d cc 26 bc
       0.05258949 -0.025787376 0.015405879 -0.01018062
0001a0 4b a9 7a bc 04 2b a3 bc 7c 03 dd bc 52 1a d9 bc
       -0.015299152 -0.019917972 -0.0269792 -0.026501808
0001b0 ea af 27 bd 21 03 14 3d ed c8 2b bc c0 dc 8e 3d
       -0.04093925 0.036135796 -0.010484916 0.069756985
0001c0 d5 0d 0e bc 7d 00 73 3d 6b b1 2a 3d 40 82 0f bb
       -0.00867029 0.059326638 0.041673105 -0.0021897703
0001d0 97 8f 7e 3d 49 6b 0a bc c2 7f b6 3c ac af 2a bd
       0.062148657 -0.00844843 0.022277717 -0.04167144
0001e0 bf 26 6c 3d f6 db 10 bd b4 39 1c bd 49 c8 86 bd
       0.05765414 -0.03536602 -0.038140967 -0.0658117
0001f0 2e 7b 51 3d 96 47 17 bd 01 22 01 bd b8 a6 a5 bc
       0.051142864 -0.036933504 -0.03152657 -0.0202211
000200 b2 4b 01 bc c0 cf 4a 3d 01 49 40 bd 3f fe 4f bd
       -0.007891582 0.049514532 -0.046944622 -0.050779577
000210 95 60 85 3a 7f 2f 4b bd 8b 09 50 3d 19 88 2a bd
       0.0010175878 -0.049605843 0.05079035 -0.0416337
000220 b2 93 00 bd fb e2 31 bd 5b 68 82 3d cd 61 18 3d
       -0.031390853 -0.043429356 0.063675605 0.037202645
000230 40 0f 8b bc f3 3d e1 3a fe ad 40 3c 37 36 9e bb
       -0.016975045 0.00171846 0.011760233 -0.0048282403
000240 00 39 19 3d 9a 86 8c bd 96 5e be bb 44 dc 42 bd
       0.037407875 -0.06861611 -0.0058096154 -0.047573343
000250 44 4d 20 3d 75 b6 c6 3c 84 4c 08 3d 0a 04 57 3d
       0.039136186 0.024256924 0.033276096 0.052494086
000260 63 77 17 bd fa 06 0c bc 42 63 7b bd 79 60 32 bd
       -0.03697909 -0.008546585 -0.061373957 -0.043549035
000270 de 2b 61 3d f4 2c 9d 3c 3e d8 86 bd 4c ad 58 3d
       0.054973476 0.019186474 -0.06584214 0.052899644
000280 04 4e f2 bc 44 f8 57 bb 02 b6 c6 bc db f9 31 3d
       -0.029578216 -0.0032954374 -0.02425671 0.04345117
000290 be ef 2c 3b cd c8 82 bc 45 ef cb 3c 18 6e 59 bd
       0.0026388015 -0.01596489 0.024894366 -0.05308351
0002a0 67 09 6d bc 3d 14 5f 3d 6c cb 1e bc 81 b8 76 3d
       -0.014467574 0.05446266 -0.009692054 0.06023455
0002b0 d7 98 86 3d e1 d7 2b 3d a2 4b 2d 3d c0 3f d3 bb
       0.06572121 0.041953925 0.042308457 -0.0064468086
0002c0 66 97 6c 3a 7b 51 53 bd d7 1a 22 3d 71 0e 48 bd
       0.00090252457 -0.051591378 0.039576378 -0.048841897
0002d0 2c f3 b9 bc b0 83 bd 3b 5d 80 c9 3c 76 b8 05 bc
       -0.022698961 0.0057835206 0.024597341 -0.008161655
0002e0 b5 c8 5b bd b9 fb 84 3b a6 59 8c 3c 13 67 21 bc
       -0.053658206 0.004058328 0.017132591 -0.009851235
0002f0 8b a4 c6 bc b6 4b 9c 3d bf e7 cc 3c 85 b1 09 3d
       -0.024248382 0.07631628 0.025012849 0.03361656
000300 9f d4 2a bd a0 29 12 bd f1 3e 07 3d 1c 0e 80 3d
       -0.041706678 -0.035684228 0.03301901 0.06252691
000310 28 e8 8f bd 2a 08 05 3d ab 09 1d 3d af dd 6f 3d
       -0.07026702 0.03247849 0.0383393 0.058561023
000320 c7 a9 53 3d 4d 59 83 3d 75 02 76 3d 1c fa 1a bc
       0.051675584 0.06413517 0.060060937 -0.009459045
000330 94 ff 84 bd 24 f9 ad 3c 65 5b 23 3d 8b 67 83 bc
       -0.0649406 0.021236964 0.039882082 -0.016040584
000340 fa c3 3c bd e8 20 6e 3b f5 12 57 3c f4 70 96 3a
       -0.046085335 0.0036335532 0.013127078 0.0011477754
000350 14 bb d6 3c a7 76 72 bc b6 c4 f7 bc 0c 28 5f 3d
       0.026212253 -0.014798797 -0.030245166 0.05448155
000360 d0 21 8b bc e2 07 01 bd 65 f2 4d 3d d1 f7 60 bd
       -0.016983896 -0.03150166 0.050279994 -0.054923836
000370 50 8f 03 bd f8 1d ec 3c 8d 36 1d 3c 4b be 4e bb
       -0.032119095 0.028822884 0.009595525 -0.003154653
000380 49 fa 98 bc 77 af 56 bd bd cf 1b 3d cb 0f 19 3d
       -0.018674033 -0.05241343 0.03803991 0.037368577
000390 d1 f5 45 bd e9 20 02 3c c3 87 6f 3c 35 bf 0d bd
       -0.048330132 0.007942417 0.01461977 -0.034606177
0003a0 ae ca 7b 3d 4c 3b 0f bd ad bb 3b 3d ec dc 39 3d
       0.061472587 -0.03496866 0.04583328 0.045376703
0003b0 07 83 d1 3b ef 5d 10 3d 3c 6b 29 3d 09 5c 69 bc
       0.0063937935 0.035245832 0.041362032 -0.014243134
0003c0 31 ee 2b bc 0b 13 f5 3c 79 b5 56 bd 45 f2 c2 39
       -0.010493801 0.029916307 -0.05241916 0.00037183068
0003d0 a7 51 75 bd ac 66 c1 bc 88 50 bd 3c 92 b3 50 bd
       -0.059892323 -0.023608528 0.02310969 -0.0509525
0003e0 1e f2 a1 3c c9 3b 40 bd 4f 25 14 bc 31 67 47 3d
       0.01976877 -0.046932016 -0.009042098 0.048682395
0003f0 1e 06 cf bc 3d 5d 58 bd 41 88 32 3d 1f 2c 54 bd
       -0.025271472 -0.052823294 0.043586973 -0.05179989
