models/5s30s_next_day_mlp_fold5.pth (torch, 475164 bytes, 19 tensors)

network.0.weight f4 [256, 287]
0	0xbc420c5f	-0.01184377
1	0xbcbe7caf	-0.023252813
2	0x3d17ac6a	0.03702966
3	0x3caace14	0.020850219
4	0xbd2fd398	-0.0429264
5	0x3d051380	0.0324893
6	0xbcb7a1ea	-0.022416074
7	0x3c00e54e	0.0078671705
8	0x3c291488	0.010319836
9	0xbd82c41f	-0.063850634
10	0x3c2fc91c	0.010729101
11	0x3c923c3d	0.01785099
12	0xbd11fe35	-0.03564282
13	0x3d32ab5e	0.04362046
14	0x3d40d743	0.04708029
15	0xbd42176b	-0.047385614
16	0x3d1be219	0.03805742
17	0x3c1b17c5	0.009466116
18	0x3d216e45	0.0394118
19	0x3d799edd	0.06094252
20	0xbcaa881b	-0.020816853
21	0x3d1a6152	0.037690468
22	0x3d20b13b	0.03923152
23	0xbd37f397	-0.04491004
24	0x3d828c4c	0.06374416
25	0xbcbca11d	-0.023026044
26	0x3d11d8a0	0.03560698
27	0xbc708ea4	-0.014682446
28	0x3d8abfd5	0.0677487
29	0xbce82b45	-0.028340945
30	0xbc7e25b0	-0.015511915
31	0xbd07a098	-0.03311214
32	0x3d316d3f	0.043317076
33	0x3cc2b658	0.023768589
34	0xbd427683	-0.047476303
35	0xbc4770ca	-0.012172887
36	0xbd088fef	-0.03334039
37	0xbadee223	-0.001700465
38	0x3d182082	0.037140377
39	0x3d212bb3	0.039348315
40	0x3d1bf137	0.038071837
41	0xbca0f0c6	-0.01964606
42	0x3d491ddb	0.049100738
43	0x3d47de79	0.04879615
44	0xbcbbdd0e	-0.022932556
45	0x3cade39e	0.0212267
46	0xbc887e6a	-0.016661841
47	0xbd62523a	-0.0552542
48	0x3d0d758b	0.034535926
49	0x3cb64581	0.022249939
50	0x3be4ed13	0.0069862693
51	0x3c14949c	0.009068634
52	0x3d86caa9	0.06581623
53	0xbc62cdef	-0.013843044
54	0x3d26d5c7	0.040731218
55	0xbd296f53	-0.041365933
56	0xbd2be52f	-0.041966613
57	0x3d3cf0c6	0.046128057
58	0xbd506b43	-0.050883543
59	0xbbcb3b31	-0.0062021245
60	0x3d22d29c	0.039751634
61	0x3d3fda22	0.046838887
62	0xbbde0cba	-0.0067764195
63	0x3c9d1c3c	0.019178502
64	0xbcdd1fb2	-0.026992653
65	0x3d4a455f	0.049382564
66	0xbcadf455	-0.02123467
67	0x3ba109b7	0.004914488
68	0x3d037408	0.032093078
69	0x3d07cea2	0.033156045
70	0xbd40dfbf	-0.04708838
71	0x3d3ddb08	0.046351463
72	0x3c40e143	0.011772457
73	0xbd78260c	-0.06058316
74	0xbca69ebf	-0.020339368
75	0x3ccf4833	0.025302982
76	0x3c3e3c74	0.011611093
77	0x3cd81daf	0.026381342
78	0x3bf09439	0.0073418883
79	0x3cfbcb5f	0.030736623
80	0xbcf1abf1	-0.029500933
81	0x3c919774	0.017772414
82	0x3d359e0b	0.044340175
83	0x3c601c97	0.013678691
84	0x3ccc44fd	0.02493524
85	0xbd355390	-0.044269145
86	0xbb60bf5f	-0.0034293754
87	0xbc4ba1ae	-0.012428684
88	0xbd171f2d	-0.036894966
89	0x3d2b8ef6	0.041884385
90	0x3cd8b090	0.026451379
91	0xbc94fdef	-0.018187491
92	0x3d298d05	0.041394252
93	0xbd206a56	-0.03916391
94	0xbd6096bf	-0.054831263
95	0xbd496e08	-0.0491772
96	0xbce920ad	-0.028457964
97	0x3bdc6a77	0.006726559
98	0x3d50d1af	0.05098122
99	0x3d0a62b8	0.03378555
100	0x3d380f71	0.0449366
101	0x3d39fe81	0.04540873
102	0x3cbe5d05	0.023237715
103	0xbce8d6fd	-0.028422827
104	0x3d10288c	0.03519492
105	0x3c785cdf	0.015158861
106	0x3d4d3956	0.050103508
107	0xbca36f88	-0.019950643
108	0xbc8f6bed	-0.017507518
109	0xbd2049af	-0.03913277
110	0x3d115b52	0.03548748
111	0xbc9a4f48	-0.018836632
112	0x3ca5b7a3	0.020229166
113	0xbd03de85	-0.032194633
114	0x3cb4e6cc	0.022082709
115	0x3ca37c66	0.019956779
116	0xbd30bb1d	-0.043147195
117	0x3d299f64	0.041411772
118	0xbd0cc962	-0.03437174
119	0x3d7febaa	0.062480606
120	0x3d265189	0.0406051
121	0x3cd243d0	0.025667101
122	0x3d17e4a6	0.03708329
123	0x3d0bea1e	0.03415882
124	0xbbf3db93	-0.007441947
125	0x3b7917ef	0.003800865
126	0x3d47a430	0.048740566
127	0xbc31d59f	-0.010854154
128	0xbd88a15d	-0.066714026
129	0x3ac6980f	0.0015151518
130	0xbc9c13b8	-0.019052371
131	0xbc5396bb	-0.012914355
132	0x3bf68ca9	0.007524092
133	0xbc6b3920	-0.014356881
134	0x3ca40dbd	0.020026082
135	0xbd086268	-0.033296973
136	0xbbcc23b4	-0.006229842
137	0x3d3fad5a	0.04679618
138	0x3d44a666	0.048010252
139	0x3ce4691b	0.02788215
140	0xbca05eec	-0.019576512
141	0xbc17ef5a	-0.009273374
142	0x3c3fc138	0.011703782
143	0xbcff54ab	-0.031168303
144	0xbbc14198	-0.005897712
145	0xbcf0124b	-0.029305598
146	0x3c072b46	0.008250063
147	0xbc2cad55	-0.010539372
148	0x3cb0641f	0.021532116
149	0x3bef885e	0.0073099574
150	0x3c336ed7	0.010951719
151	0xbc85bb7b	-0.01632475
152	0x3d37009a	0.044678308
153	0xbd75d33f	-0.060015913
154	0x3cb24e78	0.021765932
155	0x3d208229	0.03918663
156	0x3b994e15	0.0046784976
157	0xbd4e2554	-0.050328568
158	0xbd423119	-0.047410104
159	0xbd7b56c9	-0.06136206
160	0x3d3b1dc5	0.045682687
161	0xbd4d04b8	-0.05005333
162	0xbcfabce6	-0.030607652
163	0x3d81c32c	0.06336054
164	0x3cc9bd77	0.024626477
165	0x3ad6e332	0.0016394614
166	0x3ccee32a	0.025254805
167	0xbd477481	-0.04869509
168	0x3cea9779	0.02863668
169	0x3d6bb9f3	0.057550382
170	0xbd28f4c2	-0.041249044
171	0x3d0516de	0.03249251
172	0xbd34af33	-0.044112395
173	0x3d2554a4	0.040363923
174	0xbcf528f3	-0.029926753
175	0xbd39de38	-0.04537794
176	0xbd010b1e	-0.031504743
177	0xbd266b4b	-0.040629666
178	0xbd22464f	-0.039617833
179	0xb8cb17cb	-9.684226e-05
180	0x3c0039d7	0.00782629
181	0xbd1f2e1e	-0.03886234
182	0x3d2271da	0.03965936
183	0xbd0bbdb9	-0.03411648
184	0x3c9a0002	0.018798832
185	0x3d0f27b7	0.034949984
186	0xbc8905cd	-0.016726399
187	0xbd05e87e	-0.032692425
188	0xbc8d3cdc	-0.017240934
189	0x3d89bc2c	0.06725344
190	0xbb3bb3b4	-0.0028641047
191	0x3b323e8e	0.002719793
192	0x3c8be732	0.017078016
193	0xbd26641b	-0.04062281
194	0xbc38b6a1	-0.011274011
195	0x3cb022af	0.021500913
196	0xbd0d00d5	-0.03442462
197	0x3d2e0382	0.042483814
198	0x3b63aeff	0.0034741757
199	0x3cdb668b	0.026782295
200	0xbd2cc2c6	-0.042177938
201	0xbd22405c	-0.03961216
202	0x3d74e8ca	0.059792317
203	0x3cd66ec6	0.026175868
204	0x3cb76817	0.022388501
205	0x3c70dc13	0.014700907
206	0xbce3673b	-0.027759185
207	0x3d3ffb53	0.04687054
208	0xbd4469c9	-0.047952447
209	0xbd8f16e1	-0.06986786
210	0x3c8e309a	0.01735716
211	0x3d514119	0.051087473
212	0xbd8f1c0d	-0.06987772
213	0x3d345637	0.044027533
214	0xbc49582b	-0.012289087
215	0x3d205b43	0.039149534
216	0x3c9edbc1	0.019391896
217	0xbc06ca87	-0.008226997
218	0xbd2f4b51	-0.042796437
219	0xbd6a99c8	-0.057275563
220	0x3d5389d1	0.051645104
221	0x3c88872d	0.01666602
222	0x3b03792a	0.0020061233
223	0x3c5a3bbd	0.013319907
224	0x3d147be0	0.03625095
225	0x3cf5035b	0.029908827
226	0x3d1f1c3d	0.03884529
227	0x3be7e225	0.007076519
228	0xbd139a7e	-0.036036007
229	0x3d7cf560	0.061757445
230	0x3bfa815b	0.007644815
231	0x3d807416	0.06272142
232	0xbc49261e	-0.012277154
233	0xbd0a3437	-0.033741202
234	0xbd64e020	-0.055877805
235	0x3cbe10dd	0.0232014
236	0xbce9fd0b	-0.028563043
237	0x3d34819e	0.044068925
238	0xbcf4edaf	-0.029898493
239	0xbc92dde1	-0.017928066
240	0x3bc91468	0.006136466
241	0xbd172695	-0.03690203
242	0x3ca5f866	0.020260047
243	0xbd0b936e	-0.034076147
244	0x3bf75737	0.0075482386
245	0xbc616042	-0.01375586
246	0x3d83b0e4	0.064302236
247	0xbcfacc38	-0.030614957
248	0xbce15393	-0.027505672
249	0x3b82a6f1	0.003987186
250	0x3d15a1a3	0.036531102
251	0xbc22bd09	-0.009932765
252	0x3c972835	0.01845179
253	0x3c39c331	0.011338041
254	0x3d8a77af	0.06761109
255	0xbd8387b9	-0.064223714

network.0.bias f4 [256]
0	0xbccd9ef7	-0.025100214
1	0x3d21cefe	0.039504044
2	0x3c979005	0.018501291
3	0xbd385a2c	-0.04500787
4	0x3c80b9e5	0.015713641
5	0xbccc7fd1	-0.024963291
6	0x3ccbc8d9	0.024876045
7	0xbd3817bd	-0.044944514
8	0x3d304b20	0.043040395
9	0x3c1a4430	0.009415671
10	0x3d19241c	0.037387952
11	0xbd21cc89	-0.0395017
12	0xbd7336a0	-0.059378266
13	0x3cc2c371	0.023774834
14	0x3c57268b	0.013131748
15	0x3cd90231	0.026490303
16	0xbcd10bc8	-0.025518313
17	0x3ca75e10	0.020430595
18	0x3b88a679	0.0041702357
19	0x3c9e79e5	0.019345233
20	0x3d943895	0.07237355
21	0x3d90a6de	0.070630774
22	0xbcc59a21	-0.024121346
23	0x3c849697	0.016185088
24	0xbc1d0153	-0.009582835
25	0x3d0c0684	0.0341859
26	0xbcbf8e31	-0.023383232
27	0x3c4e465a	0.012590015
28	0x3c673ed7	0.014114103
29	0xbd00c330	-0.031436145
30	0xbd51ebcb	-0.05125026
31	0xbd460918	-0.048348516
32	0xbd5692ed	-0.052386213
33	0xbd29dd85	-0.041471023
34	0x3cd9e4eb	0.026598414
35	0xbd388a54	-0.045053795
36	0xbcf483f8	-0.029848084
37	0xbca168d1	-0.0197033
38	0x3d5ab4f1	0.053395215
39	0xbd8735d7	-0.06602066
40	0x3ce9c39d	0.028535658
41	0x3d8362b1	0.06415308
42	0xbc17bb87	-0.009261019
43	0x3d809822	0.06279017
44	0x3d55943f	0.05214333
45	0xbc95f7b7	-0.018306596
46	0x3d227157	0.03965887
47	0xbd7dcce9	-0.061962996
48	0xbd2d47dc	-0.04230486
49	0x3d51a28c	0.051180407
50	0x3d1a7979	0.0377135
51	0x3c5468ba	0.012964422
52	0x3ca83909	0.020535009
53	0xbcc292ba	-0.023751605
54	0x3ccdf560	0.025141418
55	0x3d5a9726	0.053366803
56	0x3c8df4d2	0.017328653
57	0xbcefa8b2	-0.029255245
58	0xbc34986c	-0.011022668
59	0xbd0b5262	-0.034014113
60	0xbd08127d	-0.033220757
61	0x3d61784b	0.05504636
62	0x3d4a5f65	0.04940738
63	0x3ba61782	0.0050687203
64	0xbd824ecb	-0.06362685
65	0x3d0eb444	0.034839883
66	0x3d77100a	0.06031803
67	0x3d277e02	0.040891655
68	0xbce29f83	-0.027663952
69	0xbcbb1e1d	-0.022841508
70	0xbca277b9	-0.019832479
71	0xbc19a670	-0.009378061
72	0x3cd94a8d	0.026524806
73	0x3d192606	0.037389778
74	0xbd5a9432	-0.053363986
75	0xbd24bc49	-0.040218625
76	0xbcc569b7	-0.02409826
77	0xbd12cf8c	-0.035842463
78	0x3c7d34e3	0.015454504
79	0xbc9203c8	-0.017824069
80	0x3d980497	0.074227504
81	0x3b1d2458	0.0023977961
82	0x3cdd79ce	0.02703562
83	0xbcce884a	-0.025211472
84	0xbcf90a7f	-0.030400513
85	0xbcd7c407	-0.02633859
86	0xbd402433	-0.046909522
87	0xbc39d12b	-0.011341373
88	0xbc884d67	-0.01663847
89	0x3ac38f5b	0.0014920043
90	0xbc340220	-0.010986835
91	0xbd38a5fa	-0.045080163
92	0xbb6683c9	-0.0035173765
93	0x3c96ebd3	0.018422997
94	0xbd2d4031	-0.042297546
95	0x3c45e229	0.012077847
96	0x3d2f75f5	0.042837102
97	0x3d23d40a	0.039997138
98	0x3c1fcea6	0.009753859
99	0x3c01f740	0.007932484
100	0x3cf9226f	0.030411927
101	0x3aa6eeba	0.0012735941
102	0xbd1e9ef5	-0.038725812
103	0xbcbfeeb9	-0.023429262
104	0x3d002711	0.031287257
105	0x3ca3c78b	0.01999261
106	0x3d3c2d37	0.045941558
107	0xbc2697b7	-0.010168008
108	0xbbbbe248	-0.005733762
109	0x3d4f41e1	0.050599936
110	0xbc9a64bc	-0.018846862
111	0x3ca8faa3	0.020627325
112	0xbc5be38d	-0.013420952
113	0x3ca57024	0.020195074
114	0xbd84e8fb	-0.0648975
115	0xbd500163	-0.050782572
116	0x3b25adfd	0.0025280707
117	0x3c8bb6aa	0.017054874
118	0x3cde3eca	0.02712955
119	0x3d6ee840	0.05832696
120	0x3ccbaf4e	0.024863865
121	0x3d3bd458	0.045856804
122	0xbc724de7	-0.014789081
123	0x3d405469	0.0469555
124	0x3c892dc7	0.016745461
125	0xbd64b606	-0.055837654
126	0xbd581f23	-0.05276407
127	0xbd4f97eb	-0.05068199
128	0xbd65c8c4	-0.05609967
129	0x3ca0fcb3	0.019651746
130	0xbc90c9c0	-0.017674327
131	0x3d2bea89	0.041971717
132	0xbcba27b5	-0.022724012
133	0x3bedf8c7	0.0072623226
134	0xbd43b18b	-0.04777674
135	0x3cd3fa80	0.025876284
136	0x3caa46fc	0.020785801
137	0xbd27a6d6	-0.04093059
138	0xbcd0ab3f	-0.025472282
139	0x3d63bc49	0.055599485
140	0xbc15e5ca	-0.009149024
141	0x3d22b11c	0.039719686
142	0xbd5e9ed1	-0.054350678
143	0xbd3e22d6	-0.04641994
144	0x3d1d6c30	0.038433254
145	0x3cb1e095	0.021713534
146	0xbc884e1c	-0.016638808
147	0xbd00fd0d	-0.031491328
148	0xbbc6c45f	-0.0060658897
149	0xbbe01034	-0.006837869
150	0xbd594f87	-0.05305436
151	0xbc8adb21	-0.016950192
152	0xbd4157ac	-0.04720275
153	0xbd50fa0c	-0.051019713
154	0x3d21433c	0.03937076
155	0xbcd53039	-0.02602397
156	0x3c9ad29c	0.018899255
157	0x3bee5754	0.007273594
158	0x3bd5aa28	0.0065205283
159	0x3ce607a4	0.028079815
160	0xbcdcb723	-0.026942795
161	0x3d309001	0.043106083
162	0x3cf7ef65	0.03026552
163	0xbcad95bf	-0.021189569
164	0xbcb361e0	-0.021897256
165	0x3d48f43c	0.049061045
166	0xbd018008	-0.03161624
167	0x3d303cfb	0.043026906
168	0x3ccfc76f	0.025363652
169	0x3d0fe3a8	0.03512922
170	0xbce4c845	-0.027927527
171	0xbc7531e7	-0.014965511
172	0x3d14253d	0.036168326
173	0xbcc4d5a3	-0.024027651
174	0xbd7a869b	-0.061163526
175	0x3c8b680b	0.017017385
176	0xbc77c585	-0.015122776
177	0xbd00cdb3	-0.03144617
178	0x3c480738	0.012208752
179	0x3cc68810	0.024234802
180	0xbc022312	-0.007942932
181	0xbc289749	-0.010289975
182	0x3d8e5777	0.06950276
183	0x3d05a4e0	0.03262794
184	0x3c98288d	0.018574024
185	0x3c1bc124	0.0095064975
186	0x3ce81d14	0.028334178
187	0x3c76aa29	0.015055218
188	0x3c6f839e	0.014618782
189	0x3bf87dae	0.0075833416
190	0xbc04db75	-0.008108963
191	0xbd4a556e	-0.04939788
192	0xbb2b0d4b	-0.0026100453
193	0xbd66d222	-0.056352742
194	0x3d0b764b	0.03404836
195	0x3c3d68ed	0.011560661
196	0x3d0b3687	0.03398755
197	0xbb64bcd5	-0.0034902592
198	0xbc3dd633	-0.011586714
199	0xbd2b0f63	-0.04176272
200	0x3c879aaa	0.016553242
201	0x3d2b9529	0.041890297
202	0xbc5c84f3	-0.013459432
203	0x3ca70605	0.020388613
204	0x3ce5474f	0.027988104
205	0x3c9722d7	0.01844923
206	0x3d2df7ef	0.042472776
207	0xbcb6a5cd	-0.022295857
208	0xbd2d3dde	-0.04229533
209	0x3d3ae7e9	0.045631323
210	0x3c961fb1	0.018325659
211	0x3cbb5a13	0.0228701
212	0xbb330a38	-0.0027319323
213	0x3ced1e84	0.028945215
214	0xbd21f46a	-0.039539732
215	0xbcc95416	-0.024576228
216	0x3d79b87f	0.060966965
217	0xbd2004f8	-0.03906724
218	0xbc83d444	-0.016092427
219	0xbc385976	-0.011251798
220	0x3c9d047b	0.019167176
221	0x3cc01ce5	0.023451278
222	0xba3a2377	-0.00071006216
223	0xbcb70925	-0.022343228
224	0x3d28ba59	0.04119334
225	0xbb8a763b	-0.00422552
226	0x3aa161de	0.0012312492
227	0xbd659b8a	-0.056056537
228	0xbd5afdd1	-0.053464714
229	0x3d5af986	0.05346062
230	0x3cdb8a6c	0.026799403
231	0x3d4e6f8e	0.050399356
232	0xbcbbe002	-0.022933964
233	0xbcfdecb2	-0.030996654
234	0xbd24d3d2	-0.04024107
235	0xbd7a3d78	-0.061093777
236	0x3c9be833	0.01903162
237	0x3d37103b	0.044693213
238	0x3cb32d69	0.02187224
239	0xbc1a520c	-0.009418976
240	0xbd244315	-0.040103037
241	0xbd2d4527	-0.042302277
242	0x3d93b089	0.07211406
243	0xbd02d453	-0.03194077
244	0xbc97d101	-0.018532278
245	0x3a1db76d	0.0006016407
246	0x3a1b6eef	0.0005929311
247	0xbd42c459	-0.047550533
248	0x3b93783f	0.0045004184
249	0x3d2dbeca	0.04241828
250	0x3b9eb959	0.0048438725
251	0xbcb48406	-0.02203561
252	0x3d44ca68	0.048044592
253	0x3ca5e907	0.020252718
254	0x3d0c2c46	0.03422191
255	0x3cec5dda	0.028853346

network.2.weight f4 [256]
0	0x3f804295	1.0020319
1	0x3f813c39	1.0096503
2	0x3f81b783	1.0134128
3	0x3f7ed889	0.99549156
4	0x3f805b43	1.0027851
5	0x3f7ba1b6	0.98293626
6	0x3f7d7877	0.9901194
7	0x3f7dda73	0.9916145
8	0x3f7e6ee5	0.9938796
9	0x3f7f1425	0.99640113
10	0x3f7fdaf2	0.9994346
11	0x3f80a29e	1.0049627
12	0x3f808375	1.0040118
13	0x3f80d179	1.0063926
14	0x3f7dd0fc	0.9914701
15	0x3f7eab3c	0.9948003
16	0x3f81b0b5	1.0132052
17	0x3f7ff5e4	0.99984574
18	0x3f806c6c	1.0033088
19	0x3f7fd3a2	0.999323
20	0x3f7c8d75	0.98653346
21	0x3f7ebc92	0.99506485
22	0x3f7dd0cf	0.9914674
23	0x3f7db022	0.9909688
24	0x3f80ca69	1.0061771
25	0x3f808d41	1.0043107
26	0x3f8216b2	1.0163176
27	0x3f7fa819	0.9986587
28	0x3f7d124a	0.9885603
29	0x3f80eaf2	1.00717
30	0x3f7d395f	0.98915666
31	0x3f7f3493	0.99689597
32	0x3f7bc611	0.983491
33	0x3f7f52c5	0.9973567
34	0x3f803452	1.0015967
35	0x3f81819a	1.0117676
36	0x3f80283a	1.0012276
37	0x3f7c1563	0.98470134
38	0x3f7e7c8e	0.99408805
39	0x3f815e24	1.0106854
40	0x3f7f5b70	0.997489
41	0x3f7e01a3	0.9922125
42	0x3f807c70	1.0037975
43	0x3f80ccf8	1.0062551
44	0x3f80032e	1.000097
45	0x3f7fa36e	0.9985875
46	0x3f7c883c	0.9864538
47	0x3f80fbbf	1.0076827
48	0x3f80d12a	1.0063832
49	0x3f7efd65	0.996054
50	0x3f808600	1.0040894
51	0x3f802264	1.0010495
52	0x3f7ed220	0.99539375
53	0x3f7cfa72	0.9881965
54	0x3f7de80c	0.991822
55	0x3f8266e1	1.0187646
56	0x3f80d165	1.0063902
57	0x3f7fbaa9	0.99894196
58	0x3f81fda8	1.0155535
59	0x3f803bb0	1.0018215
60	0x3f7d9fcb	0.9907195
61	0x3f7de7cf	0.99181837
62	0x3f80d9ef	1.0066508
63	0x3f7f1f66	0.99657285
64	0x3f7d1e97	0.988748
65	0x3f818273	1.0117935
66	0x3f81ddf3	1.0145859
67	0x3f7e08fb	0.99232453
68	0x3f7fa9b6	0.99868333
69	0x3f807f49	1.0038844
70	0x3f801d96	1.0009029
71	0x3f80f1c4	1.0073781
72	0x3f819e4d	1.0126435
73	0x3f813d20	1.0096779
74	0x3f8132f0	1.009367
75	0x3f802861	1.0012323
76	0x3f8075c9	1.0035945
77	0x3f7fd8bf	0.99940103
78	0x3f7fa3db	0.998594
79	0x3f7f9b90	0.99846745
80	0x3f7fccc9	0.9992185
81	0x3f80a184	1.0049291
82	0x3f7ef19f	0.99587435
83	0x3f811655	1.008494
84	0x3f81df15	1.0146204
85	0x3f8047d6	1.0021923
86	0x3f7f7de7	0.99801487
87	0x3f80aecc	1.0053344
88	0x3f815213	1.0103172
89	0x3f7d5631	0.9895964
90	0x3f7ec64b	0.9952132
91	0x3f7cf03b	0.9880406
92	0x3f7de897	0.9918303
93	0x3f8068a7	1.0031937
94	0x3f7f6a25	0.9977134
95	0x3f81dc27	1.014531
96	0x3f7ef732	0.9959594
97	0x3f7e3b6b	0.99309415
98	0x3f82fac3	1.0232776
99	0x3f81fad2	1.0154669
100	0x3f8001e2	1.0000575
101	0x3f81647b	1.0108789
102	0x3f800046	1.0000083
103	0x3f78cef3	0.9719078
104	0x3f8169e3	1.0110439
105	0x3f804fcb	1.0024351
106	0x3f7b98b8	0.98279905
107	0x3f7ce7b2	0.9879104
108	0x3f7c24d2	0.98493683
109	0x3f802c2a	1.0013478
110	0x3f80b84a	1.005624
111	0x3f7d3072	0.98902047
112	0x3f7cc2f3	0.9873497
113	0x3f80956b	1.0045599
114	0x3f7f3a18	0.9969802
115	0x3f7df0c7	0.9919552
116	0x3f8122ca	1.0088742
117	0x3f80fdfc	1.007751
118	0x3f7ca4bd	0.9868887
119	0x3f82376d	1.0173165
120	0x3f815f61	1.0107232
121	0x3f8031e3	1.0015224
122	0x3f7f0eef	0.9963216
123	0x3f81521d	1.0103184
124	0x3f83223b	1.0244821
125	0x3f78d127	0.9719414
126	0x3f803d17	1.0018643
127	0x3f7e83ca	0.99419844
128	0x3f7daff4	0.9909661
129	0x3f7deb29	0.9918695
130	0x3f80df21	1.0068094
131	0x3f802ff6	1.0014637
132	0x3f7b8166	0.9824432
133	0x3f7e3864	0.99304795
134	0x3f79090f	0.9727945
135	0x3f8175b2	1.0114043
136	0x3f802f62	1.001446
137	0x3f7fc9e5	0.9991744
138	0x3f7d1f47	0.9887585
139	0x3f7e3539	0.9929996
140	0x3f80c0c2	1.0058825
141	0x3f8065a1	1.0031015
142	0x3f8208a7	1.015889
143	0x3f7f87f8	0.99816847
144	0x3f808025	1.0039107
145	0x3f806746	1.0031517
146	0x3f7d5664	0.98959947
147	0x3f7d1e64	0.988745
148	0x3f815e46	1.0106895
149	0x3f7b20d5	0.9809697
150	0x3f7ee716	0.9957136
151	0x3f807157	1.0034589
152	0x3f8066f4	1.0031419
153	0x3f81d6a0	1.0143623
154	0x3f8085ec	1.004087
155	0x3f844107	1.0332345
156	0x3f8229f6	1.0169055
157	0x3f8067d6	1.0031688
158	0x3f7fda76	0.9994272
159	0x3f7f02ea	0.9961382
160	0x3f7c750c	0.986161
161	0x3f7e4ece	0.99338996
162	0x3f7ebaab	0.9950358
163	0x3f7e3f2f	0.9931516
164	0x3f80eafd	1.0071713
165	0x3f80c2da	1.0059464
166	0x3f7f0fc4	0.9963343
167	0x3f81369e	1.0094793
168	0x3f7ea986	0.9947742
169	0x3f803bef	1.001829
170	0x3f7e02e0	0.99223137
171	0x3f7d8853	0.9903614
172	0x3f7e6bf1	0.99383456
173	0x3f7c73e5	0.9861434
174	0x3f7dd06b	0.99146146
175	0x3f8231f6	1.0171497
176	0x3f7a0374	0.9766152
177	0x3f7dfa82	0.9921037
178	0x3f80a282	1.0049593
179	0x3f7feffc	0.9997556
180	0x3f80d332	1.0064452
181	0x3f807cc2	1.0038073
182	0x3f82ad91	1.0209218
183	0x3f804fb2	1.0024321
184	0x3f7f9234	0.99832463
185	0x3f815078	1.0102682
186	0x3f814f54	1.0102334
187	0x3f7e313c	0.99293876
188	0x3f813952	1.0095618
189	0x3f7f53ce	0.9973725
190	0x3f7a3b68	0.97746897
191	0x3f7e314d	0.9929398
192	0x3f7d099c	0.9884279
193	0x3f7d058e	0.988366
194	0x3f8126a7	1.0089921
195	0x3f81d74a	1.0143826
196	0x3f7decd2	0.99189484
197	0x3f7e55d1	0.99349695
198	0x3f7dfced	0.9921406
199	0x3f7e112d	0.9924496
200	0x3f81849e	1.0118597
201	0x3f811a23	1.0086101
202	0x3f80cbf3	1.006224
203	0x3f7ee77c	0.9957197
204	0x3f801908	1.0007639
205	0x3f81cbfd	1.0140377
206	0x3f7f8c72	0.9982368
207	0x3f808da6	1.0043228
208	0x3f835e16	1.0263088
209	0x3f818daa	1.0121357
210	0x3f7eb816	0.9949964
211	0x3f7e2e45	0.9928935
212	0x3f7f3774	0.9969399
213	0x3f7f3abf	0.99699014
214	0x3f7f7247	0.9978375
215	0x3f827797	1.0192746
216	0x3f7dc307	0.99125713
217	0x3f817040	1.0112381
218	0x3f81f189	1.0151836
219	0x3f816484	1.01088
220	0x3f7f9c2e	0.99847686
221	0x3f808cdf	1.004299
222	0x3f7df6d6	0.99204767
223	0x3f7f6302	0.9976045
224	0x3f7fe852	0.9996387
225	0x3f7ffb1e	0.9999255
226	0x3f7f404c	0.99707484
227	0x3f80503b	1.0024484
228	0x3f80199c	1.0007815
229	0x3f81d36a	1.0142643
230	0x3f7fbcd8	0.9989753
231	0x3f813767	1.0095032
232	0x3f7c1180	0.984642
233	0x3f7de308	0.9917455
234	0x3f817871	1.0114881
235	0x3f7e2aa7	0.9928383
236	0x3f82bf7f	1.021469
237	0x3f7dd7ee	0.9915761
238	0x3f811eb3	1.0087494
239	0x3f814c68	1.0101442
240	0x3f7d2441	0.98883444
241	0x3f7d997d	0.9906233
242	0x3f80ba90	1.0056934
243	0x3f813ff6	1.0097644
244	0x3f8037cf	1.0017031
245	0x3f8077b4	1.003653
246	0x3f7d7ab4	0.99015355
247	0x3f815a17	1.0105618
248	0x3f7f207c	0.9965894
249	0x3f7e3e42	0.9931375
250	0x3f809125	1.0044295
251	0x3f80f840	1.007576
252	0x3f7c5c80	0.98578644
253	0x3f804eb3	1.0024017
254	0x3f7e96f1	0.9944907
255	0x3f7f3301	0.996872

network.2.bias f4 [256]
0	0xbaa52196	-0.001259851
1	0xba1d3a07	-0.00059977215
2	0xbbf4e766	-0.007473874
3	0x3bec9a8a	0.007220571
4	0xbaf4f567	-0.0018688858
5	0x3b0e7af3	0.0021740764
6	0xbc10085f	-0.008791058
7	0x3c9fc8d1	0.019504936
8	0xba3cb6d1	-0.00071988726
9	0x3be10d6d	0.0068680556
10	0x3be4264f	0.0069625746
11	0xbcc5e826	-0.024158549
12	0x3c897eb6	0.016784053
13	0xbc2fff95	-0.010742088
14	0xbc92443c	-0.017854802
15	0x3bcac46e	0.006187967
16	0x3c6ff99f	0.014646917
17	0x3c2263db	0.009911503
18	0x3c51a883	0.012796524
19	0xbb0511a1	-0.0020304697
20	0x3be4daef	0.0069841067
21	0xbc9c40a7	-0.019073797
22	0x3cbacab4	0.022801735
23	0x3ca902a3	0.02063114
24	0x3acd2a88	0.0015652934
25	0x3bc1eed3	0.0059183626
26	0x3ba1f2c2	0.004942269
27	0x3b7e20d2	0.0038776887
28	0xbb99a37c	-0.0046886783
29	0xbc1b5d78	-0.009482734
30	0x3c04dea0	0.008109719
31	0x3cebb37f	0.028772114
32	0x3ad00d27	0.001587306
33	0xb90cdc58	-0.00013433525
34	0xbce5242b	-0.027971348
35	0x3a680a33	0.00088516175
36	0x3b05a827	0.0020394416
37	0xbc843a70	-0.016141146
38	0x3c71ffbc	0.0147704445
39	0xbcb2f70d	-0.021846319
40	0xbc815298	-0.015786454
41	0x3bdb1544	0.0066858847
42	0xbbbd61b7	-0.005779471
43	0xbc489e8d	-0.012244833
44	0x3c2f003c	0.010681208
45	0x3c679682	0.014135005
46	0xbc0c0161	-0.008545251
47	0x3c2a72bd	0.010403332
48	0xbc26c047	-0.010177678
49	0xbbb5354c	-0.005530035
50	0x3c3d90eb	0.011570196
51	0x3a871836	0.0010306898
52	0xbc176edb	-0.009242739
53	0xbc5df054	-0.013546068
54	0xbb5eedc5	-0.0034016233
55	0x3b600f6f	0.0034188887
56	0xbb464a9d	-0.0030256875
57	0x3ccbbda9	0.02487071
58	0xbc710df1	-0.014712797
59	0x3c19d036	0.00938802
60	0xbbe63f9c	-0.007026626
61	0xbcb1c742	-0.021701459
62	0xbc5f0af8	-0.013613455
63	0xbc52ca25	-0.012865578
64	0xbb7fb42a	-0.0039017298
65	0x3b37750b	0.0027993347
66	0x3bc51f10	0.006015666
67	0xb924d014	-0.00015717774
68	0x3ba9b0a8	0.00517853
69	0x3beb7d1b	0.0071865446
70	0xb943fdb0	-0.00018691155
71	0xbb5b5370	-0.003346648
72	0x3b3b14bd	0.0028546297
73	0xbb855b20	-0.004069701
74	0xbbbd3009	-0.0057735485
75	0xbbe42b16	-0.006963144
76	0x3b8340fb	0.004005549
77	0x3bca359e	0.0061709424
78	0x3b6d36ce	0.0036195996
79	0x3c76a09c	0.015052941
80	0x3c8eea52	0.017445717
81	0x3ba689e9	0.005082358
82	0xbb8513e7	-0.0040612104
83	0x39dda894	0.00042278005
84	0x3bdfe917	0.0068332064
85	0x3c82fa0a	0.015988369
86	0xbc0f29e1	-0.008738012
87	0xbb7ae82b	-0.0038285356
88	0x3c12463c	0.008927878
89	0xbb7b27b9	-0.0038323237
90	0xbc9237cc	-0.017848872
91	0x3bfcbb9b	0.007712794
92	0x3c621d8c	0.01380099
93	0x3ca2c173	0.019867634
94	0xba3d1032	-0.0007212191
95	0x3baa26e6	0.0051926253
96	0xbc242395	-0.010018249
97	0x3bd1261f	0.006382718
98	0xbc0ced77	-0.008601538
99	0xba460862	-0.000755435
100	0x3b156b8b	0.0022799696
101	0xbc412068	-0.011787511
102	0xbc5ace96	-0.013354918
103	0x3be336ca	0.0069340216
104	0xbba083f2	-0.0048985416
105	0x3c1ad0e5	0.009449218
106	0x3c1ff2f9	0.009762519
107	0x3b885d1b	0.0041614897
108	0x3bbc64da	0.005749327
109	0x3c882773	0.016620373
110	0xbbcef4a0	-0.0063157827
111	0xbc92fa88	-0.017941728
112	0x3c0ecdc1	0.008716048
113	0xbc7009da	-0.014650786
114	0xba8df5d0	-0.0010830704
115	0xbba54de9	-0.005044688
116	0xbc929288	-0.017892137
117	0x398d69ba	0.00026972388
118	0xbb93981e	-0.0045042178
119	0x3c46613a	0.012108142
120	0xbbd82b33	-0.0065969466
121	0x3bbb9da3	0.005725579
122	0x3b0adcde	0.0021188776
123	0x3c147a2a	0.009062329
124	0x3993dbde	0.0002820184
125	0x3c5c2e98	0.013438843
126	0xbba7faeb	-0.0051263473
127	0x3c83aaeb	0.016072711
128	0xbb394d07	-0.0028274672
129	0x3c73195f	0.014837592
130	0xbc36ccd5	-0.011157234
131	0xb9c09a58	-0.0003673609
132	0x3c5022c8	0.012703605
133	0x3c0953d4	0.008381803
134	0xbc8e6cd1	-0.017385872
135	0xbb9d41ff	-0.004799127
136	0x39e4b7be	0.00043624447
137	0x3c9927d0	0.018695742
138	0xbb89595a	-0.0041915597
139	0xbc1bc292	-0.009506838
140	0x3bb85aab	0.005626043
141	0xbbbad567	-0.005701709
142	0x3ba591ad	0.0050527663
143	0xbca05f39	-0.019576656
144	0xbbc6de27	-0.006068963
145	0x3c1161cc	0.008873414
146	0xbb704505	-0.0036662233
147	0x3b999d50	0.0046879426
148	0x3b9e9f2c	0.004840752
149	0xbb908763	-0.0044106706
150	0x3c45f0bc	0.012081321
151	0xbc85ded4	-0.016341604
152	0x3b3ad7b6	0.0028509921
153	0x3aacdd7f	0.001318857
154	0xba01c37e	-0.000495009
155	0xbcc34584	-0.023836859
156	0x3bf2ee8e	0.007413692
157	0xbc761862	-0.015020462
158	0xbbf19eaa	-0.0073736506
159	0xbb013b54	-0.00197192
160	0xbcac7da9	-0.021056013
161	0xbb50b901	-0.0031848552
162	0xbbac0123	-0.005249159
163	0xbc647a7f	-0.013945221
164	0xbc71d9fb	-0.014761443
165	0x3c813131	0.015770527
166	0x3c103f81	0.008804203
167	0x3c3134df	0.010815828
168	0xbb8ace41	-0.004236013
169	0x382b6fc4	4.0873667e-05
170	0x3cbe4adf	0.02322906
171	0xbb0a0565	-0.0021060344
172	0xbb94e9e0	-0.0045444816
173	0xbbccbadb	-0.006247861
174	0xbbe69125	-0.0070363455
175	0xbbfe7811	-0.007765778
176	0xbb1f55ef	-0.0024312695
177	0xb78d8ae3	-1.6873184e-05
178	0xbba40224	-0.005005138
179	0x3a7e86ce	0.00097094185
180	0xbc118d6e	-0.008883817
181	0x3bc6d22f	0.0060675363
182	0xbc176cb7	-0.009242228
183	0xbb4c8e65	-0.0031212803
184	0x3c2969a1	0.010340125
185	0x3a5f3f5e	0.00085162173
186	0xbac689a2	-0.0015147219
187	0x3abbc1c5	0.0014324716
188	0xbbcab882	-0.006186546
189	0x3a7c3022	0.00096202095
190	0xbaaafb3a	-0.0013044842
191	0xbceb1c54	-0.028700031
192	0xbb1c2c63	-0.0023830167
193	0xbc39b3f9	-0.011334413
194	0x3c6e37db	0.014539684
195	0xbc61adfd	-0.013774392
196	0xbc473428	-0.012158431
197	0x3bb12f7e	0.005407273
198	0xbc5f0128	-0.0136111155
199	0xbc8e7744	-0.017390855
200	0x3bd4917e	0.0064870706
201	0x3c2a7c4c	0.010405611
202	0xbabc05c7	-0.0014344984
203	0xbc607626	-0.013700044
204	0x3c433961	0.011915536
205	0xbc6d4a9e	-0.014483122
206	0xbbe9a982	-0.0071308026
207	0xba5826e4	-0.0008245541
208	0x3b533231	0.0032225961
209	0xbc28cc30	-0.010302588
210	0xbad35a44	-0.0016124924
211	0x3c84ae01	0.016196253
212	0xbc6d2318	-0.014473699
213	0x39332f48	0.00017088384
214	0x3b9ba084	0.0047493596
215	0x3ca98f66	0.02069826
216	0x3b812c1f	0.003942027
217	0x3c031874	0.008001436
218	0x3b906680	0.00440675
219	0x3b8de449	0.004330192
220	0x3b5c1a2e	0.003358494
221	0xbb0a99f6	-0.0021148897
222	0xbc5c092e	-0.013429923
223	0x3b3c86fe	0.0028766985
224	0x3b9a04b7	0.004700269
225	0x3b7bda52	0.003842969
226	0xba898bad	-0.0010493897
227	0xbc330ad4	-0.010927875
228	0x3b9851ae	0.004648409
229	0xbc2ca4f8	-0.0105373785
230	0x3b20cd12	0.0024536294
231	0xbad16513	-0.0015975557
232	0x3977ca88	0.00023631204
233	0x3ad2575f	0.0016047767
234	0xbc2dac1b	-0.010600115
235	0x3b2cd5e3	0.0026372604
236	0xbc0e96c6	-0.008702939
237	0xbc2a5b33	-0.01039772
238	0x3a9516ad	0.0011374556
239	0x3bc78339	0.006088641
240	0x3b4e6f1f	0.0031499339
241	0xbc130dea	-0.008975485
242	0xbb843c55	-0.0040355125
243	0xbc8e5992	-0.017376695
244	0xbb8a9ec2	-0.004230351
245	0x3c963777	0.018336995
246	0x3b6766eb	0.0035309147
247	0x3bcf9847	0.0063352915
248	0xbccf9518	-0.025339648
249	0xbb6327cc	-0.0034661172
250	0x39f273f7	0.00046244237
251	0x3adcb239	0.0016837782
252	0x3ba6705b	0.005079312
253	0xbaaf564a	-0.0013377157
254	0x3c05f710	0.00817658
255	0xbc18fe67	-0.009337998

network.2.running_mean f4 [256]
0	0x3eadc6a0	0.339406
1	0x3edab2c7	0.4271452
2	0x3ec0b42a	0.37637454
3	0x3e8a661c	0.27031028
4	0x3ec0ab8e	0.37630886
5	0x3ea725af	0.32645938
6	0x3e86110e	0.26184887
7	0x3ea1c104	0.31592572
8	0x3ee016e4	0.43767464
9	0x3ebbeb6f	0.3670306
10	0x3eb33298	0.34999537
11	0x3ef44ed3	0.47716388
12	0x3ea12bfe	0.31478876
13	0x3e9c85e7	0.3057091
14	0x3ec7ebe0	0.39047146
15	0x3ea8cdca	0.32969505
16	0x3eeb731f	0.45986268
17	0x3ea99d38	0.3312776
18	0x3e95631f	0.29177186
19	0x3eb76a2d	0.35823193
20	0x3ea78a4f	0.3272271
21	0x3ee67ef5	0.45018736
22	0x3e8b403e	0.2719745
23	0x3e9190a2	0.2843066
24	0x3e9816e3	0.2970496
25	0x3ea9fd72	0.33201176
26	0x3f064660	0.52451134
27	0x3e9bb91e	0.3041467
28	0x3ea12aae	0.31477875
29	0x3e89b352	0.26894623
30	0x3ea42993	0.3206297
31	0x3e872c14	0.26400816
32	0x3ed8ab2b	0.4231809
33	0x3ed3313b	0.41248497
34	0x3e9b73d1	0.30361798
35	0x3ead802f	0.3388686
36	0x3e80c630	0.25151205
37	0x3e955091	0.2916303
38	0x3ec6ecb5	0.38852468
39	0x3ea28a55	0.31746164
40	0x3ea695d4	0.32536185
41	0x3ea850ba	0.3287409
42	0x3ea6f90d	0.32611886
43	0x3eb6c5c5	0.3569776
44	0x3eeba8aa	0.46027118
45	0x3ea8aae6	0.32942885
46	0x3eccc96b	0.3999742
47	0x3eab80df	0.33496758
48	0x3e9ee431	0.3103347
49	0x3ead435b	0.3384045
50	0x3e8d5c62	0.27609545
51	0x3ea97f09	0.33104733
52	0x3ebe3ec7	0.3715727
53	0x3e9da688	0.30791116
54	0x3ec95173	0.39319953
55	0x3ed1e3e4	0.4099418
56	0x3ec9cf98	0.39416194
57	0x3ea32e48	0.31871247
58	0x3ea46dce	0.32115024
59	0x3e8b45eb	0.2720178
60	0x3eab690b	0.3347858
61	0x3e984c8d	0.29745904
62	0x3e81ce07	0.253525
63	0x3eeb0a15	0.4590613
64	0x3e7f093a	0.24905863
65	0x3eb7c8df	0.3589544
66	0x3eafc132	0.34327084
67	0x3e7d80ac	0.24756116
68	0x3ebb6873	0.36603126
69	0x3ed19b6f	0.409389
70	0x3eada45d	0.33914462
71	0x3eb2e728	0.34941983
72	0x3e9b1265	0.3028747
73	0x3ec8dc72	0.39230686
74	0x3ea7f4b1	0.32803872
75	0x3ec3e332	0.38259274
76	0x3e995d5e	0.29954046
77	0x3ea2a56a	0.31766826
78	0x3ebe16c1	0.37126735
79	0x3e6ce3ce	0.23133776
80	0x3ed9254c	0.42411268
81	0x3ec78d4b	0.38974985
82	0x3ebd1213	0.36927852
83	0x3eae4d49	0.3404334
84	0x3e83d611	0.25749257
85	0x3ec6ef02	0.38854223
86	0x3ea780ba	0.32715398
87	0x3ec1d55b	0.3785809
88	0x3e91d038	0.2847917
89	0x3eb3b118	0.3509605
90	0x3e9614e5	0.29312816
91	0x3e8186d8	0.2529819
92	0x3eb88719	0.3604057
93	0x3eb1dac4	0.34737217
94	0x3e97aa18	0.2962196
95	0x3ed074a5	0.40713993
96	0x3eaf826d	0.34279194
97	0x3eb35a55	0.35029855
98	0x3edec7a3	0.43511686
99	0x3e9f6c42	0.31137282
100	0x3ea2a40d	0.31765786
101	0x3f085fbe	0.5327109
102	0x3ebbd4bb	0.36685738
103	0x3ec4def2	0.38451344
104	0x3ef462a2	0.477315
105	0x3f0c4aad	0.54801446
106	0x3e8f9e6d	0.28050557
107	0x3ea5d9d6	0.32392758
108	0x3e8d1cb8	0.27560973
109	0x3ea90b84	0.33016598
110	0x3e74be4d	0.23900719
111	0x3ea65971	0.32490113
112	0x3eb88002	0.36035162
113	0x3e7cd4ba	0.24690524
114	0x3e52a98b	0.20572488
115	0x3e7cae8b	0.24675958
116	0x3ed9df3e	0.42553133
117	0x3ed4a72b	0.4153379
118	0x3ec37f16	0.38182896
119	0x3ee7399c	0.4516114
120	0x3ec24678	0.37944388
121	0x3ecc9ba4	0.39962494
122	0x3ea539a7	0.32270548
123	0x3ed69e3c	0.41917598
124	0x3ec4a955	0.3841044
125	0x3e759738	0.23983467
126	0x3e8db055	0.27673593
127	0x3edadc30	0.42746115
128	0x3e995c10	0.2995305
129	0x3eb752db	0.358054
130	0x3e882811	0.26593068
131	0x3ef686c9	0.48149708
132	0x3eb6516a	0.3560899
133	0x3e9b7fea	0.30371028
134	0x3e6119cb	0.21982495
135	0x3eabedec	0.33579957
136	0x3ec9cf98	0.39416194
137	0x3eabfe14	0.33592284
138	0x3e96c059	0.29443625
139	0x3ea19bcd	0.3156418
140	0x3ec45b4b	0.383509
141	0x3ec9e7c0	0.39434624
142	0x3eb7b727	0.35881922
143	0x3edfacf6	0.43686646
144	0x3e96b702	0.294365
145	0x3ec3f984	0.38276303
146	0x3e9b7b62	0.3036757
147	0x3e6b3e5f	0.22973011
148	0x3efcdb79	0.49386194
149	0x3ee26438	0.44217086
150	0x3e8a16d5	0.26970544
151	0x3ea75c18	0.3268745
152	0x3eb9bdfe	0.36277765
153	0x3e7bf816	0.24606356
154	0x3ef3c06d	0.47607747
155	0x3ebab8c4	0.3646909
156	0x3e9ddcbe	0.30832475
157	0x3ed50600	0.4160614
158	0x3e97c068	0.29638982
159	0x3ed1a7e8	0.40948415
160	0x3e97e227	0.29664728
161	0x3eec6eb9	0.46178225
162	0x3eba2714	0.3635794
163	0x3e712760	0.23550177
164	0x3eb6cb45	0.35701957
165	0x3eb32562	0.34989458
166	0x3eaf749a	0.34268647
167	0x3ed94d44	0.42441761
168	0x3e917536	0.28409737
169	0x3ea4b30a	0.32167846
170	0x3ea39ef1	0.319572
171	0x3e3acfbc	0.18243307
172	0x3ee68588	0.4502375
173	0x3e88c84e	0.2671532
174	0x3e3577cb	0.17721479
175	0x3ea51c8f	0.3224835
176	0x3e8d93b1	0.27651742
177	0x3ea016f4	0.31267512
178	0x3ed7601f	0.42065522
179	0x3ec80d60	0.39072704
180	0x3e9facf2	0.31186634
181	0x3e937541	0.28800395
182	0x3eb43d0e	0.3520283
183	0x3ec2e5d7	0.3806598
184	0x3ec13945	0.37739006
185	0x3ebed295	0.37270036
186	0x3eea310d	0.45740548
187	0x3eb7800c	0.3583988
188	0x3ee8d42d	0.45474377
189	0x3e990ecf	0.2989411
190	0x3eb3a844	0.35089314
191	0x3e8909ac	0.26765192
192	0x3e90fb74	0.28316844
193	0x3ed60a98	0.41804957
194	0x3ea1d632	0.3160873
195	0x3eb14e0d	0.3462986
196	0x3eb18351	0.346705
197	0x3ead8e81	0.33897784
198	0x3ebb6464	0.3660003
199	0x3e901900	0.28144073
200	0x3ee0ca35	0.43904272
201	0x3ecd6abf	0.40120503
202	0x3eab3e54	0.3344599
203	0x3eac6acc	0.3367523
204	0x3ed4f8e9	0.41596153
205	0x3ed5cc5e	0.41757482
206	0x3ea9a4de	0.33133596
207	0x3ec28612	0.37992913
208	0x3ef5eb5b	0.48031124
209	0x3ee91b98	0.45528865
210	0x3e8d3a21	0.2758341
211	0x3e928b89	0.28622082
212	0x3e8a4746	0.27007502
213	0x3e99e7c3	0.30059633
214	0x3edbaafc	0.42903888
215	0x3eebad43	0.46030626
216	0x3eaa9d89	0.33323315
217	0x3ec462bd	0.3835658
218	0x3ed87718	0.4227836
219	0x3ee00238	0.43751693
220	0x3eddcf55	0.43322244
221	0x3e8d94dd	0.27652636
222	0x3e91a6b0	0.28447485
223	0x3e80edd2	0.25181442
224	0x3ed64d28	0.4185574
225	0x3eb216e0	0.34783077
226	0x3eba791b	0.3642052
227	0x3eb49d97	0.35276482
228	0x3e94f0f7	0.29090092
229	0x3ec0ec75	0.37680402
230	0x3ece193f	0.40253636
231	0x3eb89f52	0.36059052
232	0x3e956a5b	0.29182705
233	0x3eb5585f	0.35418984
234	0x3ebfddf3	0.3747402
235	0x3e7bea48	0.2460109
236	0x3ed0579b	0.40691838
237	0x3e766c28	0.24064696
238	0x3eb0e9d2	0.3455339
239	0x3e9a08d4	0.3008486
240	0x3ebc78ca	0.36810905
241	0x3ea46639	0.3210924
242	0x3ee28d41	0.44248393
243	0x3eb736c0	0.35783958
244	0x3eabcebf	0.33556172
245	0x3ec26e81	0.37974933
246	0x3ec17497	0.37784263
247	0x3ea884c5	0.32913795
248	0x3eab55fe	0.33464044
249	0x3edc36e3	0.43010625
250	0x3eeb62a3	0.4597369
251	0x3ee86a84	0.45393765
252	0x3eae6fab	0.3406957
253	0x3e9c1a08	0.3048861
254	0x3eac18b0	0.33612585
255	0x3ee8dd1b	0.4548119

network.2.running_var f4 [256]
0	0x3efd4b1c	0.49471366
1	0x3f02032f	0.5078611
2	0x3eaa3fbc	0.3325175
3	0x3e262cf0	0.1622808
4	0x3e7b1ff0	0.24523902
5	0x3eb88826	0.36041373
6	0x3e6382f9	0.22217931
7	0x3e64caf6	0.22343048
8	0x3eb55c42	0.3542195
9	0x3ea3ea53	0.32014713
10	0x3e816251	0.25270322
11	0x3f225c50	0.6342211
12	0x3edf86b5	0.4365746
13	0x3e4b960b	0.19881456
14	0x3ecddd86	0.4020807
15	0x3ea11d62	0.3146773
16	0x3f1d3f51	0.6142474
17	0x3e633ca5	0.22191103
18	0x3e177d4a	0.14793888
19	0x3e851b90	0.2599759
20	0x3e98c33d	0.29836455
21	0x3ed40ef0	0.41417646
22	0x3e2336e3	0.15938906
23	0x3e2cc19b	0.1687073
24	0x3ecd26f4	0.4006878
25	0x3e5140c3	0.20434861
26	0x3f4f459a	0.8096558
27	0x3e324668	0.1740967
28	0x3e4baa16	0.19889101
29	0x3e7d37d0	0.24728322
30	0x3e8e8cba	0.2784174
31	0x3e302366	0.17201003
32	0x3f181d73	0.59419936
33	0x3ec23493	0.37930736
34	0x3e72d394	0.23713523
35	0x3ed0cc42	0.40780836
36	0x3e1f8824	0.15579277
37	0x3e2cd91d	0.16879697
38	0x3e8b4fae	0.27209228
39	0x3e985c1a	0.29757768
40	0x3e70053c	0.23439497
41	0x3e63720f	0.22211479
42	0x3e7ea38b	0.24867074
43	0x3ece49ae	0.40290588
44	0x3edaf323	0.42763624
45	0x3ee401b0	0.44532537
46	0x3ec120bb	0.37720284
47	0x3ec28e27	0.3799908
48	0x3ee5c23a	0.44874746
49	0x3e93d882	0.2887612
50	0x3e1892c1	0.14899732
51	0x3ea22ae5	0.3167335
52	0x3e8cfd79	0.27537134
53	0x3e6e28f9	0.23257817
54	0x3ec07dad	0.37595883
55	0x3e930f55	0.28722635
56	0x3ec4c2dc	0.38429916
57	0x3e74d53d	0.23909469
58	0x3e8e8165	0.27833095
59	0x3e4a944a	0.1978313
60	0x3e7ba871	0.24575974
61	0x3e3c1b25	0.1836973
62	0x3e08f809	0.13375868
63	0x3ee61641	0.44938853
64	0x3e12061f	0.14260148
65	0x3ea0bf26	0.31395835
66	0x3e79141b	0.24324076
67	0x3e2e7c7d	0.17039676
68	0x3f06630b	0.5249488
69	0x3e9a96b5	0.30193105
70	0x3ead4468	0.33841252
71	0x3ee3dd0a	0.44504577
72	0x3e67d6e5	0.2264057
73	0x3ec09e97	0.37620994
74	0x3e8dba0b	0.27681002
75	0x3ec3bba0	0.38229084
76	0x3e2611c0	0.16217709
77	0x3e7fc5a1	0.24977733
78	0x3eb1b19e	0.34705824
79	0x3e7431b7	0.2384709
80	0x3e863268	0.26210332
81	0x3eb330a0	0.34998035
82	0x3ef525c0	0.47880363
83	0x3e3a4651	0.18190886
84	0x3e139458	0.14412057
85	0x3ef2b0da	0.47400552
86	0x3ea4023d	0.32032958
87	0x3eddad1b	0.43296131
88	0x3e220362	0.15821603
89	0x3ecb8fa3	0.39758024
90	0x3e62077f	0.22073172
91	0x3e7692a2	0.24079373
92	0x3e955af7	0.29170963
93	0x3e6fa799	0.23403777
94	0x3e881352	0.2657724
95	0x3ec78d40	0.38974953
96	0x3e64c273	0.22339801
97	0x3e89eec0	0.26939964
98	0x3ef98aca	0.487387
99	0x3e8cfa87	0.27534887
100	0x3e76be64	0.24096066
101	0x3f0163a5	0.5054267
102	0x3efb6dac	0.4910711
103	0x3e803cb5	0.25046316
104	0x3ed0df3a	0.40795308
105	0x3f15a63c	0.5845678
106	0x3e2ab963	0.16672282
107	0x3ea065ea	0.31327754
108	0x3e31be59	0.17357768
109	0x3e9f71f5	0.3114163
110	0x3e2b1f79	0.16711225
111	0x3e70424b	0.23462789
112	0x3ec95517	0.3932273
113	0x3e20437a	0.1565074
114	0x3e09dcdf	0.13463162
115	0x3e84d9a2	0.2594729
116	0x3f1ef2a0	0.62088966
117	0x3ebab67d	0.36467353
118	0x3e7fefb8	0.24993789
119	0x3ed570af	0.41687533
120	0x3ed3d1b9	0.41370943
121	0x3ec0c96b	0.3765367
122	0x3e6dabd6	0.23210081
123	0x3ecc57f3	0.3991085
124	0x3ed7d1d8	0.42152286
125	0x3e17196d	0.14755793
126	0x3e87e30c	0.2654041
127	0x3ee00d99	0.43760374
128	0x3e722cd3	0.23649912
129	0x3ed60e01	0.4180756
130	0x3e57d131	0.21075894
131	0x3f02e983	0.5113756
132	0x3eac86e9	0.33696678
133	0x3e6a4de0	0.2288127
134	0x3dbe560a	0.092937544
135	0x3e8e09e5	0.27741924
136	0x3e8f4af1	0.27986863
137	0x3e74c6fb	0.2390403
138	0x3eee9a0a	0.46601897
139	0x3e48b961	0.19601966
140	0x3eaddfa0	0.33959675
141	0x3e9f9908	0.3117144
142	0x3ec00882	0.3750649
143	0x3ede05e3	0.43363866
144	0x3e5d9ab8	0.21641052
145	0x3e85a51a	0.26102525
146	0x3e6c51a1	0.23078014
147	0x3df20445	0.118172206
148	0x3f0c95d3	0.54916114
149	0x3ebe83b5	0.3720986
150	0x3e1773f9	0.14790334
151	0x3e6dcf28	0.23223555
152	0x3e969b13	0.29415187
153	0x3e0d21be	0.13782403
154	0x3f11bf6f	0.5693273
155	0x3ebb76d8	0.36614108
156	0x3eae8b12	0.34090477
157	0x3ef773c9	0.48330525
158	0x3e422890	0.18960786
159	0x3ea2169d	0.31657878
160	0x3e4c6118	0.19958913
161	0x3f0ebd86	0.5575794
162	0x3e5f10b2	0.21783713
163	0x3e0b24bd	0.13588233
164	0x3eaa1bb2	0.33224255
165	0x3e94f396	0.2909209
166	0x3e5c18c1	0.21493818
167	0x3ed05f25	0.4069759
168	0x3e2792b6	0.1636456
169	0x3e5a2ca8	0.21306098
170	0x3ea2c0a8	0.3178761
171	0x3da6f510	0.08152211
172	0x3f01039f	0.5039615
173	0x3e4a8f81	0.19781305
174	0x3dbf2d69	0.09334833
175	0x3e97d76f	0.2965655
176	0x3e4367a1	0.190825
177	0x3e536f74	0.20647985
178	0x3ef0d09a	0.4703415
179	0x3e9e9bf6	0.30978364
180	0x3e9a647d	0.3015479
181	0x3e5afdc8	0.21385872
182	0x3e412b09	0.18864073
183	0x3eade334	0.33962405
184	0x3ecdbf70	0.40185118
185	0x3eb8b816	0.36077946
186	0x3f001cb8	0.5004382
187	0x3e8d872d	0.27642193
188	0x3f162d52	0.58662903
189	0x3e9559ae	0.29169983
190	0x3e7bd0f6	0.24591431
191	0x3e907630	0.2821517
192	0x3e0eccdb	0.13945334
193	0x3f0db248	0.5535016
194	0x3e6b53b3	0.22981147
195	0x3e53699b	0.20645754
196	0x3e9badd2	0.30406052
197	0x3e976834	0.29571688
198	0x3ecee352	0.40407807
199	0x3e836641	0.2566395
200	0x3f0c5311	0.5481425
201	0x3ea713e6	0.3263237
202	0x3ecce508	0.40018487
203	0x3e6d11d0	0.23151326
204	0x3eff36d9	0.49846533
205	0x3eb63e61	0.35594466
206	0x3e910e72	0.28331333
207	0x3e895f5b	0.26830563
208	0x3f09bd85	0.5380481
209	0x3efffc60	0.49997234
210	0x3e90df63	0.2829543
211	0x3e806a4e	0.25081104
212	0x3e2a10be	0.16607949
213	0x3e5c054e	0.21486399
214	0x3f02ca1d	0.5108965
215	0x3f0e56b5	0.55601054
216	0x3e720a97	0.23636852
217	0x3ecc3d45	0.39890495
218	0x3eb038c5	0.34418312
219	0x3ee2b568	0.44279027
220	0x3ebf0304	0.37306988
221	0x3e54c010	0.20776391
222	0x3e443c1a	0.19163552
223	0x3e198873	0.14993457
224	0x3e93d737	0.28875133
225	0x3ec0115b	0.3751324
226	0x3ea76d5f	0.3270063
227	0x3ecf79c9	0.40522602
228	0x3e428878	0.18997371
229	0x3e9ac16c	0.30225694
230	0x3ec44378	0.38332725
231	0x3eb2e1d2	0.34937912
232	0x3e72cbf2	0.23710611
233	0x3e90ead7	0.2830417
234	0x3ebf7694	0.37395155
235	0x3e5c0709	0.21487059
236	0x3eca46ee	0.3950724
237	0x3dd78a37	0.10524409
238	0x3e951bac	0.29122674
239	0x3eab5595	0.3346373
240	0x3eb5f055	0.3553492
241	0x3ed8782d	0.42279187
242	0x3ea32c0d	0.31869546
243	0x3ebf7181	0.37391284
244	0x3eabc18c	0.33546102
245	0x3e9d58ea	0.307319
246	0x3eb8a902	0.36066443
247	0x3e93c070	0.28857756
248	0x3e7d16fe	0.24715802
249	0x3eb8c400	0.36087036
250	0x3f19ad94	0.60030484
251	0x3f00b8cc	0.5028198
252	0x3e581dbb	0.21105091
253	0x3e694c1f	0.22782944
254	0x3e6c78d5	0.23092969
255	0x3f2bba0c	0.6708076

network.4.weight f4 [128, 256]
0	0xbd4edd3e	-0.05050396
1	0xbd7c8f1e	-0.061659925
2	0xbd5fc26c	-0.054628775
3	0x3bf4cb42	0.0074705193
4	0x3da03825	0.07823209
5	0x3d4263c5	0.04745843
6	0xbcba40ae	-0.02273592
7	0x3be3ce88	0.0069521107
8	0x3da44c33	0.08022346
9	0xbd081570	-0.03322357
10	0x3c8b32da	0.016992021
11	0x3c8fb36f	0.017541615
12	0x3ce1f013	0.027580297
13	0xbc957f15	-0.018249074
14	0xbcbf2fc2	-0.023338202
15	0x3b778d92	0.0037773591
16	0x3d07b846	0.03313472
17	0xbd06fb37	-0.03295442
18	0x3cbb281a	0.02284627
19	0xbd31a98f	-0.043374594
20	0xbd541f49	-0.05178765
21	0xbd5f595f	-0.05452859
22	0x3cc18fbb	0.023628106
23	0x3c05c41d	0.008164433
24	0x3cd3b198	0.02584152
25	0x3d6a6484	0.057224765
26	0xbc441e8b	-0.011970173
27	0x3cf64f22	0.03006703
28	0xbd44f562	-0.048085578
29	0x3d6a768f	0.057241973
30	0x3d4b247f	0.049595352
31	0x3d2921af	0.04129189
32	0xbc39bfe0	-0.0113372505
33	0x3d0d4116	0.0344859
34	0xbd5c448d	-0.053776313
35	0xbd434d8c	-0.047681376
36	0x3d0dced4	0.034621075
37	0xbd82eb8b	-0.063925825
38	0xbd7fdfe4	-0.062469378
39	0x3c01ebb1	0.007929728
40	0xbc495b41	-0.012289823
41	0xbd83ba52	-0.06432022
42	0x3cace8b7	0.02110706
43	0xbb87cc3a	-0.0041442188
44	0x3be5a1be	0.0070078066
45	0x3c764535	0.015031149
46	0xbc1f2463	-0.009713265
47	0x3d4a3bcd	0.049373437
48	0xbd4c8d9c	-0.049939737
49	0xbd027a80	-0.031855106
50	0xbcce5e6e	-0.025191512
51	0xbd2e2f2b	-0.04252545
52	0x3d2efeb1	0.04272336
53	0xbc0f9dc7	-0.008765644
54	0x3d09579e	0.033530824
55	0xbd8097e2	-0.06278969
56	0x3d81e668	0.06342775
57	0x3d59f8ee	0.053215913
58	0xbc94976d	-0.018138612
59	0xbd064d30	-0.032788455
60	0x3d05b751	0.032645527
61	0x3d27a0e4	0.04092492
62	0xbc215411	-0.009846703
63	0xbc6108d3	-0.013735014
64	0xbd37fb49	-0.04491738
65	0xbbb6969a	-0.0055721523
66	0x3ca2c16b	0.01986762
67	0xbcca5619	-0.024699258
68	0x3cd1f1f6	0.025628071
69	0xbcfb2884	-0.030658968
70	0xbd0ec1a0	-0.034852624
71	0xbb11a1d5	-0.0022221704
72	0x3aeb556c	0.0017954535
73	0xbd558494	-0.05212839
74	0x3b9de9cb	0.00481913
75	0x3cefea82	0.029286627
76	0x3bfca11a	0.0077096345
77	0xbc801785	-0.015636215
78	0xbcccf022	-0.025016848
79	0xbd2b43d8	-0.041812748
80	0x3c07fb78	0.008299701
81	0x3c785a4a	0.015158245
82	0xbbdaee80	-0.0066812634
83	0xbcb55252	-0.02213398
84	0xbd0361cc	-0.03207569
85	0xbca62938	-0.020283327
86	0xbd0b2380	-0.033969402
87	0xbd931d3a	-0.07183309
88	0x3d623eab	0.055235546
89	0xbcdcc0ad	-0.026947344
90	0x3d381de6	0.04495039
91	0x3cd6bc57	0.026212854
92	0x3c232b5b	0.009959067
93	0xbd0fb285	-0.03508236
94	0xbda871c7	-0.08224826
95	0x3ce5b35d	0.028039629
96	0x3d53aeb6	0.05168029
97	0x3c36156a	0.011113504
98	0xbcb85524	-0.022501536
99	0xbd1e6dfc	-0.038679108
100	0x3d401748	0.046897203
101	0xbce08771	-0.027408333
102	0xbd1e5570	-0.0386557
103	0xbccedcdf	-0.025251804
104	0xbc88f119	-0.016716527
105	0x3d98c881	0.07460118
106	0xbd767728	-0.06017223
107	0xbbc5f6c7	-0.006041381
108	0x3c9becda	0.019033838
109	0x3d2e8358	0.042605728
110	0xbca9dab9	-0.020734178
111	0x3d280abb	0.04102586
112	0xbd880cc8	-0.06643063
113	0x3d21ccdd	0.039502013
114	0xbbfdd263	-0.0077460273
115	0xbd60475a	-0.054755546
116	0x3cafe7a9	0.021472769
117	0xbca12d7f	-0.019675015
118	0x3d31d416	0.04341515
119	0xbc32f566	-0.010922765
120	0xbce4dada	-0.027936388
121	0x3d6bf851	0.05760986
122	0x3d053f22	0.03253091
123	0x3d16a83b	0.03678153
124	0x39930e2e	0.0002804859
125	0x3d49b325	0.04924311
126	0xbccdb922	-0.025112692
127	0x3cbcc1d9	0.023041653
128	0xbd1fbb94	-0.038997248
129	0x3c552cbc	0.013011154
130	0xbcd34718	-0.025790736
131	0x3b9aa01d	0.004718794
132	0xbc6e4929	-0.01454381
133	0x3d09997d	0.033593643
134	0xbcebcd28	-0.02878435
135	0x3d421620	0.04738438
136	0x3d7b4a4c	0.061350152
137	0x3d9f31fb	0.07773205
138	0xbc0eb050	-0.008709028
139	0x3d117455	0.035511333
140	0x3d37c57a	0.044866063
141	0xbd1c9ff4	-0.03823848
142	0xbd58fa4a	-0.05297307
143	0x3d1e5ccd	0.03866272
144	0xbd6be660	-0.05759275
145	0xbd622a15	-0.055215914
146	0xbcaa1b1d	-0.020764882
147	0x3d9fabd2	0.07796444
148	0x3cc77193	0.024346149
149	0x3c4327e5	0.011911367
150	0x3d265cc4	0.040615812
151	0xbd49a131	-0.04922599
152	0xbd34ad06	-0.04411032
153	0xbd041bd8	-0.032253116
154	0xbd4f9f1f	-0.05068886
155	0xbd381089	-0.044937644
156	0x3c85a9cd	0.016316319
157	0x3c8e9d4b	0.017408988
158	0x3c40da11	0.011770741
159	0xbd4892a1	-0.04896796
160	0xbd706ced	-0.05869763
161	0xbd88537a	-0.06656547
162	0x3c9d8043	0.019226199
163	0x3c9877ea	0.018611867
164	0x3c252ecf	0.010081961
165	0xbd0d8174	-0.034547284
166	0x3cc4a69a	0.024005223
167	0xbd4fa5ef	-0.050695356
168	0xbc726fba	-0.0147971455
169	0x3d0287e2	0.03186787
170	0x3d120e37	0.035658088
171	0xbc27e579	-0.010247582
172	0xb9e0d3f4	-0.00042882527
173	0x3d59e868	0.053200155
174	0xbcd7afd0	-0.026328951
175	0xbd0f3b0f	-0.034968432
176	0x3acaa920	0.001546178
177	0xbd510941	-0.051034216
178	0x3d2c1a47	0.042017248
179	0x3d6f247b	0.0583844
180	0x3d6d51ac	0.057939216
181	0x3cb62e8b	0.02223899
182	0x3d4e74c4	0.050404325
183	0x3d207bf5	0.039180715
184	0xbd88e39d	-0.06684039
185	0x3d23c391	0.03998143
186	0xbc9e58e0	-0.019329488
187	0x3d7dd42d	0.061969925
188	0xbc2c0bbf	-0.010500847
189	0x3c5c6d41	0.013453783
190	0xbc867242	-0.016411904
191	0x3d4d2627	0.050085213
192	0xbcfdddba	-0.030989517
193	0xbc9edf04	-0.019393452
194	0xbd99ca9d	-0.075093485
195	0xbd1eca86	-0.03876736
196	0x3ca8fafb	0.02062749
197	0xbcf97beb	-0.030454597
198	0xbba0cd78	-0.0049073063
199	0x3d6ad520	0.057332158
200	0x3c94aaac	0.018147789
201	0x3d66309b	0.056198698
202	0x3b2493ae	0.0025112438
203	0xbd388d85	-0.04505684
204	0x3cecfebd	0.028930062
205	0x3d5e2e6b	0.054243486
206	0x3d02aba1	0.03190196
207	0x3d2aabae	0.041667633
208	0x3db17021	0.08663965
209	0x3d6da9a0	0.058023095
210	0x3d281470	0.041035116
211	0x3d2ebed9	0.042662475
212	0x3d149977	0.036279168
213	0xbcb686b0	-0.02228102
214	0x3bad4671	0.0052879383
215	0xbd47b9bc	-0.048761114
216	0xbc745342	-0.014912428
217	0xbd69d72d	-0.057089973
218	0x3d10b3ea	0.03532783
219	0xbd68f7fc	-0.05687712
220	0x3d6cc9ff	0.057809826
221	0x3b57eebd	0.0032948696
222	0xba9e4213	-0.0012074135
223	0xbcea83e8	-0.02862735
224	0xbc710f85	-0.014713173
225	0x3ab9c727	0.0014173732
226	0xbd27038e	-0.040774874
227	0xbd71fe63	-0.059080493
228	0x3d4f6428	0.050632626
229	0x3d61b8df	0.055107947
230	0xbc213a8e	-0.009840621
231	0xbd84be25	-0.0648158
232	0x3d5e7408	0.054309875
233	0xbbaeb72b	-0.005331894
234	0xbcb8125c	-0.022469692
235	0xbd1157b8	-0.035484046
236	0x3d04e5fc	0.032445893
237	0x3cfc2111	0.030777486
238	0x3cc2cb11	0.02377847
239	0x3c559830	0.013036773
240	0xbc4fa5f5	-0.012673845
241	0xbd52820c	-0.051393554
242	0xbcce066d	-0.025149548
243	0xbd1b6ee6	-0.037947558
244	0x3d065612	0.032796927
245	0xbbfd994a	-0.0077392207
246	0x3baa47c5	0.005196544
247	0x3c7cdf81	0.015434147
248	0xbc2767ce	-0.01021762
249	0xbc3641aa	-0.011124054
250	0xbceec64c	-0.02914729
251	0x3d4a040a	0.04932026
252	0xbc8496f5	-0.016185263
253	0x3d51ff08	0.051268607
254	0x3d4f6a4e	0.05063849
255	0xbcc5c87c	-0.02414345
